best_epoch_weights.onnx (onnx, 677466 bytes, 182 tensors)

scales__522 f4 [4]
0	0x3f800000	1.0
1	0x3f800000	1.0
2	0x40000000	2.0
3	0x40000000	2.0

model_3/yolo_head_P5/separable_conv2d/ReadVariableOp_1:0 f4 [24, 64, 1, 1]
0	0xbd5cab57	-0.05387434
1	0xbdbfebb9	-0.093711324
2	0x3cc58950	0.024113327
3	0x3e3b13c4	0.18269259
4	0x3e571172	0.21002749
5	0x3e154c0c	0.14579791
6	0x3d954fa7	0.07290583
7	0x3d5a0882	0.05323077
8	0x3dfe9de1	0.12432457
9	0x3d259fd9	0.040435646
10	0xbe208b2c	-0.1567809
11	0xbe336e2d	-0.17522497
12	0x3e820507	0.2539446
13	0x3e33baed	0.17551775
14	0xbe52467a	-0.20534697
15	0xbc86567b	-0.016398659
16	0xbe82f182	-0.2557488
17	0x3bffaca4	0.007802563
18	0x3ecdec77	0.4021947
19	0xbe6fbd73	-0.23412113
20	0xbe8006c9	-0.25005177
21	0x3cc7ef8f	0.024406223
22	0xbdd5c2bf	-0.104375355
23	0xbe2bcb45	-0.1677676
24	0xbe22ea5b	-0.15909712
25	0x3e7c9f43	0.24670129
26	0xbe5df02b	-0.21673648
27	0xbe2f0451	-0.1709149
28	0xbded7942	-0.11595394
29	0x3c4e26c3	0.012582484
30	0x3e9472c5	0.28993812
31	0x3e30fcae	0.1728389
32	0xbe81cb45	-0.25350395
33	0xbdbd6e5f	-0.09249567
34	0x3e580619	0.21096076
35	0x3dc2e8ae	0.095170364
36	0x3e1faf9c	0.15594333
37	0x3e1c9163	0.15289836
38	0x3e85c1e2	0.26124483
39	0xbe54b52b	-0.20772235
40	0x3e15d9c7	0.14633857
41	0x3ec5e33d	0.38649932
42	0xbe5bd94b	-0.2146961
43	0x3e388587	0.18019687
44	0xbe36bf6a	-0.17846456
45	0x3c8c35cf	0.017115502
46	0xbec28bbe	-0.3799724
47	0xbe4fae4c	-0.20281333
48	0x3e908b64	0.28231347
49	0x3bbfd05b	0.0058536953
50	0xbdb0be1e	-0.08630012
51	0xbb95ea76	-0.004575069
52	0x3c91cc36	0.01779757
53	0x3ea4860b	0.32133517
54	0xbe83a2d6	-0.2571017
55	0x3e6ac5d3	0.22927026
56	0x3ccc08bd	0.02490651
57	0xbdd80882	-0.10548498
58	0x3df0e408	0.117622435
59	0x3daae3bb	0.083442174
60	0x3e9d0d82	0.30674368
61	0xbe7de687	-0.2479497
62	0x3df8eb72	0.12154283
63	0x3e072e38	0.13201225
64	0xbd852de2	-0.06502892
65	0xbe0fad08	-0.1403085
66	0x3e53ffb8	0.20703018
67	0xbd6501f8	-0.05591008
68	0x3d88767b	0.06663223
69	0x3e92605f	0.2858915
70	0xbdeca35c	-0.11554596
71	0x3e41d33c	0.18928236
72	0x3e567b10	0.20945382
73	0x3cdcccfa	0.02695321
74	0x3e478995	0.19486077
75	0x3ba1b73a	0.0049351724
76	0x3de7eeeb	0.11324867
77	0x3e1e4a61	0.15458061
78	0x3dce9c0a	0.10088356
79	0x3e24c6ef	0.16091512
80	0x3e336df4	0.17522413
81	0xbe7c61d3	-0.24646692
82	0x3e40e40d	0.18836994
83	0x3dda80ff	0.10669135
84	0xbd2a6728	-0.041602284
85	0xbe19154d	-0.14949532
86	0x3d41af92	0.047286578
87	0x3e30ba78	0.17258632
88	0xbe9d04c4	-0.30667698
89	0x3e0626a6	0.1310068
90	0x3e544b98	0.20731962
91	0x3cd16dce	0.025565054
92	0x3e8538c5	0.26019874
93	0xbe030348	-0.1279422
94	0x3df01c1b	0.11724111
95	0x3e5cb16a	0.21552053
96	0xbe0ccb9e	-0.13749549
97	0x3e0798de	0.13241908
98	0xbcd87f0e	-0.026427772
99	0xbec0250e	-0.3752827
100	0xbe3d8b7a	-0.18510237
101	0x3d455a1c	0.048181638
102	0xbde99fa7	-0.114074044
103	0x3e398b84	0.18119627
104	0x3cac6d10	0.021048099
105	0x3d6dd1c0	0.05806136
106	0xbd96cef1	-0.0736369
107	0xbe4237e5	-0.18966635
108	0xbd33357d	-0.043752182
109	0x3e4a7498	0.1977104
110	0x3e191fdc	0.1495356
111	0x3e3b5dcb	0.18297498
112	0x3b6831fc	0.0035430184
113	0xbeaf6299	-0.34254912
114	0xbb6b8694	-0.003593837
115	0x3daa5c1a	0.08318348
116	0xbe0ac859	-0.13552989
117	0xbe8fb833	-0.2807022
118	0xbe7c005f	-0.24609517
119	0xbe673eb8	-0.22582519
120	0xbdfea043	-0.12432911
121	0x3e3a8daf	0.1821811
122	0x3e134217	0.1438068
123	0xbe181574	-0.14851934
124	0x3e121244	0.1426478
125	0x3e743a0f	0.23850273
126	0xbe661318	-0.22468221
127	0xbd314a98	-0.04328403
128	0x3e89a5c1	0.26884273
129	0xbdcdd729	-0.10050804
130	0xbdc5c8ac	-0.09657416
131	0x3c040870	0.008058652
132	0xbe6a94c5	-0.22908314
133	0xbe782038	-0.2423104
134	0x3d5a0d1d	0.053235162
135	0x3cfa8be6	0.030584287
136	0xbda3d8aa	-0.0800031
137	0xbe566aa2	-0.20939115
138	0x3e3dd445	0.18538006
139	0x3e1fd24f	0.1560757
140	0x3e5f54ba	0.21809664
141	0xbd21a849	-0.03946713
142	0x3d8d7c9f	0.06908535
143	0xbd04c645	-0.032415647
144	0xbd3a7b53	-0.045527767
145	0x3dfea324	0.1243346
146	0x3dd0a5e1	0.10187889
147	0x3e18c5bc	0.1491918
148	0x3e32c2fa	0.1745719
149	0xbdd15360	-0.10220981
150	0x3e391e73	0.18078022
151	0x3e71696f	0.23575376
152	0x3d3123b9	0.04324696
153	0x3e2dc03b	0.16967861
154	0x3ce7a25a	0.028275657
155	0x3cf3244f	0.0296804
156	0x3da2f90c	0.07957658
157	0xbe499e20	-0.19689226
158	0x3ca3863e	0.019961473
159	0xbe2dd632	-0.1697624
160	0xbc749976	-0.014929166
161	0xbd56184f	-0.052269276
162	0xbc8e9c39	-0.017408477
163	0x3ddf87d5	0.1091458
164	0x3e60881f	0.21926926
165	0x3e8c97a0	0.2745943
166	0xbcacf592	-0.02111319
167	0x3ca015cd	0.019541645
168	0xbd8c0df0	-0.06838596
169	0x3d592a2c	0.053018734
170	0x3d580d4d	0.05274706
171	0xbdc048d1	-0.093888886
172	0x3e8cf3d1	0.27529767
173	0xbdd2d1bd	-0.10293911
174	0x3d5a3c3b	0.053280097
175	0x3e3b9f29	0.18322434
176	0x3e8f61b9	0.28004244
177	0x3cc12ff8	0.023582444
178	0xbe11bc68	-0.14232028
179	0xbe064d4b	-0.13115422
180	0x3e5025dc	0.20326942
181	0x3dbb36ae	0.09141289
182	0x3daf1061	0.08548046
183	0xbe62b6ce	-0.22140047
184	0x3deaad43	0.11458828
185	0xbd00d9b4	-0.031457618
186	0xbbd386b9	-0.006455269
187	0x3db9cad1	0.09071887
188	0xbc39f1e2	-0.011349173
189	0x3def653a	0.11689229
190	0x3de37371	0.11106003
191	0xbd9ea392	-0.07746042
192	0x3e6e5790	0.2327559
193	0xbb19ee22	-0.0023487885
194	0x3d6f48ea	0.058419146
195	0x3e725f65	0.23669203
196	0x3e843e50	0.2582879
197	0xbd87657a	-0.06611152
198	0x3e80b337	0.2513673
199	0xbd95654d	-0.07294712
200	0xbde3091c	-0.11085722
201	0xbd0f116a	-0.034928717
202	0xbdea16d3	-0.114301346
203	0x3d6ad77d	0.057334412
204	0x3ed6521e	0.41859525
205	0xbe465378	-0.19367778
206	0xbe4de12b	-0.20105426
207	0x3c61fb7f	0.0137928715
208	0xbd7e36bc	-0.062063918
209	0xbe3d5e8c	-0.18493098
210	0x3e4031fc	0.18769068
211	0xbe30cba8	-0.17265189
212	0xbd82c03f	-0.06384324
213	0xbe363fb1	-0.17797734
214	0x3e19b37c	0.15009874
215	0x3e3d62fb	0.1849479
216	0x3e2f4e38	0.17119682
217	0x3ee100fe	0.4394607
218	0x3c641110	0.013920084
219	0x3c975c3a	0.018476594
220	0xbe4304b9	-0.1904477
221	0x3e4ebe8e	0.20189878
222	0x3ce8b0b8	0.028404579
223	0x3e4ee7d2	0.2020562
224	0xbe32e2b6	-0.17469296
225	0xbe0f59f8	-0.13999164
226	0xbd09bc4c	-0.03362684
227	0xbe62a794	-0.22134238
228	0xbd38f73a	-0.04515765
229	0x3d424a3b	0.047434073
230	0x3dafb239	0.08578915
231	0xbdc0a6ce	-0.094068155
232	0xbe0abf38	-0.13549507
233	0x3bb83fca	0.0056228386
234	0xbbe447a8	-0.00696655
235	0x3d598837	0.05310842
236	0x3e9db100	0.30799103
237	0xbe2f3eec	-0.17113847
238	0x3d43b896	0.047783457
239	0x3d1aebd2	0.037822552
240	0x3c7349b9	0.01484912
241	0xbdb759c5	-0.08952669
242	0x3d585b59	0.05282149
243	0x3d921d85	0.07134537
244	0xbd44d299	-0.048052404
245	0x3e2ca2b9	0.16858949
246	0x3dfaa517	0.1223852
247	0xbe675ab4	-0.22593194
248	0x3cd15358	0.025552437
249	0x3dd9e4f2	0.10639371
250	0xbc14925d	-0.009068099
251	0x3e727ea0	0.23681116
252	0x3c0c1f25	0.008552347
253	0x3d0536a6	0.03252282
254	0xbe3d3ec8	-0.1848098
255	0x3d1bf351	0.03807384

model_3/yolo_head_P5/BiasAdd/ReadVariableOp:0 f4 [24]
0	0x3d00c41e	0.031437032
1	0xbd0ab4f6	-0.033863984
2	0xbec6a74d	-0.38799515
3	0xbe084f6a	-0.13311544
4	0xc0ad8435	-5.4223886
5	0xbe4fb517	-0.20283924
6	0xbe8aa9ef	-0.27082774
7	0xbf31e110	-0.69484043
8	0x3d3e7776	0.046500646
9	0x3d04725b	0.03233562
10	0xbee3b550	-0.44474268
11	0xbedae326	-0.42751426
12	0xc0afcee2	-5.4940042
13	0x3ec4c66c	0.38432634
14	0xbf02f251	-0.51150995
15	0xbf4c9245	-0.7991069
16	0xbb75fec1	-0.0037535878
17	0xbcbe5f1b	-0.02323871
18	0xbf5ee30d	-0.870652
19	0xbf1bf077	-0.60913795
20	0xc0b3dd74	-5.620783
21	0x3ec7eb84	0.39046872
22	0xbef0319d	-0.46912852
23	0xbf11d727	-0.5696892

model_3/yolo_head_P4/separable_conv2d/ReadVariableOp_1:0 f4 [24, 64, 1, 1]
0	0xbe27cde0	-0.16387129
1	0xbd9852c0	-0.07437658
2	0x3e3a11ae	0.18170807
3	0xbc01f23a	-0.0079312865
4	0xbe75d32e	-0.2400634
5	0xbe66fc85	-0.22557266
6	0xbdfc238b	-0.12311467
7	0xba33a584	-0.0006852972
8	0xbdc6b666	-0.097027585
9	0xbd27b194	-0.040940836
10	0xbd1e7172	-0.03868241
11	0x3e326cca	0.17424312
12	0x3e00fd23	0.12596564
13	0x3e2ee3d4	0.17079097
14	0xbe0a3f36	-0.13500676
15	0x3e0ec5c2	0.13942626
16	0xbe0af9c9	-0.13571848
17	0x3d47ff84	0.048827663
18	0x3e6b4a29	0.22977509
19	0xbd440b3b	-0.047862273
20	0xbe82f60c	-0.25578344
21	0x3e533150	0.2062428
22	0xbcf6aa55	-0.030110518
23	0x3e483e21	0.1955495
24	0xbd7405c4	-0.05957581
25	0xbef4a829	-0.47784546
26	0xbd9b7105	-0.07589916
27	0x3e16c34f	0.14722942
28	0x3e712f5b	0.23553221
29	0xbc58d476	-0.013234248
30	0xbe5116ea	-0.20418897
31	0x3e45f621	0.19332172
32	0x3e5218c1	0.20517255
33	0xbd446343	-0.047946226
34	0x3e848201	0.25880435
35	0x3d80ed26	0.062952325
36	0x3da97995	0.08275143
37	0x3cdbd2ca	0.02683391
38	0xbe12d56e	-0.1433923
39	0xbdd7e48b	-0.10541638
40	0xbd58dcf6	-0.0529451
41	0x3e2e499a	0.17020264
42	0x3de64024	0.112427026
43	0xbc90ac59	-0.017660307
44	0xbe09bd75	-0.13451178
45	0xbdd2954a	-0.10282381
46	0x3e4310e9	0.1904942
47	0x3de85dce	0.11346017
48	0xbd5d3464	-0.05400504
49	0xbe554365	-0.2082649
50	0xbd281051	-0.041031186
51	0x3e2f3834	0.17111284
52	0xbe349d19	-0.17638053
53	0x3e0e0d4e	0.13872263
54	0x3e01c0f0	0.12671256
55	0xbe3e4e06	-0.18584451
56	0x3cbec4d0	0.023287207
57	0xbeed8e74	-0.46397746
58	0xbe25d14f	-0.16193126
59	0x3e2c0022	0.16796926
60	0xbe125f97	-0.14294277
61	0xbcc7dd7d	-0.024397606
62	0x3ba54157	0.0050431895
63	0x3e857d91	0.26072362
64	0xbc13da23	-0.009024176
65	0x3d3f5e80	0.04672098
66	0xbd97c74e	-0.07411061
67	0x3dfc6fa9	0.12325985
68	0x3d5706cf	0.052496728
69	0xbd8f2046	-0.069885775
70	0x3dd950c6	0.106111094
71	0xbc80944b	-0.015695712
72	0xbe8a557a	-0.27018338
73	0xbe145561	-0.14485694
74	0xbdf942a8	-0.12170917
75	0xbcb548a1	-0.022129359
76	0x3e1a7854	0.15084964
77	0xbedf7d30	-0.43650198
78	0xbd1e5f86	-0.038665317
79	0xbe71c4e4	-0.23610264
80	0xbd0d08d2	-0.03443224
81	0xbed0307b	-0.40661988
82	0x3e5089ef	0.20365117
83	0x3d78964f	0.06069022
84	0x3d9c81aa	0.07641919
85	0xbe2e1e9a	-0.17003861
86	0xbebd4508	-0.3696673
87	0x3e035b55	0.12827809
88	0x3e2fb5db	0.17159216
89	0xbd456410	-0.04819113
90	0x3da5547d	0.080727555
91	0x3dafb234	0.085789114
92	0xbde2bd28	-0.11071235
93	0xbdfb1356	-0.122595474
94	0x3deffb41	0.11717845
95	0xbd2cd289	-0.04219297
96	0xbe114352	-0.14185837
97	0xbdec5606	-0.11539845
98	0x3e6f6950	0.23380017
99	0x3de196d5	0.11015097
100	0x3e31736e	0.17329189
101	0xbd92bde1	-0.07165123
102	0xbe2a33c6	-0.16621312
103	0xbb85680f	-0.0040712426
104	0x3e66d2ba	0.22541323
105	0xbe840774	-0.25786936
106	0x3c3147fa	0.010820383
107	0xbe26b98e	-0.16281721
108	0xbdaa6231	-0.0831951
109	0x3e8cd4e1	0.27506164
110	0x3d981dd5	0.07427565
111	0x3e3f8a68	0.18705142
112	0xbc35c470	-0.011094198
113	0x3ece9fc9	0.4035628
114	0x3e1f7bd7	0.15574585
115	0x3e004adb	0.12528555
116	0xbd1130f1	-0.035447065
117	0x3e5b4fa8	0.21417105
118	0xbde70244	-0.11279729
119	0x3d94971b	0.072553836
120	0x3e20d638	0.15706718
121	0x3ca87358	0.020562813
122	0xbd9d8cbe	-0.0769286
123	0xbe722de1	-0.23650314
124	0x3d2a20aa	0.041535057
125	0x3c605899	0.013692998
126	0xbe4a5178	-0.1975764
127	0x3d7e185f	0.06203496
128	0xbeb68909	-0.35651425
129	0x3df66ce6	0.120324895
130	0x3d9fd7ce	0.07804833
131	0x3cfccf97	0.030860705
132	0xbea53262	-0.32265002
133	0xbe298439	-0.16554345
134	0x3e151834	0.14560014
135	0xbd6a31f0	-0.05717653
136	0x3db36dcc	0.087611765
137	0x3e0810ee	0.13287708
138	0x3d5a8038	0.053344935
139	0x3e832ba9	0.25619248
140	0x3aba6f89	0.0014223914
141	0xbcca3b7e	-0.024686571
142	0x3ca74c6f	0.020422189
143	0xbdac57fe	-0.08415221
144	0xbd7e9509	-0.06215385
145	0xbd6023e4	-0.054721728
146	0x3cac1362	0.021005336
147	0xbda7d6ad	-0.08195243
148	0xbd00e256	-0.03146585
149	0x3dcac951	0.09901679
150	0xbe03c24c	-0.12867087
151	0x3d898fe7	0.067169
152	0xbde04939	-0.10951466
153	0x3c576034	0.013145495
154	0x3d91d4c2	0.071206585
155	0x3d452450	0.048130333
156	0xbdc22596	-0.09479825
157	0xbd3ef326	-0.046618603
158	0xbe77c6cb	-0.24196927
159	0x3bca377a	0.006171164
160	0x3bf6db77	0.0075334865
161	0x3e1723ff	0.14759825
162	0xbdaa6282	-0.0831957
163	0xbd013794	-0.031547144
164	0xbe0b9903	-0.13632588
165	0xbdabec2c	-0.083946556
166	0xbe09dbd1	-0.1346276
167	0xbe6edde7	-0.23326837
168	0x3e5303e0	0.20606947
169	0xbe2f972a	-0.17147508
170	0x3d7b0fc2	0.061294325
171	0x3e89c540	0.26908302
172	0xbe0b062f	-0.13576578
173	0xbe3be1e1	-0.18347885
174	0xbd71f127	-0.05906787
175	0x3e1b61df	0.15174054
176	0x3be5922d	0.007005951
177	0xbdc0aa23	-0.09407451
178	0x3e1b52e5	0.1516834
179	0x3e505b0e	0.20347235
180	0x3e690e55	0.22759373
181	0xbd009479	-0.031391595
182	0xbde5a272	-0.112126246
183	0x3e2898c9	0.16464533
184	0x3cca9cf6	0.024733048
185	0xbae1df9c	-0.0017232778
186	0x3e05655a	0.13026944
187	0x3de058da	0.10954447
188	0x3e842243	0.2580739
189	0x3f1ece0f	0.6203317
190	0x3e319083	0.17340283
191	0xbddfa56d	-0.10920224
192	0xbd9438e7	-0.07237416
193	0xbd153840	-0.036430597
194	0x3cb97f5c	0.022643737
195	0x3d81c33d	0.06336067
196	0xbdd2dbf3	-0.10295858
197	0xbd19064f	-0.037359532
198	0x3da778a5	0.08177308
199	0x3d3f26d6	0.046667896
200	0x3d14a37f	0.036288735
201	0x3e1dc49f	0.15407036
202	0x3e7a2ea4	0.24431854
203	0xbd7da428	-0.06192413
204	0xbc96b275	-0.018395642
205	0x3d695cc3	0.05697323
206	0x3dec4405	0.11536411
207	0xbc8e41cc	-0.017365359
208	0xbdd7ad74	-0.105311304
209	0xbca7d407	-0.020486845
210	0x3e67f287	0.2265111
211	0x3d233b3a	0.039851405
212	0x3df35b43	0.11882641
213	0xbe1f3899	-0.15548934
214	0x3ca15010	0.019691497
215	0xbd08af9d	-0.033370603
216	0x3e02a6c9	0.12758936
217	0x3bf07479	0.0073381034
218	0xbcc5c1aa	-0.024140198
219	0xbdd9d72b	-0.10636743
220	0x3d94fe94	0.072751194
221	0xbe7050f7	-0.23468386
222	0xbe412fc4	-0.18865877
223	0xbecc6e3a	-0.39927846
224	0x3e63c776	0.22244057
225	0xbe4bc946	-0.19900998
226	0x3d85f404	0.06540683
227	0xbba4836e	-0.0050205505
228	0xbe4d5028	-0.20050108
229	0x3e00ce7b	0.12578766
230	0xbe2b71f8	-0.16742694
231	0xbec4ef9a	-0.3846405
232	0xbda5783f	-0.08079576
233	0x3d367fa1	0.04455531
234	0x3c2997a9	0.0103511
235	0xbe247614	-0.16060668
236	0xbd6f3908	-0.058404
237	0x3d0b5b52	0.034022637
238	0xbbc99ffb	-0.0061531044
239	0x3e341c30	0.17588878
240	0xbc16a2d3	-0.009194094
241	0xbd041fb1	-0.032256786
242	0x3d5673e4	0.052356616
243	0x3e106ea5	0.14104708
244	0xbe723784	-0.2365399
245	0x3d8e3f9f	0.069457285
246	0xbad514e3	-0.0016256835
247	0xbdc6acd9	-0.09700937
248	0x3bd1c395	0.006401489
249	0x3cf3b7df	0.029750763
250	0x3e20e128	0.1571089
251	0x3e5bf29c	0.21479267
252	0xbcaeccf1	-0.021337958
253	0xbc8a9f44	-0.016921647
254	0xbddc848f	-0.10767471
255	0x3e5720fb	0.21008675

model_3/yolo_head_P4/BiasAdd/ReadVariableOp:0 f4 [24]
0	0xbdb605f8	-0.08887857
1	0xbdfc085c	-0.12306282
2	0x3e4528bb	0.19253819
3	0xbeef7b28	-0.46773648
4	0xc03fbb63	-2.9958122
5	0xbe44bddc	-0.1921305
6	0xbde0f2a6	-0.109837815
7	0xbe916ef8	-0.28404975
8	0xbc1e17ea	-0.009649256
9	0x3d3ef900	0.046624184
10	0xbea76716	-0.32695836
11	0xbea414ad	-0.32047024
12	0xc03c704b	-2.9443538
13	0xbe31868a	-0.17336479
14	0xbcde381e	-0.027126368
15	0xbe5ce5db	-0.21572058
16	0x3d4f9c0b	0.050685924
17	0xbd20e33d	-0.03927921
18	0xbe5e60cb	-0.21716611
19	0xbf06a666	-0.52597654
20	0xc0481f5d	-3.1269143
21	0x3df36928	0.11885291
22	0xbe0cdc05	-0.13755806
23	0xbebc4477	-0.36770985

model_3/yolo_head_P3/separable_conv2d/ReadVariableOp_1:0 f4 [24, 64, 1, 1]
0	0xbe99ffe0	-0.3007803
1	0xbe67ad34	-0.22624665
2	0xbc090cbf	-0.008364855
3	0xbe3fe715	-0.18740495
4	0xbdb5cfa8	-0.08877498
5	0xbe834eda	-0.25646096
6	0xbd7113c8	-0.058856755
7	0x3e5ac5d0	0.21364522
8	0x3e020f8e	0.12701246
9	0xbca0cace	-0.019627955
10	0x3e218827	0.15774594
11	0xbe04e109	-0.12976469
12	0xbe96a087	-0.29419348
13	0xbe2bda06	-0.16782388
14	0xbcea2314	-0.02858118
15	0x3e4e517d	0.20148273
16	0x3df5f370	0.12009323
17	0xbe3e7a64	-0.18601376
18	0xbe90efb5	-0.28307882
19	0xbb3e6358	-0.0029050913
20	0x3e540b25	0.20707376
21	0x3e3e5c01	0.18589784
22	0xbcb49cfd	-0.022047514
23	0x3e4425e9	0.19155087
24	0xbd276888	-0.040871173
25	0xbd4b7cfc	-0.04967974
26	0xbe84cbf2	-0.25936848
27	0xbe8202d8	-0.25392795
28	0xbe57729e	-0.21039817
29	0x3cd52c06	0.026021969
30	0x3e3d0c7e	0.18461797
31	0xbe4bed13	-0.19914655
32	0x3de3e5eb	0.11127838
33	0xbe1d2a1d	-0.15348096
34	0x3e85e562	0.26151568
35	0x3c6d0bfb	0.014468188
36	0xbe2b4192	-0.16724232
37	0xbe1049d4	-0.14090663
38	0xbe66eef7	-0.22552095
39	0xbe40a789	-0.1881391
40	0x3dec28e9	0.115312405
41	0x3dc9b96b	0.09849819
42	0x3be1803d	0.0068817423
43	0xbe3433a7	-0.17597829
44	0xbddf1068	-0.10891801
45	0x3d5f99bf	0.054589983
46	0xbe00c594	-0.1257537
47	0xbe1583cb	-0.14601056
48	0x3e1c2c6a	0.15251318
49	0xbe536f33	-0.20647888
50	0x3c2ab47e	0.010419009
51	0xbe12c498	-0.14332807
52	0xbe8b1378	-0.2716329
53	0xbe085c60	-0.13316488
54	0xbbba4ac1	-0.005685181
55	0x3e442a7a	0.19156829
56	0xbeed052a	-0.46293002
57	0xbdbc6cc1	-0.09200431
58	0x3e678b28	0.22611678
59	0xbd149ee7	-0.036284354
60	0x3e4bb52c	0.1989333
61	0xbe42abec	-0.19010895
62	0xbe9fb19a	-0.31190187
63	0xbdcfc95e	-0.101458296
64	0x3ce6429f	0.02810794
65	0x3da2f55d	0.079569556
66	0x3e1e4871	0.15457322
67	0x3da7c174	0.08191195
68	0x3c0e22fc	0.008675333
69	0x3e30bdda	0.17259923
70	0x3d113967	0.035455134
71	0x3e469650	0.19393277
72	0xbe1457ea	-0.14486662
73	0xbe331193	-0.17487173
74	0x3b05a6ec	0.0020393683
75	0x3e154038	0.14575279
76	0xbebfb101	-0.3743973
77	0x3e40547b	0.18782227
78	0xbde01011	-0.109405644
79	0x3e3baf8b	0.18328683
80	0x3da4c054	0.08044496
81	0x3c8dbd4d	0.01730218
82	0xbd9871da	-0.074435905
83	0x3e1b6a09	0.15177168
84	0xbe01e9dd	-0.12686868
85	0x3e50f503	0.20405965
86	0x3e4e918f	0.20172714
87	0xbdb86402	-0.0900345
88	0x3d1aa648	0.037756234
89	0xbd883d3c	-0.066523045
90	0xbcfd1c1e	-0.030897196
91	0x3e18b6da	0.14913502
92	0xbe048cd9	-0.12944354
93	0xbe2ff96d	-0.17184992
94	0xbe0b7cd5	-0.13621838
95	0x3e843c91	0.25827459
96	0x3d64279d	0.05570184
97	0xbe811b6f	-0.25216243
98	0x3d99118f	0.07474052
99	0xbded2d0d	-0.115808584
100	0x3eb3e65b	0.35136685
101	0x3debe8db	0.11519023
102	0x3da09643	0.0784116
103	0x3d975247	0.0738874
104	0x3e60cc79	0.21953
105	0xbb37724e	-0.0027991715
106	0xbe279922	-0.1636701
107	0x3c6519ec	0.013983231
108	0x3ea0085a	0.31256372
109	0x3eed6369	0.46364906
110	0xbd8ee61e	-0.06977485
111	0x3c8ea8a8	0.017414406
112	0xbe1c4725	-0.15261514
113	0x3d7d8d47	0.06190231
114	0xbe514376	-0.2043589
115	0xbe579b67	-0.21055375
116	0xbe6311e2	-0.2217479
117	0xbe1eaf6e	-0.15496609
118	0x3eeae326	0.45876426
119	0xbdc938ef	-0.09825312
120	0xbce19793	-0.027538097
121	0xbd825e84	-0.06365684
122	0x3ee2e307	0.44313833
123	0x3da28d6d	0.07937131
124	0x3c9e5431	0.019327255
125	0x3deaa752	0.11457695
126	0xbdaa151f	-0.0830481
127	0xbd7222f5	-0.05911537
128	0x3e798238	0.24366081
129	0x3ec3a9c2	0.38215452
130	0xbc45e2e0	-0.012078017
131	0x3e0d5a4b	0.13803975
132	0x3e295a61	0.16538383
133	0x3deb1cb3	0.11480083
134	0xbdcf63cd	-0.10126457
135	0x3b3110cd	0.002701807
136	0x3da60e57	0.08108204
137	0xbe84fc37	-0.25973675
138	0x3dff1122	0.1245444
139	0x3e48fcf9	0.19627751
140	0xbe8ec5de	-0.27885336
141	0xbc71e6a0	-0.014764458
142	0xbe657d73	-0.22411136
143	0xbe31410d	-0.17309971
144	0x3ecebe33	0.40379485
145	0x3e522763	0.20522837
146	0x3d899086	0.06717019
147	0x3e238000	0.15966797
148	0xbdbe7d64	-0.0930126
149	0xbde3bb22	-0.11119677
150	0xbe1b2e17	-0.151543
151	0xbe4b31ef	-0.19843267
152	0x3e0b2b50	0.13590741
153	0x3ce26e1b	0.027640393
154	0xbd83e7e3	-0.06440713
155	0x3bc1a39c	0.0059093963
156	0x3e86483e	0.2622699
157	0x3dc7e921	0.09761263
158	0x3e79754c	0.24361151
159	0xbe5e0cc5	-0.21684559
160	0x3e499ef5	0.19689544
161	0x3d850f95	0.06497113
162	0x3e0d66fd	0.13808818
163	0xbe2f553f	-0.17122363
164	0x3e0732ef	0.13203023
165	0x3d034fec	0.03205864
166	0x3dfe39ac	0.12413344
167	0xbefbd114	-0.4918295
168	0x3e271137	0.1631516
169	0xbd888b90	-0.066672444
170	0x3e2eba77	0.17063318
171	0x3e430d7f	0.19048117
172	0x3e34600a	0.17614761
173	0xbd9a9254	-0.07547441
174	0xbd99b806	-0.07505803
175	0xbd284427	-0.04108062
176	0xbe0589e2	-0.1304088
177	0x3eca1318	0.39467692
178	0xbe606c2b	-0.21916263
179	0xbe332ada	-0.17496815
180	0xbe218481	-0.15773202
181	0x3e4954ac	0.19661206
182	0x3bce17ad	0.0062894435
183	0xbe7a4e73	-0.24443989
184	0x3c881614	0.01661209
185	0x3d548365	0.05188312
186	0xbdd37ca6	-0.10326509
187	0x3a314f79	0.00067638565
188	0xbda47155	-0.08029429
189	0xbbc5f390	-0.006040998
190	0x3e64f25d	0.22358079
191	0x3dcab17d	0.098971345
192	0xbe829d4b	-0.2551063
193	0xbe8f36a5	-0.27971378
194	0xbe0ef38a	-0.1396009
195	0x3e5e7b99	0.21726836
196	0x3dcb1661	0.09916378
197	0xbeb07c91	-0.34470037
198	0xbd07f65a	-0.033193924
199	0xbe3bbbaf	-0.18333314
200	0xbe021cc9	-0.12706293
201	0x3d24ae10	0.04020506
202	0xbe0818c7	-0.13290702
203	0x3dcb2f70	0.09921157
204	0xbe6eaef9	-0.23308934
205	0xbd5c9ffe	-0.053863518
206	0xbdd79c62	-0.105278745
207	0xbe48b260	-0.19599295
208	0x3dc2ea48	0.09517342
209	0xbe833bdd	-0.2563161
210	0xbc621e6c	-0.013801198
211	0xbe402e61	-0.18767692
212	0xbe220f8a	-0.1582624
213	0x3e8e4dfc	0.27793872
214	0x3d981c1e	0.07427238
215	0xbd172ac0	-0.036906004
216	0x3e94ca98	0.29060817
217	0x3e835e49	0.2565787
218	0xbcb2c558	-0.021822616
219	0x3db2cf4f	0.08730947
220	0x3e5d8519	0.21632804
221	0x3e0a3b0e	0.1349909
222	0x3e590c4b	0.21196096
223	0x3e6aa056	0.22912726
224	0xbd94be77	-0.07262891
225	0xbe8e3549	-0.27775028
226	0xbe6bec52	-0.23039368
227	0xbd45df43	-0.048308622
228	0xbc5c5c6a	-0.013449768
229	0xbda7441d	-0.081672885
230	0xbc7ac765	-0.015306328
231	0xbdb7e7e5	-0.08979777
232	0xbe68a8ac	-0.22720593
233	0xbe70e2f8	-0.23524082
234	0xbd8ece9e	-0.06973003
235	0xbdc2c937	-0.09511035
236	0xbd6bdfd2	-0.0575865
237	0xbd1beee4	-0.03806962
238	0x3df593f6	0.11991112
239	0xbd971552	-0.073771134
240	0xbe74241c	-0.238419
241	0x3e4b06c1	0.19826795
242	0x3e452868	0.19253695
243	0x3db6e6fa	0.08930774
244	0x3da192b4	0.078893095
245	0xbc83fb23	-0.016110962
246	0x3daf2bf3	0.085533045
247	0xbe25f378	-0.16206157
248	0x3ccbc4b1	0.024874063
249	0xbe832280	-0.2561226
250	0x3b9631ff	0.0045835967
251	0x3a7f0ba4	0.00097292126
252	0x3e475740	0.19466877
253	0x3dbfa9c2	0.093585506
254	0xbe040455	-0.12892278
255	0x3b7b3f9f	0.0038337482

model_3/yolo_head_P3/BiasAdd/ReadVariableOp:0 f4 [24]
0	0xbc6e5052	-0.014545517
1	0xbcb822ff	-0.022477625
2	0x3e844f53	0.2584177
3	0xbe916704	-0.28398907
4	0xc0146bbb	-2.3190753
5	0xbeb0978d	-0.34490624
6	0x3d25f34e	0.040515237
7	0xbda6e537	-0.08149188
8	0xbda8d82d	-0.08244357
9	0x3cd69473	0.026193833
10	0x3e9a766c	0.30168474
11	0xbe955cec	-0.29172456
12	0xc020b103	-2.510804
13	0xbe8b14a3	-0.27164182
14	0xbdaaf2aa	-0.08347066
15	0xbd4edbd5	-0.050502617
16	0xbdead7d5	-0.11466948
17	0x3bf166cb	0.00736699
18	0xbe0d268d	-0.13784237
19	0xbe61148a	-0.21980491
20	0xc021ceb1	-2.5282404
21	0xbe659e14	-0.22423583
22	0xbdc5bf58	-0.096556365
23	0xbd742941	-0.059609655

model_3/yolo_eval/Reshape_3:0 f4 [1, 1, 3, 2]
0	0x42e80000	116.0
1	0x42b40000	90.0
2	0x431c0000	156.0
3	0x43460000	198.0
4	0x43ba8000	373.0
5	0x43a30000	326.0

model_3/yolo_eval/Reshape_19:0 f4 [1, 1, 3, 2]
0	0x41200000	10.0
1	0x41500000	13.0
2	0x41800000	16.0
3	0x41f00000	30.0
4	0x42040000	33.0
5	0x41b80000	23.0

model_3/yolo_eval/Reshape_11:0 f4 [1, 1, 3, 2]
0	0x41f00000	30.0
1	0x42740000	61.0
2	0x42780000	62.0
3	0x42340000	45.0
4	0x426c0000	59.0
5	0x42ee0000	119.0

model_3/separable_conv2d_1/separable_conv2d/ReadVariableOp_1:0 f4 [12, 3, 1, 1]
0	0xbd797ee0	-0.060912013
1	0x3d1278f4	0.03575988
2	0xbe806cc4	-0.25082982
3	0xbeaaf2b0	-0.3338828
4	0x3efaf216	0.49012822
5	0x3e1a8ac9	0.15092005
6	0xbf066359	-0.5249534
7	0x3e5ce2d5	0.21570905
8	0xbf12bb38	-0.57316923
9	0xbee50053	-0.4472681
10	0x3ec690b4	0.38782275
11	0xbe7da4be	-0.24769875
12	0xbed27beb	-0.41110167
13	0x3e105198	0.14093626
14	0xbed8b195	-0.42322984
15	0x3e85266f	0.26005885
16	0x3e5e7f8a	0.2172834
17	0x3ec0444e	0.37552112
18	0x3ed09b6d	0.4074358
19	0x3f25e01a	0.64795077
20	0xbe52e6f6	-0.20595917
21	0xbf5bc5a8	-0.85848475
22	0xbcb64e48	-0.022254124
23	0xbf1806fa	-0.59385645
24	0xbe8b808e	-0.27246517
25	0x3f1ae509	0.6050573
26	0xbdc731e7	-0.09726315
27	0x3efad488	0.48990273
28	0x3eee2d2f	0.46518847
29	0xbec98675	-0.39360395
30	0x3e6fb258	0.23407876
31	0x3f407408	0.7517705
32	0x3ec43a88	0.38325906
33	0x3ebc4b59	0.36776236
34	0x3f11f653	0.57016486
35	0x3f154064	0.5830138

model_3/separable_conv2d_1/BiasAdd/ReadVariableOp:0 f4 [12]
0	0x3e02b716	0.12765154
1	0x3d4c473d	0.049872626
2	0xbcea728f	-0.028619079
3	0x3df2b3cc	0.118507
4	0xbd14de7c	-0.03634499
5	0x3e8d091d	0.27546015
6	0x3e07db96	0.13267359
7	0x3d3ff6a7	0.046866085
8	0x3e088b74	0.13334447
9	0xbb2f7a66	-0.0026775836
10	0x3e3d9fa2	0.18517926
11	0x3ed97594	0.42472517

const_fold_opt__1538 f4 [32, 1, 1, 1]
0	0x3ea6e151	0.32593778
1	0x3d8211d9	0.063510604
2	0xbea45051	-0.32092527
3	0xbeb767b4	-0.35821307
4	0x3ef3bd97	0.47605583
5	0x3e115f2f	0.14196466
6	0x3dfdb0b8	0.12387222
7	0x3dcef8f2	0.10106076
8	0x3da6cff3	0.08145132
9	0x3ed6cf7f	0.41955182
10	0xbe1e5262	-0.15461114
11	0x3e7f8f9d	0.24957128
12	0x3df1432b	0.117803894
13	0x3e3364ce	0.17518923
14	0xbe3dcef4	-0.18535978
15	0xbe8c7d8a	-0.2743953
16	0xbed509a7	-0.41608927
17	0xbdb914e1	-0.090371855
18	0x3e39f4e3	0.18159823
19	0xbde47bd6	-0.11156432
20	0x3df742a9	0.12073261
21	0xbe12269c	-0.14272541
22	0x3cf99a95	0.030469218
23	0x3e16e1f7	0.14734636
24	0xbeae8e9e	-0.34093183
25	0xbe63ea83	-0.22257428
26	0x3e1b5063	0.15167384
27	0x3ec6c9be	0.38825792
28	0x3d89d6fb	0.067304574
29	0x3cf33b5e	0.029691394
30	0x3eba50d6	0.36389798
31	0xbe72fda3	-0.23729567

const_fold_opt__1529 f4 [32, 1, 3, 3]
0	0xbe08212a	-0.13293901
1	0xbd92ed30	-0.07174146
2	0xbdaf8599	-0.085704036
3	0xbda588d7	-0.08082741
4	0xbde73e7a	-0.11291213
5	0xbd104f97	-0.035232153
6	0x3d877ee7	0.066160016
7	0xbd76fb16	-0.060298048
8	0x3d968cb2	0.07351054
9	0x3b79d9a8	0.0038124118
10	0xbc9f9fe4	-0.019485421
11	0xbca55afb	-0.020184984
12	0x3d077e99	0.033079717
13	0xbd022f2a	-0.03178326
14	0x3e767479	0.24067868
15	0xbcf4b8a1	-0.029873194
16	0xbdea74ae	-0.11448036
17	0x3d16cc5d	0.03681599
18	0x3d748597	0.059697714
19	0x3da52b70	0.08064926
20	0x3d0150e4	0.031571284
21	0x3dbf96fd	0.093549706
22	0xbbafd131	-0.0053655137
23	0x3dbed31a	0.09317608
24	0x3d5efcff	0.054440495
25	0x3e0906ed	0.13381548
26	0x3d2a2d96	0.04154738
27	0xbba1049a	-0.0049138786
28	0x3bf22694	0.007389853
29	0xbc3e917b	-0.011631365
30	0x3cdd3ae4	0.02700562
31	0x3e7b8b82	0.24564937
32	0x3d6f4ce9	0.058422957
33	0x3d1a44b4	0.037663177
34	0x3dc010d4	0.0937821
35	0x3ddcf002	0.10787965
36	0x3d36e132	0.044648357
37	0x3c7af9f8	0.015318386
38	0xbb6d9284	-0.003625066
39	0x3e363301	0.17792894
40	0x3d4cde68	0.05001679
41	0x3de1d0a8	0.11026126
42	0x3d916edb	0.07101222
43	0xbe04cbae	-0.12968323
44	0x3d9b2757	0.07575863
45	0xbc0d15b3	-0.0086111305
46	0xbd028f12	-0.031874724
47	0x3ca553fe	0.020181652
48	0xbd5ad8d1	-0.05342943
49	0x3e9659ec	0.2936548
50	0xbdabedd3	-0.08394971
51	0xbc7a22b0	-0.015267059
52	0x3c5142f9	0.012772315
53	0xbcc468ff	-0.023975847
54	0xbbb8a842	-0.0056352923
55	0xbcb3daa3	-0.02195484
56	0x3b68abd4	0.0035502808
57	0x3d6d50e6	0.05793848
58	0xbb8d5296	-0.0043128235
59	0x3dbaa16f	0.09112822
60	0x3db33629	0.087505646
61	0x3e4bf27f	0.19916724
62	0x3d67607f	0.05648851
63	0x3dce2b3b	0.10066839
64	0xbd878bb4	-0.06618443
65	0x3dac7738	0.08421177
66	0xbd8bcc36	-0.068260595
67	0x3d5118d7	0.05104908
68	0x3d179d31	0.037015144
69	0x3d9b189e	0.07573055
70	0x3ccaf2f1	0.024774047
71	0xbe038b32	-0.12846068
72	0x3cb5ec22	0.022207323
73	0xbc4916cf	-0.012273504
74	0xbcdad984	-0.026715048
75	0xbd94db0c	-0.072683424
76	0x3d2beaed	0.04197209
77	0xbd430551	-0.047612492
78	0xbd1494c7	-0.036274698
79	0xbdb41aab	-0.08794149
80	0xbd6b223d	-0.0574057
81	0xbcd7a16f	-0.026322095
82	0x3cf7ad57	0.030234022
83	0xbd7a4f4e	-0.061110787
84	0xbdbc350a	-0.09189804
85	0xbd2dded5	-0.042448837
86	0xbc87500b	-0.01651766
87	0x3debef2d	0.115202285
88	0xbd58608c	-0.05282645
89	0x3c81795b	0.015804937
90	0x3d29b203	0.04142953
91	0xbcfc4db2	-0.030798767
92	0x3e272ca4	0.16325623
93	0xbdaf939f	-0.08573078
94	0x3d36de84	0.0446458
95	0xbbc371ff	-0.005964517
96	0xbda86ea5	-0.08224229
97	0xbdea18f8	-0.11430544
98	0x3e4318e4	0.19052464
99	0xbd2a4999	-0.041574094
100	0xbd3e877f	-0.046515938
101	0xbd0bfa6e	-0.034174375
102	0x3c317c8a	0.010832915
103	0x3d9af23c	0.07565734
104	0x3e2bd145	0.16779049
105	0x3d30b844	0.04314448
106	0x3e14b70f	0.14522956
107	0x3d416c8b	0.047222655
108	0x3cddb627	0.027064396
109	0x3ced2f9c	0.028953366
110	0x3d581964	0.05275859
111	0xbd0b722e	-0.034044437
112	0xbe470377	-0.19434915
113	0xbca53097	-0.020164771
114	0x3c4c5e95	0.012473722
115	0xbd714876	-0.058906995
116	0xbc4e794d	-0.012602163
117	0x388d8cdd	6.749642e-05
118	0x3db9c2ef	0.09070384
119	0x3d5548ed	0.0520715
120	0x3d572e43	0.052534353
121	0x3e05c349	0.13062777
122	0x3d725a7f	0.059168335
123	0x3db8fc7d	0.09032533
124	0xbd677ad1	-0.05651361
125	0x3d9f7f30	0.07787931
126	0xbd3c66d5	-0.045996506
127	0xbd6c6bd1	-0.05772001
128	0xbd84985d	-0.064743735
129	0xbe02e711	-0.12783457
130	0x3d0a9f37	0.033843245
131	0xbdc12d29	-0.09432442
132	0xbc7fc12c	-0.015610021
133	0xbc0b4b39	-0.008501821
134	0xbde98d06	-0.11403851
135	0xbd8c3fa3	-0.06848075
136	0xbd44a56f	-0.048009332
137	0xbbbbe897	-0.005734514
138	0xbe22df7c	-0.15905565
139	0xba5165bd	-0.00079878775
140	0xbdb163dc	-0.08661625
141	0xbe145c56	-0.14488348
142	0xbe2726a3	-0.16323332
143	0x3be67cac	0.007033905
144	0x3ccf818b	0.025330326
145	0xbcfb080b	-0.030643484
146	0x3ace4fef	0.0015740375
147	0x3c369ba1	0.011145503
148	0xbdf0c7de	-0.11756872
149	0xbe158755	-0.14602406
150	0xbd155b47	-0.036464002
151	0xbe215577	-0.15755259
152	0xbd7ed350	-0.062213242
153	0x3cf86852	0.030323181
154	0x3d1c813d	0.03820919
155	0xbcb9476b	-0.022617063
156	0xbcacdbbb	-0.02110087
157	0xbdb358ef	-0.08757197
158	0xbb8dd9f3	-0.00432896
159	0xbcaac890	-0.020847589
160	0x3c561e0a	0.013068685
161	0xbc8c11d2	-0.017098341
162	0xbc91f03b	-0.017814746
163	0xbd058d70	-0.03260559
164	0xbc9e455d	-0.019320184
165	0xbe054a76	-0.13016686
166	0xbedc61ac	-0.43043268
167	0xbe58197c	-0.21103472
168	0xbcfe44c7	-0.031038655
169	0xbdfdef77	-0.1239919
170	0xbdc6254c	-0.096750826
171	0x3b4d50ba	0.0031328634
172	0xbde17101	-0.11007882
173	0xbddd3d91	-0.108027585
174	0xbd286293	-0.041109633
175	0x3e12a266	0.14319763
176	0xbe3673fa	-0.17817679
177	0x3c69db7d	0.0142735215
178	0xbd528544	-0.051396623
179	0xbdaa01e4	-0.08301142
180	0xbce4b3a3	-0.027917689
181	0x3c99fcbe	0.018797275
182	0x3d3345a8	0.0437676
183	0x3b93a3e2	0.0045056203
184	0xbcdd6b4e	-0.027028706
185	0x3dd8c992	0.105853215
186	0xbc1244f0	-0.008927569
187	0xbc0229cb	-0.0079445345
188	0x3cba4bb3	0.022741174
189	0xbd88f35a	-0.066870406
190	0xbd9ee4d6	-0.07758491
191	0xbd3c52b9	-0.045977328
192	0xbd414944	-0.047189012
193	0xbd9dc09d	-0.07702754
194	0x3d454439	0.048160765
195	0xbd2e3408	-0.04253009
196	0xbdb3c53b	-0.08777853
197	0x3c9040b3	0.017608976
198	0xbd22e082	-0.03976489
199	0xbda5e69f	-0.08100628
200	0x3c991ec8	0.018691435
201	0xbb67b0a0	-0.003535308
202	0xbdadf47e	-0.08493899
203	0x3c5f81f0	0.013641819
204	0xbdf9c763	-0.12196233
205	0xbe32a9a9	-0.17447533
206	0xbdd572f5	-0.10422317
207	0x3d7b8d8d	0.06141429
208	0xbd3f5073	-0.04670758
209	0xbc0a8115	-0.008453627
210	0xbdd7c451	-0.10535491
211	0x3e792bf6	0.24333176
212	0x3df9e998	0.122027576
213	0xbd405585	-0.046956558
214	0x3e2affa3	0.1669908
215	0x3d441f6e	0.047881536
216	0xbc9af22b	-0.018914303
217	0xbd87ea0d	-0.066364385
218	0xbd64c0f6	-0.055848084
219	0x3d060155	0.032716114
220	0xbe123e43	-0.14281563
221	0x3b8ddfa4	0.0043296386
222	0xbd4e6ad5	-0.05039485
223	0xbe255c37	-0.16148458
224	0xbdc76101	-0.09735299
225	0x3c0ec9ab	0.008715074
226	0x3ccda245	0.02510179
227	0xbd8cf110	-0.068819165
228	0x3d2cb332	0.04216308
229	0x3e21e491	0.15809847
230	0x3dca2335	0.098699965
231	0x3d29a91e	0.04142105
232	0x3dc3e5b6	0.09565298
233	0xbc87582c	-0.016521536
234	0x3c811891	0.015758784
235	0xbcfbb738	-0.030727014
236	0x3d050c18	0.032482237
237	0x3af73fc2	0.0018863606
238	0xbe98923b	-0.29799065
239	0xbceb8f4d	-0.028754855
240	0x3d56ed6a	0.05247251
241	0xbc5306e8	-0.012880065
242	0x3d175e0e	0.036954932
243	0x3d4b2f7e	0.04960584
244	0x3da26ac6	0.07930522
245	0x3db26399	0.08710403
246	0x3d896ba9	0.06709988
247	0x3d607b7d	0.054805268
248	0x3e104f19	0.14092673
249	0x3d336a88	0.043802768
250	0x3d73b5fb	0.059499722
251	0x3da3afc3	0.07992508
252	0xbcca7c96	-0.02471761
253	0x3d9e6380	0.07733822
254	0x3da6bcd5	0.081414856
255	0x3d6e0a41	0.058115248

const_fold_opt__1528 f4 [16, 1, 1, 1]
0	0x3ec3c298	0.382344
1	0x3f1c3faf	0.61034673
2	0x3f054664	0.5206053
3	0x3ecf503f	0.4049091
4	0xbeb0b88e	-0.34515804
5	0xbe8bcc72	-0.27304417
6	0x3e98532b	0.29750952
7	0x3ee56f5c	0.44811523
8	0xbe8a4174	-0.27003062
9	0xbea551ad	-0.32288876
10	0xbeba3e88	-0.36375833
11	0xbdf7b928	-0.120958626
12	0xbedb574e	-0.42840046
13	0xbed15528	-0.40885282
14	0x3eebacd7	0.46030304
15	0xbe2557b2	-0.16146734

const_fold_opt__1525 f4 [32, 1, 3, 3]
0	0xbb89c9c9	-0.004204963
1	0x3d6cf31e	0.057849042
2	0xbd463b36	-0.04839631
3	0xbe90630d	-0.2820057
4	0x3e5e3e3d	0.2170343
5	0x3e9eea2f	0.31038043
6	0xbdbc8c73	-0.09206476
7	0xbd8345ee	-0.064098224
8	0xbb639b9e	-0.0034730206
9	0x3d9ea38d	0.077460386
10	0xbbccae99	-0.0062463996
11	0xbbd556c5	-0.006510588
12	0x3da04329	0.0782531
13	0x3e3e6664	0.18593746
14	0x3dcd8174	0.10034457
15	0xbc25ce9a	-0.010120058
16	0x3e3564e1	0.17714263
17	0x3e142a31	0.1446922
18	0x3c0d7495	0.008633752
19	0x3c18ebc3	0.009333554
20	0x3dfc8792	0.123305455
21	0xbd677486	-0.05650761
22	0x3df72643	0.12067845
23	0x3e295f67	0.165403
24	0xbd9c113f	-0.07620477
25	0x3e23fd7b	0.16014664
26	0x3e2cf935	0.1689194
27	0xbe03bee5	-0.12865789
28	0x3d8b7ee5	0.068113126
29	0x3c2b419a	0.010452652
30	0x3e0169c7	0.12638007
31	0xbcb7f067	-0.0224535
32	0xbea1c442	-0.31595045
33	0x3c19c708	0.009385832
34	0xbdebbece	-0.115110025
35	0xbe3ae7c2	-0.18252471
36	0xbc007692	-0.007840769
37	0xbd033cb4	-0.032040313
38	0xbc7c6868	-0.015405752
39	0x3c5a46f4	0.013322581
40	0xbdde7bf2	-0.108634844
41	0xbe2b83a3	-0.16749434
42	0x3c48a84f	0.012247159
43	0xbdb34585	-0.08753494
44	0xbe8b312c	-0.27185953
45	0xbd728a3c	-0.05921386
46	0x3d3fcd32	0.04682655
47	0xbd437342	-0.04771734
48	0xbe443b28	-0.19163191
49	0xbdc91c47	-0.098198466
50	0xbc126231	-0.0089345435
51	0xbb11c939	-0.0022245182
52	0xbe59af12	-0.2125819
53	0xbe520112	-0.20508221
54	0xbe4ab340	-0.19794941
55	0x3d12ce5b	0.035841327
56	0x3df58fd5	0.119903244
57	0xbe2229fb	-0.15836327
58	0xbdde3475	-0.10849849
59	0xbc51c43c	-0.012803134
60	0x3e0cc1e8	0.13745844
61	0x3de342c3	0.11096718
62	0x3e01571d	0.12630887
63	0xbce8b942	-0.02840865
64	0x3d22f469	0.03978387
65	0x3ea0c801	0.3140259
66	0xbe6048c0	-0.21902752
67	0xbdf40343	-0.119146846
68	0x3e3d6304	0.18494803
69	0xbd2d8d4d	-0.042371083
70	0xbe835ab3	-0.25655136
71	0xbe594443	-0.21217446
72	0x3db16060	0.0866096
73	0xbbb75c2f	-0.005595706
74	0xbc91ee11	-0.017813714
75	0x3e6a8487	0.22902118
76	0x3d23f466	0.040028
77	0xbd8488d6	-0.06471412
78	0x3d59efd5	0.053207237
79	0x3cbea425	0.02327163
80	0xbd1badef	-0.038007673
81	0xbb9cc5d0	-0.0047843233
82	0x3d2fdc5f	0.04293477
83	0x3db9d720	0.09074235
84	0x3d6c106f	0.05763286
85	0x3e4ebfbe	0.20190331
86	0x3ce73f2f	0.02822837
87	0x3d233830	0.039848506
88	0x3da8a268	0.082341015
89	0x3b03040c	0.0019991426
90	0x3e006108	0.12537014
91	0x3e163669	0.14669193
92	0x3e1f065d	0.15529771
93	0x3e040f4b	0.12896459
94	0x3df4351b	0.119241916
95	0x3da33d36	0.079706594
96	0xbc2269fb	-0.009912963
97	0x3ca90f4d	0.020637179
98	0xbcb5ab21	-0.022176327
99	0x3da29ede	0.07940458
100	0xbd920309	-0.07129485
101	0x3ce940dc	0.02847331
102	0x3d107f53	0.035277676
103	0x3ead26ef	0.33818766
104	0x3e2c925f	0.16852711
105	0xbceed900	-0.029156208
106	0x3b68ba65	0.003551149
107	0x3de96d6f	0.11397826
108	0x3d7bbc0a	0.061458625
109	0x3e1bd395	0.15217431
110	0x3e7600da	0.24023762
111	0x3e25691f	0.16153382
112	0xbe78a134	-0.24280244
113	0xbcfea5ea	-0.031084973
114	0x3e148133	0.1450241
115	0xbb8a1dba	-0.0042149695
116	0xbddd2c88	-0.10799509
117	0xbdb6ed26	-0.08931951
118	0x3e4330ff	0.1906166
119	0x3e356ce0	0.17717314
120	0x3e12dbf5	0.1434172
121	0x3d0fd3a6	0.035113953
122	0xbdf6f103	-0.12057688
123	0xb99ee8c3	-0.0003030953
124	0x3aa3fe2c	0.0012511662
125	0xbe4a2ac4	-0.19742876
126	0xbdcad33e	-0.099035725
127	0xbec71850	-0.38885736
128	0xbd55a4b6	-0.052159034
129	0xbe426b80	-0.1898632
130	0xbea51b4b	-0.32247385
131	0x3e283a78	0.16428554
132	0xbb9ffb67	-0.0048822644
133	0x3c1636d1	0.009168343
134	0xbdc61f26	-0.0967391
135	0x3e0683e1	0.13136245
136	0xbe95b764	-0.29241478
137	0xbe8441d3	-0.2583147
138	0x3df46eae	0.11935173
139	0x3de0a0a0	0.10968137
140	0xbe87ddab	-0.26536307
141	0x3dff2715	0.12458626
142	0x3e19b034	0.15008622
143	0x3d2d777e	0.042350285
144	0xbd61a1a8	-0.055085808
145	0x3e1e15bd	0.1543798
146	0x3e67ce26	0.22637233
147	0xbc1731f0	-0.009228215
148	0x3da8488f	0.082169645
149	0x3d9c21d0	0.07623637
150	0xbde5a18e	-0.11212455
151	0xbd988b6a	-0.07448466
152	0xbdb47440	-0.088112354
153	0x3ce710f5	0.028206328
154	0xbcba0cf8	-0.022711262
155	0xbe737a56	-0.23777136
156	0x3d3f46de	0.046698444
157	0xbdf0206f	-0.11724936
158	0xbe88a6c0	-0.2668972
159	0x3e437ef8	0.19091403
160	0x3b0bc55d	0.0021327354
161	0xbe2ad80b	-0.16683976
162	0xbd8e7768	-0.06956369
163	0xbcb753a0	-0.022378743
164	0x3d7a15a5	0.061055798
165	0x3c498a9d	0.012301114
166	0xbe1ef6dd	-0.15523858
167	0xbdcc312f	-0.099703185
168	0xbd0ea8ba	-0.03482888
169	0xbd3c7585	-0.046010513
170	0xbe61ad80	-0.22038841
171	0x3d055e6b	0.032560747
172	0x3ddda332	0.10822143
173	0x3c51e6e4	0.012811396
174	0xbc14270e	-0.0090425145
175	0x3df3ad06	0.11898236
176	0x3df40f56	0.119169876
177	0x3de839c1	0.11339141
178	0x3d749deb	0.059720915
179	0x3d35909f	0.044327375
180	0x3d07409e	0.033020608
181	0xbcea9d7d	-0.02863955
182	0xbe23ab2e	-0.15983269
183	0x3dd05c60	0.10173869
184	0xbe8dcaa8	-0.27693677
185	0xbe85ffd0	-0.26171732
186	0xbe5ec52c	-0.21754903
187	0xbe881e61	-0.26585677
188	0x3dfa6649	0.122265406
189	0x3e1e61bb	0.15466969
190	0xbda73c31	-0.081657775
191	0x3cfe64d7	0.031053944
192	0x3e029e26	0.12755641
193	0x3e4ab6f8	0.1979636
194	0xbd1c6fbf	-0.038192507
195	0xbbf9bc1d	-0.007621302
196	0x3dc9a6f9	0.09846301
197	0x3da448fc	0.08021733
198	0x3c87e520	0.016588748
199	0xbea59c90	-0.3234601
200	0xbdc13250	-0.094334245
201	0xbdad3e7d	-0.08459184
202	0xbea0f4be	-0.31436723
203	0x3eaee4ca	0.34158927
204	0xbcceebb1	-0.02525887
205	0x3d85e744	0.06538251
206	0x3d99a62e	0.075023994
207	0xbd85a650	-0.06525862
208	0x3e63805e	0.22216937
209	0x3e30d932	0.17270353
210	0x3db96b71	0.09053696
211	0x3e10964c	0.14119834
212	0x3e2aaa28	0.16666472
213	0x3dd95888	0.10612589
214	0x3dc219d0	0.094775796
215	0x3daebe35	0.08532373
216	0xbdd4075c	-0.10352966
217	0x3e3a8a51	0.18216826
218	0x3d825e98	0.063656986
219	0xbe2fd35a	-0.17170468
220	0x3ed453f2	0.41470295
221	0x3ec544c9	0.3852904
222	0x3d24491e	0.040108792
223	0x3de9ea1c	0.11421606
224	0x3ddd3885	0.10801796
225	0xbc19b3c6	-0.00938124
226	0xbc95fc34	-0.018308736
227	0xbd779d08	-0.06045249
228	0xbd0d1c15	-0.03445061
229	0x3e2defb6	0.16985974
230	0x3dbdd5ae	0.09269272
231	0xbd94320f	-0.072361104
232	0x3d5ca79f	0.053870793
233	0x3e66fc25	0.22557123
234	0xbdd49904	-0.10380748
235	0xbe1f680f	-0.15567039
236	0xbe291d52	-0.16515091
237	0xbde39b06	-0.11113553
238	0xbec1f6c2	-0.37883574
239	0xbe55e3b2	-0.2088764
240	0x3c8c4d4e	0.017126705
241	0xbde2d5ef	-0.11075961
242	0xbe197468	-0.14985812
243	0xbcf8ae71	-0.030356618
244	0xbd9dd0e6	-0.0770586
245	0x3b8c45f1	0.0042807986
246	0xbd7b155f	-0.061299678
247	0xbe885dbb	-0.2663401
248	0xbe14bb09	-0.14524473
249	0xbd08dea6	-0.03341546
250	0xbdde3b68	-0.108511746
251	0xbe005028	-0.12530577
252	0x3d645c61	0.055752162
253	0x3c2a3fbe	0.010391174
254	0xbd6897ba	-0.056785323
255	0x3e00978e	0.12557814

const_fold_opt__1524 f4 [64, 1, 1, 1]
0	0xbf085127	-0.5324883
1	0x3f3edb8b	0.74553746
2	0x3f07fbae	0.5311841
3	0x3e58b81b	0.2116398
4	0x3f082a16	0.5318922
5	0x3cdcac65	0.026937673
6	0x3f280204	0.65628076
7	0x3e037d9f	0.1284089
8	0xbf3c2a0d	-0.73501664
9	0x3fbfd5a9	1.4987079
10	0x3e0b38d9	0.13595904
11	0x3c5b291f	0.013376503
12	0xbe8a49cd	-0.2700943
13	0xbef56fe3	-0.47936925
14	0xbe34acb8	-0.17644012
15	0x3ecaf4db	0.39639935
16	0x3e0b2376	0.13587746
17	0x3f126f41	0.5720101
18	0xbe23cd1b	-0.1599621
19	0xbd963004	-0.07333377
20	0xbf497a03	-0.787018
21	0xbe3c3455	-0.18379338
22	0xbf2d6af2	-0.6774131
23	0x3e2f9355	0.17146046
24	0xbef293a9	-0.4737828
25	0xbf9eb124	-1.2397809
26	0xbbb81c94	-0.005618641
27	0xbf039e24	-0.5141318
28	0x3cfa7484	0.030573137
29	0x3eef2277	0.46705982
30	0xbc0ddbb8	-0.008658342
31	0xbf2c04fb	-0.671951
32	0x3e2a12c4	0.16608721
33	0x3c02d03e	0.007984219
34	0x3e656022	0.22399953
35	0x3f86a095	1.0517756
36	0xbbbde428	-0.0057950206
37	0x3e8fd2bc	0.28090465
38	0x3c375c6e	0.011191471
39	0xbf2c4e83	-0.673073
40	0x3a008d85	0.00049039006
41	0x3f58f123	0.84742945
42	0xbfebb9bf	-1.841606
43	0xbf1b90c6	-0.6076778
44	0xbf51707f	-0.8181228
45	0x3f7e18c5	0.99256545
46	0xbf8ab995	-1.0837885
47	0xbf296e80	-0.66184235
48	0xbf7175ae	-0.9432019
49	0x3f2121c8	0.6294217
50	0xbea18739	-0.3154848
51	0x3dd9f2be	0.106420025
52	0xbed7ab71	-0.42122987
53	0x3f36fe92	0.71482193
54	0xbea24f7f	-0.31701276
55	0xbf2274a5	-0.63459235
56	0xbf5e2d11	-0.86787516
57	0x3f69cc1b	0.91327065
58	0x3e460533	0.19337921
59	0x3db718b0	0.08940256
60	0xbf280aa9	-0.65641266
61	0x3f8f72ab	1.1206869
62	0x3c8c036b	0.017091474
63	0x3e9e8ffb	0.30969223

const_fold_opt__1523 f4 [32, 1, 3, 3]
0	0x3c4d4995	0.01252975
1	0xbd07545c	-0.033039436
2	0x3c176c6a	0.0092421565
3	0x3e458850	0.1929028
4	0xbc9ddbde	-0.01926988
5	0x3dffdfe4	0.124938756
6	0x3d91cd51	0.07119239
7	0x3e805e31	0.25071862
8	0x3e2a88e4	0.16653782
9	0x3d865882	0.0655985
10	0x3dca37f1	0.09873951
11	0x3ded8193	0.1159698
12	0xbd29e1c8	-0.041475087
13	0xbe19e4fc	-0.15028757
14	0x3bd8c42c	0.0066151824
15	0xbd8a39fc	-0.06749341
16	0x3e35b08b	0.17743127
17	0x3d965680	0.07340717
18	0x3c28d88f	0.010305538
19	0xbd72b9e1	-0.0592593
20	0x3d3c371c	0.045950994
21	0xbdc1025b	-0.094242774
22	0xbd8332da	-0.064061835
23	0xbd9fc30b	-0.07800873
24	0x3da557d4	0.080733925
25	0xbd13fe41	-0.036131147
26	0x3d4ebc6b	0.050472658
27	0x3d04baaa	0.03240458
28	0x3dba7e10	0.09106076
29	0x3d6b6154	0.057465866
30	0x3d7622aa	0.060091652
31	0x3c3f5695	0.011678358
32	0x3e358b24	0.17728859
33	0x3d83aa2a	0.064289406
34	0x3e028713	0.12746839
35	0x3def5e1a	0.1168787
36	0x3d6042a5	0.054751057
37	0x3d4294ec	0.047505304
38	0x3d2156be	0.039389364
39	0x3d6eefd6	0.058334194
40	0x3d1d0b75	0.038341004
41	0x3da4098e	0.08009635
42	0x3d7a683f	0.061134573
43	0x3e410c5b	0.1885237
44	0x3d7da4e1	0.06192482
45	0xbd3b0d0c	-0.04566674
46	0xbe513ea3	-0.2043405
47	0xbe036037	-0.12829672
48	0xbd8d026f	-0.0688523
49	0x3caac3b4	0.020845272
50	0xbd347006	-0.044052146
51	0xbdae97cb	-0.08525046
52	0xbe41205b	-0.18859999
53	0xbdf3a6b4	-0.118970305
54	0x3c1ae5ac	0.009454172
55	0x3e2d87c0	0.16946316
56	0x3c3474ff	0.011014222
57	0xbcaf76d5	-0.021418968
58	0xbdbadbae	-0.09123932
59	0xbd76d1cc	-0.06025867
60	0xbd4609c3	-0.048349153
61	0x3d35aa34	0.04435177
62	0xbc30ee46	-0.010798996
63	0x3cd2842c	0.02569779
64	0x3d614c9d	0.055004705
65	0xbc2d0b9a	-0.010561848
66	0xbdbf25f5	-0.093334116
67	0xbe121b02	-0.14268115
68	0xbc9d34c5	-0.019190202
69	0x3e14e582	0.14540675
70	0xbca6b884	-0.020351656
71	0x3dcf36e5	0.10117892
72	0x3d2459cc	0.0401247
73	0x3d2db2a4	0.042406693
74	0x3cce8715	0.025210897
75	0x3c9aee50	0.018912464
76	0xbd9349f9	-0.071918435
77	0x3dad6ee1	0.08468414
78	0x3c061276	0.008183112
79	0x3c9c51a4	0.019081898
80	0x3dd77bcd	0.1052166
81	0x3c17d728	0.009267606
82	0x3d9bc21e	0.07605384
83	0xbb1c413b	-0.0023842591
84	0xbd07a3e6	-0.03311529
85	0xbe5ecd18	-0.21757925
86	0xbd191f7b	-0.037383538
87	0xbd0c8b3d	-0.034312475
88	0xbcdf1a2a	-0.027234156
89	0xbd834a97	-0.06410711
90	0xbd3efd8e	-0.046628527
91	0xbd82eb20	-0.06392503
92	0xbdb9c4f1	-0.09070767
93	0xbd6b3456	-0.05742296
94	0xbd9f3aee	-0.07774912
95	0xbe191197	-0.14948116
96	0xbcb35128	-0.021889284
97	0xbd469492	-0.04848153
98	0xbda0400e	-0.078247175
99	0xbbc7ec1d	-0.006101145
100	0xbd79747c	-0.060902104
101	0xba57098f	-0.00082030235
102	0xbc3742de	-0.011185376
103	0x3e1e2c14	0.15446502
104	0xbd648bad	-0.055797268
105	0xbce32f92	-0.027732644
106	0xbe59accc	-0.21257323
107	0xbcc922ac	-0.024552666
108	0x3ce92088	0.028457895
109	0x3e12a62f	0.14321207
110	0x3dac127a	0.084019616
111	0x3d87cb32	0.06630553
112	0x3d37f524	0.04491152
113	0xbd1f43f0	-0.03888315
114	0x3cd02f1b	0.025413087
115	0x3dff2685	0.12458519
116	0xbd8fa3d6	-0.07013671
117	0x3c587e3f	0.013213693
118	0x3d8bcf0c	0.068266004
119	0x3bd89a1e	0.006610169
120	0xbd506cfd	-0.05088519
121	0x3cbf8f69	0.023383813
122	0xbd26450c	-0.040593192
123	0xbdb94c0e	-0.090477094
124	0x3d5edc9d	0.054409612
125	0xbd0911a9	-0.033464108
126	0xbce99071	-0.028511258
127	0x3d7b257b	0.06131504
128	0xbd139743	-0.036032926
129	0x3d6f882e	0.05847948
130	0xbcaa2ffb	-0.020774832
131	0xbd90405a	-0.07043524
132	0x3befd216	0.0073187454
133	0xbe06b035	-0.13153155
134	0xbd838a83	-0.064229034
135	0x3cf1c31c	0.02951198
136	0x3de4ffe4	0.1118162
137	0x3dc58d65	0.096461095
138	0x3de8207a	0.113343194
139	0x3b50d917	0.0031867677
140	0x3e5e5c94	0.21715003
141	0x3d46581e	0.04842388
142	0x3e082f19	0.13299216
143	0x3e0d990d	0.13827915
144	0xbc5f9ff0	-0.013648972
145	0xbd9e9fb0	-0.07745302
146	0xbd777099	-0.060410116
147	0xbd51929f	-0.05116522
148	0xbde5abb3	-0.1121439
149	0xbddc088b	-0.10743817
150	0xbd655c0b	-0.055995982
151	0xbda6671b	-0.081251346
152	0xbd4a8d44	-0.049451128
153	0x3d135e43	0.035978567
154	0x3db5ef37	0.08883517
155	0x3de83b4a	0.113394335
156	0x3d6a262f	0.05716532
157	0xbda93389	-0.08261783
158	0x3da1412e	0.0787376
159	0x3c0829ea	0.008310774
160	0x3dd61f22	0.10455157
161	0x3d41180c	0.047142074
162	0x3ce708ac	0.028202377
163	0x3d96c56e	0.073618755
164	0x3d8923d5	0.066962875
165	0x3dd57d35	0.10424272
166	0x3e4c8329	0.19971909
167	0x3d897412	0.06711592
168	0xbceb4a86	-0.028722059
169	0xbbf108a7	-0.007355768
170	0xbcc44af5	-0.023961524
171	0xbdfb6867	-0.122757725
172	0xbd6123d4	-0.05496581
173	0xbd2aab7b	-0.041667443
174	0xbb79b57a	-0.0038102553
175	0xbd4efefc	-0.05053614
176	0x3c8e5f3f	0.017379401
177	0xbda6caae	-0.08144127
178	0x3daabeaf	0.08337151
179	0xbbe68f56	-0.00703613
180	0x3c9278f0	0.017879933
181	0xbcc11daf	-0.023573725
182	0x3dacc60e	0.084362134
183	0x3dd85518	0.10563105
184	0x3e26b05d	0.16278215
185	0x3e023bc4	0.12718111
186	0x3d29d482	0.04146243
187	0xbe1fe228	-0.15613616
188	0x3d92b534	0.07163468
189	0x3df6fcee	0.12059961
190	0x3df5fae8	0.12010747
191	0xbd9a7eb1	-0.07543696
192	0x3e3700e5	0.17871435
193	0x3cd9ba00	0.02657795
194	0x3d882ea1	0.06649519
195	0x3c14f2f6	0.0090911295
196	0x3b26b58d	0.0025437803
197	0xbd5e7f8f	-0.054320868
198	0xbc080573	-0.00830208
199	0xbdc3289c	-0.0952923
200	0xbdcc32b0	-0.099706054
201	0xbba35442	-0.0049844095
202	0x3e76a643	0.24086861
203	0xbe3d5821	-0.1849065
204	0x3d153ba8	0.036433846
205	0x3cd3102c	0.025764547
206	0x3a059484	0.0005095678
207	0xbdd73fc8	-0.10510212
208	0xbd24faec	-0.04027836
209	0x3e0f9dd4	0.1402505
210	0xbe27771f	-0.16354035
211	0x3df9e29e	0.12201427
212	0x3de79fb7	0.1130976
213	0xbe00693d	-0.12540145
214	0xbe32c806	-0.17459115
215	0x3e3463ba	0.17616168
216	0xbd1517b9	-0.036399577
217	0xbc4c93ff	-0.012486457
218	0xbd151655	-0.03639825
219	0xbdb2700c	-0.087127775
220	0xbb2220cc	-0.0024738787
221	0x3c585db1	0.0132059315
222	0xbd0ed01d	-0.03486644
223	0xbd56c06a	-0.052429594
224	0x3c8db66e	0.017298903
225	0xbd52f1e5	-0.05150022
226	0x3c6ae195	0.0143360095
227	0xbd315634	-0.0432951
228	0x3d8a2ab3	0.067464255
229	0x3d840dea	0.064479664
230	0x3e5c3979	0.21506299
231	0xbbc8475a	-0.0061120214
232	0x3e3c5158	0.18390405
233	0x3dab884f	0.08375608
234	0xbd078cb8	-0.033093184
235	0xbda6aec8	-0.08138806
236	0xbd681af0	-0.056666315
237	0xbddf88f9	-0.10914797
238	0xbda7508b	-0.08169659
239	0xbe3da349	-0.1851932
240	0xbde214cb	-0.11039122
241	0xbe458f6e	-0.19292995
242	0xbe1f667b	-0.15566437
243	0xbccce7ef	-0.025012938
244	0x3c90f1c7	0.017693413
245	0x3dc640b9	0.096803136
246	0xbde79bdd	-0.113090254
247	0x3c725b88	0.014792331
248	0xbd6e4381	-0.058169845
249	0xbd29d971	-0.041467134
250	0xbdc704cc	-0.09717712
251	0xbd0edf31	-0.03488082
252	0xbd9e1c8e	-0.0772029
253	0xbd1ccc0f	-0.038280543
254	0xbd3cecd3	-0.04612429
255	0xbd0c9cba	-0.034329154
