best_epoch_weights.onnx (onnx, 677521 bytes, 182 tensors)

scales__618 f4 [4]
1.0 1.0 2.0 2.0
00000000: 0000 803f 0000 803f 0000 0040 0000 0040

model_3/yolo_head_P5/separable_conv2d/ReadVariableOp_1:0 f4 [24, 64, 1, 1]
-0.053874183 -0.09370216 0.024107683 0.18271597 0.20996413 0.14584354 0.07285199 0.05325461
0.12434 0.04032672 -0.1567058 -0.17516784 0.2539242 0.17563817 -0.20536955 -0.016245948
-0.25573865 0.007835653 0.4020804 -0.23411757 -0.25007856 0.024559818 -0.10443204 -0.16774577
-0.1588065 0.2466156 -0.216608 -0.17035781 -0.11596135 0.012549171 0.28992674 0.17280841
-0.25361753 -0.09257967 0.21096145 0.09511641 0.1559271 0.1528432 0.26092145 -0.20772955
0.14660808 0.3862596 -0.21462771 0.18023409 -0.1784608 0.017355546 -0.38004598 -0.20285805
0.2824137 0.005633984 -0.08622078 -0.0040637003 0.017962797 0.32123855 -0.2572388 0.22927651
0.024904588 -0.10535327 0.11778624 0.08337527 0.30723748 -0.24799483 0.121866584 0.1320081
-0.065037146 -0.1402759 0.207032 -0.055910364 0.06666779 0.2858735 -0.115489766 0.1890001
0.20939025 0.027022162 0.19476154 0.0048804036 0.11319055 0.1545371 0.100871295 0.16112365
0.17522208 -0.24643752 0.18832783 0.10668206 -0.04151174 -0.1496705 0.04729158 0.17256583
-0.30653995 0.13104066 0.20722663 0.025630252 0.26011008 -0.12792741 0.11712589 0.21552423
-0.13729894 0.13254485 -0.026462063 -0.37520376 -0.18507731 0.048034277 -0.11400337 0.18116549
0.020953394 0.058020625 -0.07352499 -0.18968588 -0.043761957 0.19776246 0.1497178 0.18283078
0.0034563967 -0.34247586 -0.0035447604 0.08315428 -0.13559689 -0.28063238 -0.24596785 -0.22583356
-0.12433466 0.18219514 0.14385828 -0.14847629 0.14229444 0.23853853 -0.2247979 -0.043306775
0.26883495 -0.10065331 -0.096708454 0.008062393 -0.22905894 -0.24233776 0.053237796 0.030918557
-0.08002685 -0.20939212 0.18535528 0.15606269 0.21816358 -0.03944038 0.06915464 -0.03278787
-0.045536574 0.124315314 0.10163834 0.14917494 0.17457436 -0.10247529 0.18084686 0.23572426
0.043147348 0.17021713 0.028004356 0.030570162 0.07962662 -0.19685587 0.019824084 -0.16975497
-0.015158012 -0.052252606 -0.017517833 0.10921417 0.21925488 0.27451777 -0.021445757 0.019462503
-0.06871428 0.052902278 0.052750528 -0.09388399 0.2753266 -0.1031607 0.053843062 0.1833832
0.27993667 0.02322832 -0.14273897 -0.13088287 0.20309088 0.09142221 0.085567184 -0.22148556
0.11460479 -0.031295527 -0.0064664995 0.09080936 -0.011029615 0.11721663 0.110766746 -0.077542126
0.23273674 -0.0022636827 0.058356103 0.23668934 0.2584041 -0.06614929 0.25138807 -0.07315645
-0.11093206 -0.03494299 -0.11453421 0.057180665 0.41845292 -0.19380176 -0.20108369 0.0149222
-0.06210042 -0.18485284 0.18819742 -0.17263952 -0.063761234 -0.17786273 0.15012375 0.18480828
0.17077678 0.43935812 0.013804874 0.017681597 -0.19026677 0.20203339 0.028545255 0.20205721
-0.1741982 -0.13992704 -0.033550635 -0.2212974 -0.045144588 0.047456995 0.0864224 -0.09405354
-0.1355652 0.00611311 -0.00703127 0.052985784 0.30795467 -0.17111368 0.04721031 0.037661735
0.014602964 -0.08905769 0.05342606 0.07017461 -0.048220802 0.16883288 0.12270516 -0.22583567
0.025554573 0.106269345 -0.009109394 0.23691827 0.0077571273 0.03237647 -0.18511236 0.038087934
00000000: 2dab 5cbd ebe6 bfbd 7a7d c53c e519 3b3e
00000010: d600 573e 0258 153e 6d33 953d 8221 5a3d
00000020: f8a5 fe3d a12d 253d 7c77 20be 335f 33be
00000030: 5a02 823e 7eda 333e 654c 52be 3916 85bc
00000040: 2df0 82be 1c61 003c 7bdd cd3e 84bc 6fbe
00000050: 4c0a 80be ac31 c93c 77e0 d5bd 8cc5 2bbe
00000060: 2c9e 22be cd88 7c3e 7dce 5dbe 4772 2ebe
00000070: 257d edbd 0a9b 4d3c 4771 943e b0f4 303e
00000080: 28da 81be 699a bdbd 4706 583e 64cc c23d
00000090: 5bab 1f3e ee82 1c3e 7f97 853e 0eb7 54be
000000a0: 6e20 163e d1c3 c53e 5ec7 5bbe 498f 383e
000000b0: 6ebe 36be 382d 8e3c 6395 c2be 05ba 4fbe
000000c0: 8798 903e 499d b83b 8594 b0bd ca28 85bb
000000d0: b726 933c 6179 a43e ceb4 83be 76c7 6a3e
000000e0: b504 cc3c 75c3 d7bd ea39 f13d a7c0 aa3d
000000f0: 3b4e 9d3e 5bf2 7dbe 3095 f93d 222d 073e
00000100: 3232 85bd 7ca4 0fbe 3200 543e 4402 65bd
00000110: 1f89 883d 035e 923e e685 ecbd 3e89 413e
00000120: 666a 563e 955d dd3c 926f 473e cbeb 9f3b
00000130: 72d0 e73d f93e 1e3e 9c95 ce3d 99fd 243e
00000140: 6b6d 333e 1e5a 7cbe 03d9 403e 207c da3d
00000150: 3708 2abd 3943 19be d1b4 413d 19b5 303e
00000160: cef2 9cbe 862f 063e 3833 543e 89f6 d13c
00000170: 262d 853e 67ff 02be b3df ef3d 62b2 5c3e
00000180: 1898 0cbe d6b9 073e f8c6 d8bc b51a c0be
00000190: e884 3dbe 97bf 443d 997a e9bd 7283 393e
000001a0: 74a6 ab3c 09a7 6d3d 4594 96bd 043d 42be
000001b0: bd3f 33bd 3e82 4a3e 9f4f 193e fe37 3b3e
000001c0: b784 623b ff58 afbe 364f 68bb cb4c aa3d
000001d0: e9d9 0abe 0caf 8fbe ffde 7bbe ea40 67be
000001e0: 2ca3 febd 5d91 3a3e 964f 133e 2b0a 18be
000001f0: a2b5 113e 7243 743e 6c31 66be 7262 31bd
00000200: bca4 893e 5323 cebd 150f c6bd 2118 043c
00000210: 6d8e 6abe 6427 78be e00f 5a3d ea48 fd3c
00000220: 1ee5 a3bd e36a 56be c6cd 3d3e e6ce 1f3e
00000230: 4666 5f3e 3c8c 21bd f3a0 8d3d 934c 06bd
00000240: 8f84 3abd 0799 fe3d c327 d03d 51c1 183e
00000250: 9fc3 323e 91de d1bd eb2f 393e b361 713e
00000260: 46bb 303d 664d 2e3e 6469 e53c 476e fa3c
00000270: 4813 a33d 9694 49be 1e66 a23c 3fd4 2dbe
00000280: 4f59 78bc d406 56bd 8f81 8fbc aeab df3d
00000290: 5a84 603e 988d 8c3e 03af afbc d46f 9f3c
000002a0: 13ba 8cbd 0fb0 583d f010 583d 4046 c0bd
000002b0: 9cf7 8c3e eb45 d3bd 8b8a 5c3d cec8 3b3e
000002c0: dc53 8f3e 5149 be3c 2a2a 12be 2906 06be
000002d0: 0ef7 4f3e 913b bb3d d93d af3d 1ccd 62be
000002e0: ebb5 ea3d bd2f 00bd eee4 d3bb 42fa b93d
000002f0: 8fb5 34bc 460f f03d add9 e23d 68ce 9ebd
00000300: 8a52 6e3e 4b5a 14bb cf06 6f3d b15e 723e
00000310: 8b4d 843e 4779 87bd f0b5 803e 0dd3 95bd
00000320: 5930 e3bd 6120 0fbd e990 eabd 4636 6a3d
00000330: 763f d63e f873 46be e2e8 4dbe 3e7c 743c
00000340: 035d 7ebd 104a 3dbe d3b6 403e 6ac8 30be
00000350: 4095 82bd a621 36be 0aba 193e 623e 3d3e
00000360: 1ce0 2e3e 8cf3 e03e d72d 623c ffd8 903c
00000370: 4bd5 42be d7e1 4e3e bdd7 e93c 16e8 4e3e
00000380: 0361 32be 0949 0fbe 646c 09bd c99b 62be
00000390: 88e9 38bd 4462 423d 3afe b03d 249f c0bd
000003a0: 9bd1 0abe 7c50 c83b 9166 e6bb 9f07 593d
000003b0: 3cac 9d3e 6d38 2fbe 995f 413d 3143 1a3d
000003c0: 4541 6f3c e163 b6bd 49d5 5a3d b5b7 8f3d
000003d0: 2d83 45bd 87e2 2c3e d84c fb3d 7741 67be
000003e0: d357 d13c bea3 d93d 913f 15bc b49a 723e
000003f0: 802f fe3b 309d 043d 188e 3dbe 1802 1c3d

model_3/yolo_head_P5/BiasAdd/ReadVariableOp:0 f4 [24]
0.03133377 -0.033803634 -0.38805017 -0.13277563 -5.4223056 -0.20283978 -0.27082112 -0.6948293
0.04651709 0.032501634 -0.44482696 -0.4270626 -5.493918 0.38432127 -0.51149994 -0.7990829
-0.003745503 -0.023267461 -0.870854 -0.6090128 -5.620705 0.39046457 -0.46911108 -0.5696728
00000000: d757 003d ae75 0abd 83ae c6be 56f6 07be
00000010: 8783 adc0 3bb5 4fbe 11a9 8abe 55e0 31bf
00000020: b488 3e3d 6f20 053d 5cc0 e3be f3a7 dabe
00000030: 2dce afc0 c2c5 c43e a9f1 02bf b290 4cbf
00000040: 1d77 75bb 679b bebc 4af0 5ebf 43e8 1bbf
00000050: d1dc b3c0 f9ea c73e 542f f0be 14d6 11bf

model_3/yolo_head_P4/separable_conv2d/ReadVariableOp_1:0 f4 [24, 64, 1, 1]
-0.16395642 -0.07428995 0.18190846 -0.007930624 -0.24010167 -0.22556762 -0.12308268 -0.0006772478
-0.09701723 -0.040963907 -0.038671225 0.17424496 0.12593092 0.17077123 -0.13500407 0.13941781
-0.13572595 0.048776064 0.22978312 -0.047872525 -0.2558959 0.20625465 -0.030134123 0.19557649
-0.059559032 -0.47781166 -0.075899065 0.14711556 0.2355356 -0.013258541 -0.20418915 0.19332255
0.20516181 -0.047946036 0.25879547 0.06322707 0.08275008 0.02682056 -0.14339286 -0.105427064
-0.052945014 0.17032103 0.11251202 -0.017644765 -0.13447 -0.102882385 0.19042891 0.113516055
-0.053800493 -0.20810667 -0.041003987 0.17110698 -0.17636886 0.13892522 0.1266924 -0.18581523
0.022979762 -0.4640481 -0.16193788 0.16796537 -0.14286847 -0.024387907 0.0050447574 0.26070932
-0.009088947 0.046740945 -0.074038275 0.1232722 0.052522413 -0.069881946 0.10609051 -0.0156995
-0.2701051 -0.14490354 -0.12166843 -0.022127878 0.1507653 -0.43640298 -0.03863669 -0.23602954
-0.03444555 -0.40659806 0.20365754 0.06066828 0.076277286 -0.17003521 -0.36964428 0.12836257
0.17159885 -0.048219282 0.08072788 0.085747115 -0.11070777 -0.12266228 0.1171788 -0.042174824
-0.14186361 -0.1153985 0.23378694 0.110518314 0.17329128 -0.07166471 -0.16621399 -0.0040322165
0.22541323 -0.25758842 0.010859748 -0.16278762 -0.08321243 0.27499068 0.074211836 0.18706782
-0.011307417 0.40368453 0.15570857 0.12531072 -0.03542951 0.21427986 -0.1128431 0.072582
0.15696056 0.020380381 -0.07687878 -0.23651016 0.041545566 0.013650733 -0.1975787 0.062001247
-0.3563246 0.1203618 0.07773503 0.030888712 -0.32258102 -0.1655472 0.14565523 -0.05717454
0.08757822 0.1329673 0.053356465 0.25619096 0.0014644568 -0.024735313 0.020415718 -0.08419374
-0.062168043 -0.05471735 0.020998634 -0.08194999 -0.03158117 0.09900289 -0.1284835 0.06724758
-0.10947496 0.013185032 0.07120645 0.048238095 -0.094815105 -0.04656878 -0.24196185 0.0061098635
0.0075451606 0.1475997 -0.08318055 -0.03183391 -0.13632356 -0.08391185 -0.13462822 -0.23339887
0.20606945 -0.17146659 0.06123477 0.2689907 -0.13577217 -0.18339753 -0.058947243 0.15161599
0.006165911 -0.094121955 0.15153584 0.20349683 0.22750455 -0.031430617 -0.11208094 0.16462158
0.025276033 -0.0017557577 0.13033304 0.10954766 0.25801763 0.62017745 0.1733942 -0.109230906
-0.07231594 -0.035866227 0.022607768 0.063310385 -0.102986805 -0.03735197 0.0817097 0.046652686
0.036451805 0.15394455 0.24440967 -0.06191708 -0.018535644 0.057071403 0.11541083 -0.017335974
-0.10535259 -0.020484671 0.22652137 0.039817628 0.11861837 -0.1554817 0.019875957 -0.033360183
0.12764893 0.008207796 -0.02413918 -0.106686115 0.072737545 -0.23474813 -0.1886515 -0.39929652
0.2224194 -0.19900972 0.06537718 -0.004208588 -0.20050491 0.12578204 -0.16743083 -0.38456547
-0.08079574 0.044897437 0.010388567 -0.16055399 -0.05847345 0.033850487 -0.0066421297 0.1759129
-0.009602561 -0.03196026 0.0522999 0.14110462 -0.236553 0.069444306 -0.0017442083 -0.096933074
0.0061599994 0.029630456 0.15721641 0.21478394 -0.021264132 -0.017066125 -0.10767281 0.21000181
00000000: 31e4 27be 5425 98bd 3646 3a3e 73ef 01bc
00000010: 36dd 75be 33fb 66be c612 fcbd 5589 31ba
00000020: f8b0 c6bd c5c9 27bd b865 1ebd 456d 323e
00000030: 09f4 003e a7de 2e3e 823e 0abe 8bc3 0e3e
00000040: befb 0abe 69c9 473d 444c 6b3e fb15 44bd
00000050: ca04 83be 6b34 533e d6db f6bc 3445 483e
00000060: 2cf4 73bd bba3 f4be f870 9bbd 76a5 163e
00000070: 3f30 713e 5a3a 59bc f616 51be 59f6 453e
00000080: f015 523e 1063 44bd d780 843e 327d 813d
00000090: e078 a93d cbb6 db3c 94d5 12be 25ea d7bd
000000a0: dfdc 58bd a368 2e3e b46c e63d c18b 90bc
000000b0: 81b2 09be 00b4 d2bd ccff 423e 1b7b e83d
000000c0: e85d 5cbd ea19 55be ccf3 27bd ab36 2f3e
000000d0: 0a9a 34be 6a42 0e3e a7bb 013e 5946 3ebe
000000e0: 0e40 bc3c b697 edbe 0bd3 25be 1dff 2b3e
000000f0: 1d4c 12be 26c9 c7bc 7e4e a53b b17b 853e
00000100: cfe9 14bc 6f73 3f3d 61a1 97bd 2376 fc3d
00000110: be21 573d 441e 8fbd fb45 d93d 3d9c 80bc
00000120: 374b 8abe 9861 14be 4c2d f9bd 8645 b5bc
00000130: 3862 1a3e 3670 dfbe 8141 1ebd bab1 71be
00000140: c716 0dbd 9f2d d0be 9a8b 503e 4d7f 783d
00000150: 4437 9c3d b61d 2ebe 0442 bdbe 7a71 033e
00000160: 9cb7 2f3e 9581 45bd a954 a53d 2f9c af3d
00000170: c1ba e2bd 5d36 fbbd 70fb ef3d 82bf 2cbd
00000180: b244 11be 0c56 ecbd d865 6f3e 6d57 e23d
00000190: 4573 313e f3c4 92bd 0034 2abe af20 84bb
000001a0: bad2 663e a1e2 83be 16ed 313c ccb1 26be
000001b0: 476b aabd 94cb 8c3e 60fc 973d b58e 3f3e
000001c0: bf42 39bc bdaf ce3e 1172 1f3e 7451 003e
000001d0: 891e 11bd 2e6c 5b3e 491a e7bd dfa5 943d
000001e0: 45ba 203e c2f4 a63c 9f72 9dbd b82f 72be
000001f0: af2b 2a3d 53a7 5f3c 1252 4abe 05f5 7d3d
00000200: 2e70 b6be 3f80 f63d 8b33 9f3d 530a fd3c
00000210: 5729 a5be 3585 29be a526 153e da2f 6abd
00000220: 365c b33d 9428 083e 4f8c 5a3d 762b 833e
00000230: 04f3 bf3a b6a1 cabc dd3e a73c c46d acbd
00000240: eba3 7ebd 4d1f 60bd 5405 ac3c 65d5 a7bd
00000250: 425b 01bd 07c2 ca3d 2e91 03be 19b9 893d
00000260: 6834 e0bd 0806 583c b0d4 913d 4f95 453d
00000270: 6c2e c2bd e8be 3ebd d9c4 77be 4035 c83b
00000280: 653d f73b 6024 173e 905a aabd 4664 02bd
00000290: 6798 0bbe fad9 abbd fbdb 09be 1d00 6fbe
000002a0: df03 533e f094 2fbe 4fd1 7a3d 26b9 893e
000002b0: dc07 0bbe 90cc 3bbe aa72 71bd 3941 1b3e
000002c0: 690b ca3b 03c3 c0bd 362c 1b3e 7961 503e
000002d0: f4f6 683e 64bd 00bd b18a e5bd 8f92 283e
000002e0: af0f cf3c 7421 e6ba 0676 053e 865a e03d
000002f0: e31a 843e f3c3 1e3f 408e 313e 74b4 dfbd
00000300: 611a 94bd 77e8 12bd ed33 b93c e0a8 813d
00000310: bfea d2bd 61fe 18bd 6a57 a73d e316 3f3d
00000320: 7d4e 153d a4a3 1d3e 8746 7a3e c49c 7dbd
00000330: 10d8 97bc b4c3 693d 835c ec3d 2c04 8ebc
00000340: 19c3 d7bd 78cf a7bc 38f5 673e cf17 233d
00000350: 30ee f23d 9836 1fbe e7d2 a23c b0a4 08bd
00000360: 67b6 023e fe79 063c 88bf c5bc 407e dabd
00000370: 6cf7 943d d061 70be dc2d 41be 9870 ccbe
00000380: e9c1 633e 34c9 4bbe 79e4 853d 32e8 89bb
00000390: 2951 4dbe 02cd 003e fd72 2bbe c4e5 c4be
000003a0: 3d78 a5bd 60e6 373d cf34 2a3c 4468 24be
000003b0: db81 6fbd cfa6 0a3d 39a6 d9bb 8322 343e
000003c0: 0f54 1dbc c3e8 02bd 6c38 563d bb7d 103e
000003d0: f33a 72be d138 8e3d eb9d e4ba d984 c6bd
000003e0: d2d9 c93b 92bb f23c 57fd 203e 52f0 5b3e
000003f0: 1e32 aebc 42ce 8bbc 9083 dcbd b70a 573e

model_3/yolo_head_P4/BiasAdd/ReadVariableOp:0 f4 [24]
-0.08882631 -0.12299907 0.19253516 -0.46758464 -2.9957657 -0.19212346 -0.10983497 -0.28404632
-0.009580356 0.046663467 -0.3270985 -0.32042122 -2.94431 -0.17335874 -0.027126215 -0.21572419
0.05071238 -0.039164167 -0.2171877 -0.52561414 -3.1269534 0.11885048 -0.13755858 -0.36770415
00000000: 92ea b5bd f0e6 fbbd f027 453e 4167 efbe
00000010: a0ba 3fc0 03bc 44be 28f1 e0bd 856e 91be
00000020: edf6 1cbc 3122 3f3d 7479 a7be 400e a4be
00000030: 936f 3cc0 f484 31be cc37 debc cde6 5cbe
00000040: c9b7 4f3d 9b6a 20bd 7466 5ebe a68e 06bf
00000050: 0120 48c0 e167 f33d 28dc 0cbe b843 bcbe

model_3/yolo_head_P3/separable_conv2d/ReadVariableOp_1:0 f4 [24, 64, 1, 1]
-0.30077246 -0.22623907 -0.00836996 -0.18739992 -0.08878146 -0.2564722 -0.05880477 0.21363196
0.1270229 -0.019634716 0.15774573 -0.1298343 -0.29425046 -0.16782275 -0.02858317 0.20148972
0.1200529 -0.18601826 -0.28307313 -0.0029016824 0.20707484 0.18586689 -0.022048732 0.19155087
-0.040891264 -0.04967533 -0.25936958 -0.25392774 -0.2104007 0.026029494 0.1846449 -0.1991468
0.111273855 -0.15343274 0.26155868 0.014465379 -0.16727814 -0.14090623 -0.22551721 -0.18817602
0.11531226 0.09849718 0.0068824864 -0.17597827 -0.108933374 0.05458633 -0.1257524 -0.14600714
0.15251374 -0.20648696 0.01041791 -0.14332831 -0.2716262 -0.133176 -0.0057521416 0.19159383
-0.4629158 -0.09200242 0.22610432 -0.036226176 0.19890487 -0.19012703 -0.31190267 -0.10146782
0.02810638 0.0795295 0.15455696 0.08191713 0.008714448 0.17256588 0.035367884 0.19405103
-0.1447809 -0.17488074 0.0020388486 0.14568336 -0.37451938 0.18782221 -0.10941781 0.18330787
0.08034862 0.017309008 -0.074426614 0.15176146 -0.12686849 0.20395261 0.20171393 -0.09003446
0.037717305 -0.066481374 -0.030898573 0.1491352 -0.12945119 -0.17184357 -0.13637312 0.25827578
0.055703387 -0.2522029 0.0746387 -0.11580021 0.3513981 0.115198344 0.07841407 0.07402497
0.21951371 -0.0028010674 -0.16370332 0.013983021 0.31250745 0.46367285 -0.06976499 0.01742812
-0.15262425 0.061858926 -0.20436892 -0.2105655 -0.2217711 -0.15499388 0.45870605 -0.09841201
-0.027512701 -0.063648134 0.44309863 0.07892457 0.019314991 0.114516936 -0.08307507 -0.059123266
0.24367595 0.3821035 -0.012101171 0.13804404 0.16542973 0.11477945 -0.10165675 0.002892187
0.081219524 -0.25974753 0.12454429 0.1962417 -0.27898118 -0.014770444 -0.22412708 -0.17307739
0.40366575 0.20523654 0.06719219 0.15965925 -0.093017995 -0.11135011 -0.15156542 -0.19843267
0.13587226 0.027719209 -0.0644005 0.0059103915 0.26226723 0.09761304 0.24334572 -0.216844
0.19689351 0.0649595 0.1378739 -0.17120995 0.13211414 0.032066878 0.12413317 -0.49165595
0.16311637 -0.06667169 0.17061971 0.19048366 0.17609774 -0.07542698 -0.075041234 -0.041043732
-0.13042651 0.3946586 -0.21917386 -0.17499065 -0.15777859 0.19658701 0.006241906 -0.24473295
0.01677898 0.051901825 -0.103313126 -0.00048260408 -0.080313474 -0.006129805 0.22355592 0.09898983
-0.25510904 -0.279713 -0.13960508 0.21727528 0.099174604 -0.34467286 -0.03343246 -0.1831983
-0.12696221 0.040198497 -0.13290605 0.099160045 -0.23320903 -0.053869285 -0.10529291 -0.19597164
0.095077455 -0.25630704 -0.013772733 -0.18767825 -0.15826859 0.2777477 0.07426648 -0.036905974
0.29051337 0.25661784 -0.02182424 0.08730952 0.21633807 0.13498895 0.21165794 0.22913103
-0.072638735 -0.27767912 -0.23050615 -0.048292875 -0.013368027 -0.08167378 -0.015301446 -0.089684464
-0.22720909 -0.23523998 -0.06972294 -0.095106825 -0.05760897 -0.03805251 0.119920574 -0.073746376
-0.23842974 0.19826329 0.192536 0.08929346 0.07885989 -0.016132139 0.08547042 -0.162256
0.025025396 -0.2561031 0.004649569 0.00014748161 0.19464137 0.0935344 -0.12893471 0.0038667119
00000000: d9fe 99be 37ab 67be 2822 09bc c4e5 3fbe
00000010: 0ed3 b5bd 5350 83be 45dd 70bd 56c2 5a3e
00000020: 4b12 023e fcd8 a0bc 1988 213e 48f3 04be
00000030: ffa7 96be bad9 2bbe 4127 eabc 5253 4e3e
00000040: 4bde f53d 927b 3ebe f6ee 90be 272a 3ebb
00000050: 6d0b 543e e453 3e3e 8b9f b4bc e925 443e
00000060: 997d 27bd 5c78 4bbd 17cc 84be d102 82be
00000070: 4873 57be ce3b d53c 8d13 3d3e 24ed 4bbe
00000080: 8ce3 e33d 791d 1dbe 05eb 853e 3200 6d3c
00000090: f64a 2bbe b949 10be fced 66be 37b1 40be
000000a0: d628 ec3d e4b8 c93d 7b86 e13b a633 34be
000000b0: 7618 dfbd ea95 5f3d 3dc5 00be e582 15be
000000c0: 902c 1c3e 5171 53be e2af 2a3c a8c4 12be
000000d0: 9712 8bbe 4a5f 08be 767c bcbb 2c31 443e
000000e0: 4d03 edbe c46b bcbd e487 673e e661 14bd
000000f0: b8ad 4b3e a9b0 42be b5b1 9fbe 5cce cfbd
00000100: 5a3f e63c 5de0 a23d 2e44 1e3e 2bc4 a73d
00000110: 0bc7 0e3c 1cb5 303e eadd 103d 50b5 463e
00000120: 7241 14be f013 33be 349e 053b 052e 153e
00000130: 01c1 bfbe 7754 403e 7216 e0bd 0fb5 3b3e
00000140: d18d a43d 9fcb 8d3c fb6c 98bd 5b67 1b3e
00000150: d0e9 01be f4d8 503e 198e 4e3e fd63 b8bd
00000160: 767d 1a3d 6327 88bd 011f fdbc e6b6 183e
00000170: da8e 04be c3f7 2fbe 65a5 0bbe b93c 843e
00000180: 3c29 643d bd20 81be 2ddc 983d a928 edbd
00000190: 74ea b33e 1ced eb3d 8e97 a03d 679a 973d
000001a0: 34c8 603e 1d92 37bb d8a1 27be 0a19 653c
000001b0: fa00 a03e 8766 ed3e f2e0 8ebd 6bc5 8e3c
000001c0: 8849 1cbe c95f 7d3d 1646 51be 7c9e 57be
000001d0: f717 63be b7b6 1ebe 85db ea3e 3c8c c9bd
000001e0: 5162 e1bc f459 82bd d3dd e23e 34a3 a13d
000001f0: 793a 9e3c db87 ea3d 4323 aabd 3d2b 72bd
00000200: 3086 793e 12a3 c33e fd43 46bc 6b5b 0d3e
00000210: 6966 293e 7d11 eb3d 6a31 d0bd d98a 3d3b
00000220: 6c56 a63d a1fd 84be 1411 ff3d 96f3 483e
00000230: 9fd6 8ebe bbff 71bc 9281 65be 333b 31be
00000240: 47ad ce3e 8729 523e 0f9c 893d b77d 233e
00000250: 3880 bebd 870b e4bd f733 1bbe ef31 4bbe
00000260: 1922 0b3e 6513 e33c 69e4 83bd f5ab c13b
00000270: e447 863e 58e9 c73d 9f2f 793e 5b0c 5ebe
00000280: 749e 493e 7d09 853d d12e 0d3e a951 2fbe
00000290: ee48 073e 8f58 033d 8839 fe3d 54ba fbbe
000002a0: fa07 273e 2b8b 88bd efb6 2e3e 260e 433e
000002b0: f752 343e 7679 9abd 38af 99bd 791d 28bd
000002c0: 878e 05be b110 ca3e 1d6f 60be c030 33be
000002d0: b690 21be 1b4e 493e e788 cc3b 469b 7abe
000002e0: 1274 893c 0297 543d d595 d3bd 0606 fdb9
000002f0: 647b a4bd 88dc c8bb d8eb 643e 2ebb ca3d
00000300: a79d 82be 8b36 8fbe a2f4 0ebe 697d 5e3e
00000310: 0e1c cb3d f678 b0be 7af0 08bd 5698 3bbe
00000320: 6202 02be 2ea7 243d 8618 08be 6c14 cb3d
00000330: 59ce 6ebe 0aa6 5cbd cfa3 d7bd caac 48be
00000340: f8b7 c23d ad3a 83be 07a7 61bc ba2e 40be
00000350: 2911 22be f234 8e3e 0619 983d b82a 17bd
00000360: 2bbe 943e 6a63 833e c0c8 b2bc 55cf b23d
00000370: ba87 5d3e 8b3a 0a3e dcbc 583e 53a1 6a3e
00000380: 9ec3 94bd f52b 8ebe ce09 6cbe c0ce 45bd
00000390: 9205 5bbc 9544 a7bd ebb2 7abc 7dac b7bd
000003a0: 80a9 68be c0e2 70be e7ca 8ebd 5ec7 c2bd
000003b0: 62f7 6bbd f3dc 1bbd eb98 f53d 5708 97bd
000003c0: ed26 74be 8805 4b3e 2828 453e 7ddf b63d
000003d0: 4b81 a13d 8c27 84bc 1e0b af3d 7026 26be
000003e0: 0f02 cd3c f21f 83be 695b 983b 4ba5 1a39
000003f0: 1150 473e f78e bf3d 7607 04be a968 7d3b

model_3/yolo_head_P3/BiasAdd/ReadVariableOp:0 f4 [24]
-0.014508081 -0.022529796 0.2583273 -0.28398517 -2.319045 -0.34490082 0.04053184 -0.08150084
-0.0824333 0.02618945 0.30156696 -0.29180643 -2.5107605 -0.27162337 -0.083458506 -0.050507102
-0.11465005 0.0073300623 -0.13794678 -0.21989317 -2.5282216 -0.22423226 -0.09653975 -0.059612755
00000000: 4db3 6dbc 6890 b8bc 7a43 843e 8166 91be
00000010: 3c6b 14c0 d796 b0be b704 263d eae9 a6bd
00000020: cad2 a8bd 428b d63c fc66 9a3e a767 95be
00000030: 4db0 20c0 3812 8bbe 4bec aabd 89e0 4ebd
00000040: a5cd eabd 0531 f03b ec41 0dbe ad2b 61be
00000050: 62ce 21c0 249d 65be a2b6 c5bd 812c 74bd

model_3/yolo_eval/Reshape_3:0 f4 [1, 1, 3, 2]
116.0 90.0 156.0 198.0 373.0 326.0
00000000: 0000 e842 0000 b442 0000 1c43 0000 4643
00000010: 0080 ba43 0000 a343

model_3/yolo_eval/Reshape_19:0 f4 [1, 1, 3, 2]
10.0 13.0 16.0 30.0 33.0 23.0
00000000: 0000 2041 0000 5041 0000 8041 0000 f041
00000010: 0000 0442 0000 b841

model_3/yolo_eval/Reshape_11:0 f4 [1, 1, 3, 2]
30.0 61.0 62.0 45.0 59.0 119.0
00000000: 0000 f041 0000 7442 0000 7842 0000 3442
00000010: 0000 6c42 0000 ee42

model_3/separable_conv2d_1/separable_conv2d/ReadVariableOp_1:0 f4 [12, 3, 1, 1]
-0.061286766 0.03622185 -0.25034758 -0.33359417 0.49010864 0.15106429 -0.52489924 0.21562375
-0.5732321 -0.44773299 0.38800073 -0.24761562 -0.41112533 0.14090252 -0.42327568 0.26014766
0.21724144 0.3755361 0.40772462 0.6476583 -0.20632242 -0.8574014 -0.023087064 -0.5952867
-0.2718405 0.60431015 -0.098348886 0.48990592 0.46523288 -0.39354455 0.23218651 0.7528493
0.38387233 0.36717868 0.5702486 0.5830006
00000000: d507 7bbd 5d5d 143d 8f2d 80be dbcc aabe
00000010: 85ef fa3e 99b0 1a3e cc5f 06bf 79cc 5c3e
00000020: 57bf 12bf 423d e5be 08a8 c63e f38e 7dbe
00000030: 057f d2be c048 103e 97b7 d8be 1332 853e
00000040: 8a74 5e3e 4546 c03e 48c1 d03e efcc 253f
00000050: 2f46 53be a87e 5bbf 1521 bdbc b664 18bf
00000060: ae2e 8bbe 12b4 1a3f 246b c9bd f3d4 fa3e
00000070: 0133 ee3e ac7e c9be 4dc2 6d3e bbba 403f
00000080: ea8a c43e d8fe bb3e d0fb 113f 873f 153f

model_3/separable_conv2d_1/BiasAdd/ReadVariableOp:0 f4 [12]
0.12848313 0.04989334 -0.028800683 0.11788169 -0.036406975 0.2750123 0.13267048 0.046039797
0.13327882 -0.0026405316 0.18516222 0.42575234
00000000: 1591 033e f55c 4c3d 69ef ebbc f56b f13d
00000010: 7b1f 15bd 6ace 8c3e c5da 073e 3a94 3c3d
00000020: 3e7a 083e c50c 2dbb 2a9b 3d3e 36fc d93e

const_fold_opt__1497 f4 [128, 1, 1, 1]
-0.20830141 -0.294035 -0.35041225 0.21193789 -0.058694 0.09601297 -0.011548138 -0.09962301
0.29706964 -0.14859304 0.09637724 -0.08711932 0.075084105 0.05297833 -0.05959225 -0.12338661
0.22691548 0.37986067 -0.12100656 0.14456424 0.113901764 0.074901335 -0.2700406 -0.17306933
0.09968129 0.0043838485 0.08283019 0.15980808 -0.31011295 0.27616325 -0.22671025 -0.20871128
-0.1626759 -0.118950814 0.10396217 -0.20287515 0.06669049 0.18051974 0.11456369 -0.115560316
0.02505822 -0.12942186 0.14994854 -0.09500957 -0.11260757 0.08043986 0.12842624 0.1253568
-0.16871195 0.04749875 0.09203104 -0.056694258 0.081640996 -0.0014760713 -0.03833377 0.1907909
-0.22486028 0.12661181 0.082207575 -0.08390833 -0.089940384 -0.13365561 0.03682515 -0.097088985
-0.09857489 -0.053569756 0.07632738 0.014089966 0.1550967 -0.016098963 0.17902885 -0.016947772
0.038263407 0.10399208 -0.038244847 0.014726921 0.036861826 -0.1634062 -0.06016819 0.05853995
-0.11877763 0.015034006 -0.044258878 0.043068558 0.047103442 -0.06693565 -0.07807718 -0.02744958
0.19352737 -0.11004728 0.006292674 0.10056088 -0.07018009 0.023283768 0.038068715 0.11575114
-0.03533695 0.0058358307 0.08717457 0.022083301 0.070217125 -0.09006757 0.08833022 -0.08375863
-0.030898139 -0.10680587 0.015104214 -0.10483969 0.06433552 -0.038105436 -0.008737256 0.16003306
0.053546373 0.025140904 0.020108435 -0.07705721 0.025319787 0.10689748 0.07137371 0.028426202
0.102755934 -0.011865259 -0.0063027306 -0.119205676 -0.10498513 -0.057369165 -0.19262825 -0.15951727
00000000: f74c 55be c18b 96be 3c69 b3be 3f06 593e
00000010: 1f69 70bd 73a2 c43d 6734 3dbc 2607 ccbd
00000020: 8319 983e c628 18be 6e61 c53d 9d6b b2bd
00000030: b2c5 993d ceff 583d 0117 74bd 1eb2 fcbd
00000040: 885c 683e 197d c23e 4ad2 f7bd a608 143e
00000050: 5445 e93d df65 993d c342 8abe 1639 31be
00000060: b425 cc3d 63a6 8f3b e0a2 a93d bba4 233e
00000070: 20c7 9ebe 4565 8d3e bb26 68be 69b8 55be
00000080: 8394 26be 7c9c f3bd 1eea d43d 81be 4fbe
00000090: 0695 883d 2bda 383e 5ea0 ea3d e3aa ecbd
000000a0: e546 cd3c 2a87 04be 1c8c 193e 6194 c2bd
000000b0: cc9e e6bd a7bd a43d 2b82 033e 885d 003e
000000c0: d3c2 2cbe 0d8e 423d c57a bc3d 3d38 68bd
000000d0: 6533 a73d bc78 c1ba df03 1dbd b15e 433e
000000e0: c641 66be 87a6 013e 725c a83d 21d8 abbd
000000f0: aa32 b8bd 04dd 08be f8d5 163d 97d6 c6bd
00000100: a2e1 c9bd f66b 5bbd 8851 9c3d 9ad9 663c
00000110: abd1 1e3e f9e1 83bc 5753 373e 0ed6 8abc
00000120: 17ba 1c3d cdf9 d43d a1a6 1cbd 2f49 713c
00000130: 6dfc 163d f453 27be ec72 76bd 96c7 6f3d
00000140: b041 f3bd 3151 763c cc48 35bd a868 303d
00000150: 8aef 403d 8f15 89bd eee6 9fbd f1dd e0bc
00000160: 0a2c 463e 7860 e1bd c732 ce3b ddf2 cd3d
00000170: 94ba 8fbd 9abd be3c f1ed 1b3d ef0e ed3d
00000180: 7abd 10bd 7f3a bf3b 9588 b23d 0ae8 b43c
00000190: ffcd 8f3d 5975 b8bd 79e6 b43d a589 abbd
000001a0: 181e fdbc 09bd dabd aa77 773c 31b6 d6bd
000001b0: 57c2 833d 7214 1cbd b526 0fbc b5df 233e
000001c0: 7153 5b3d 4cf4 cd3c 72ba a43c 2cd0 9dbd
000001d0: 716b cf3c 11ed da3d 612c 923d 11de e83c
000001e0: b471 d23d 8166 42bc 2387 cebb 1b22 f4bd
000001f0: 7202 d7bd eefb 6abd 5740 45be 7f58 23be

const_fold_opt__1496 f4 [16, 1, 1, 1]
0.38214874 0.6108594 0.52117485 0.40500322 -0.3453503 -0.27311525 0.29556683 0.44716093
-0.26990438 -0.32296368 -0.36377466 -0.12031156 -0.42918298 -0.40928134 0.46014196 -0.16147608
00000000: 00a9 c33e 4861 1c3f b76b 053f 955c cf3e
00000010: c1d1 b0be c3d5 8bbe 8954 973e 47f2 e43e
00000020: e830 8abe 7f5b a5be ac40 babe e865 f6bd
00000030: dfbd dbbe 538d d1be ba97 eb3e fc59 25be

const_fold_opt__1495 f4 [32, 1, 1, 1]
0.16833535 0.36495546 -0.42167085 0.3450871 0.38626245 0.40992248 0.1618531 0.21819389
0.26712555 -0.08439383 0.3711205 -0.34298307 -0.22611187 0.34076327 0.33108106 0.35278428
0.22810297 -0.41993737 -0.4490751 0.27724817 -0.088984184 0.29196283 -0.25861788 -0.3226666
0.2555483 -0.24671817 -0.3708885 0.19651401 0.48540774 -0.49300927 -0.36961547 -0.25254583
00000000: 1a60 2c3e 71db ba3e 3ee5 d7be 42af b03e
00000010: 31c4 c53e 5ce1 d13e d2bc 253e 386e 5f3e
00000020: aec4 883e acd6 acbd 8203 be3e 7a9b afbe
00000030: df89 67be 8678 ae3e 7583 a93e 24a0 b43e
00000040: d393 693e 0802 d7be 2ced e5be 79f3 8d3e
00000050: 573d b6bd 277c 953e 9069 84be 8e34 a5be
00000060: 3ad7 823e b0a3 7cbe 19e5 bdbe f83a 493e
00000070: 5d87 f83e b66b fcbe 3d3e bdbe b04d 81be

const_fold_opt__1493 f4 [64, 1, 1, 1]
-0.5324264 0.74535143 0.53102833 0.21163383 0.5318939 0.027075903 0.6561543 0.12844868
-0.7349386 1.4986676 0.13600665 0.013255332 -0.27025014 -0.4792653 -0.17646712 0.39639047
0.13593931 0.57198906 -0.16001333 -0.07344919 -0.7869951 -0.18387014 -0.6773983 0.1716226
-0.473865 -1.2397794 -0.005679538 -0.5140776 0.030530114 0.4670577 -0.008375521 -0.67192096
0.16604804 0.008039434 0.22386347 1.0518222 -0.0060442206 0.28084874 0.011233633 -0.67298347
0.00054362643 0.84720105 -1.8415834 -0.60761946 -0.81813234 0.99251854 -1.0836927 -0.66185033
-0.94309855 0.62967044 -0.31544554 0.10645911 -0.42100587 0.7150208 -0.3166128 -0.6345837
-0.8677932 0.9132885 0.19377172 0.08943046 -0.65634334 1.1206644 0.016838059 0.309505
00000000: 194d 08bf 5acf 3e3f 79f1 073f 8ab6 583e
00000010: 332a 083f 49ce dd3c baf9 273f 0d88 033e
00000020: f024 3cbf 57d4 bf3f 5445 0b3e e42c 593c
00000030: 3a5e 8abe 4362 f5be ccb3 34be b1f3 ca3e
00000040: ad33 0b3e e06d 123f 89da 23be 876c 96bd
00000050: 8378 49bf 7448 3cbe fa69 2dbf d6bd 2f3e
00000060: 6f9e f2be 17b1 9ebf 6b1b babb 979a 03bf
00000070: 4a1a fa3c 3022 ef3e 7b39 09bc 0303 2cbf
00000080: 7f08 2a3e d5b7 033c 773c 653e 1ca2 863f
00000090: 990e c6bb 68cb 8f3e 460d 383c a548 2cbf
000000a0: 2782 0e3a 2be2 583f 01b9 ebbf f38c 1bbf
000000b0: 1f71 51bf b215 7e3f 71b6 8abf 066f 29bf
000000c0: e86e 71bf 1532 213f 1482 a1be 3c07 da3d
000000d0: 158e d7be 9a0b 373f 131b a2be 1474 22bf
000000e0: b227 5ebf 46cd 693f 186c 463e 5127 b73d
000000f0: 1e06 28bf ee71 8f3f f8ef 893c 7077 9e3e

const_fold_opt__1490 f4 [32, 1, 3, 3]
0.0011032869 0.0025152545 0.024831276 0.0038754514 0.013987054 0.10259639 -0.025420621 0.1642881
0.055706818 -0.098316394 -0.007858054 -0.042937934 -0.04567892 0.02343 0.0034764232 -0.020024216
-0.041133635 -0.061539352 0.06671359 0.09802037 0.15724166 0.07391506 -0.123345934 -0.08455786
0.049563695 -0.2218793 -0.1370015 -0.016855 -0.022828296 0.12937905 0.013398477 0.06319633
0.034046657 0.029740687 -0.11243401 -0.011771286 -0.06332932 -0.09928534 -0.076260194 -0.08811161
-0.100011095 -0.06237127 -0.0765045 -0.054315094 -0.035360325 -0.044997633 0.05364341 -0.07893351
-0.07045479 0.09110795 -0.057676572 0.110515505 0.1920747 0.03825548 -0.06085184 -0.04858048
-0.17677583 -0.015338395 0.12837306 -0.056323625 0.07665523 0.103857994 0.030283183 0.013043524
-0.08189916 0.021625167 0.02342343 0.20644422 -0.0030825147 0.16632901 0.21196249 0.08903484
0.01387279 0.06845152 0.054765806 -0.009439587 -0.06359069 -0.15726534 0.03326935 0.02973289
0.026014274 -0.17059426 -0.05566152 -0.15677342 -0.040734045 0.26981843 -0.03942687 0.0062556886
0.13575651 -0.0018506568 0.074870855 0.3006857 0.117536984 0.030393064 0.12926087 0.092989236
-0.04450229 0.08670192 -0.0359004 -0.10798603 -0.00083448715 -0.11000164 -0.13809901 -0.06849422
-0.117124714 0.08500232 0.06986703 -0.0011259664 0.11346394 0.23952906 0.08686659 -0.048521012
0.047285818 -0.13151683 -0.12340075 0.18022761 -0.13419957 -0.113036536 -0.059281055 -0.08186157
-0.08102044 -0.06515535 -0.19001986 -0.089770064 0.024390623 -0.1491562 0.016612068 0.17035343
0.0848328 -0.0064305775 -0.086029544 0.06550088 -0.05059535 -0.079086505 0.004202476 0.04649236
0.020070588 -0.003623634 -0.05682565 -0.11166793 -0.0456435 0.02893865 0.12900262 0.12970069
0.09157838 -0.03756677 0.11489274 0.104377694 0.21002601 0.20115961 -0.029900417 -0.017257946
-0.15611723 -0.104101695 -0.11282185 -0.1495151 -0.099268265 0.04871286 -0.12567991 -0.014497839
0.0372462 0.032568388 0.046357866 -0.018063556 -0.08090966 0.13231044 -0.18366112 0.15420853
0.07205448 -0.18907154 0.022959467 0.1576158 -0.015651852 0.15428872 0.110867515 -0.01683862
0.07137833 -0.20514117 -0.2667365 -0.26144803 -0.068587676 -0.0151881585 -0.08742504 0.00339339
0.085789934 -0.03995924 -0.120053515 -0.07489483 -0.1417706 0.08983946 0.12298753 0.12373061
0.10271629 0.09262179 0.16726351 0.07381023 0.10916797 0.15995528 0.026724342 0.026037296
-0.10575147 0.037901573 0.15299797 -0.17159522 -0.08923176 0.042032164 -0.11947429 0.077491075
-0.070106745 0.02350502 0.19096065 -0.110877894 0.11651298 0.023551157 -0.09594514 -0.14172554
-0.0054841773 -0.016465338 -0.048915487 0.21884336 -0.0008351898 -0.0033394436 0.020917343 -0.059334163
-0.07217783 -0.14868054 0.0062255617 -0.072595514 -0.015022826 0.09390287 0.07339531 -0.115426786
-0.016672892 -0.07981633 -0.06057544 -0.0474592 -0.043449324 -0.029416203 -0.09594172 0.029212266
-0.03631504 -0.20394954 -0.058364406 -0.007164621 -0.06951871 -0.05359033 -0.028346395 -0.09400766
-0.15072532 -0.042194378 -0.1385481 -0.084466554 -0.05759886 0.015588945 0.03855436 0.037949905
00000000: 2a9c 903a f8d6 243b f66a cb3c 49fb 7d3b
00000010: f529 653c 0e1e d23d e83e d0bc 243b 283e
00000020: d52c 643d 1b5a c9bd 11bf 00bc b0df 2fbd
00000030: d219 3bbd 45f0 bf3c b4d4 633b d309 a4bc
00000040: be7b 28bd b010 7cbd 22a1 883d e7be c83d
00000050: f503 213e c760 973d cb9c fcbd ac2c adbd
00000060: 4d03 4b3d 5434 63be 1f4a 0cbe 7f13 8abc
00000070: 6802 bbbc f17b 043e 4985 5b3c 146d 813d
00000080: 8274 0b3d bea2 f33c cd43 e6bd 5adc 40bc
00000090: cdb2 81bd 1d56 cbbd 4e2e 9cbd dc73 b4bd
000000a0: 9ed2 ccbd 0479 7fbd 64ae 9cbd 8179 5ebd
000000b0: fdd5 10bd 704f 38bd 31b9 5b3d e4a7 a1bd
000000c0: 9a4a 90bd ce96 ba3d 453e 6cbd f455 e23d
000000d0: 3baf 443e c7b1 1c3d c73f 79bd 53fc 46bd
000000e0: b904 35be e44d 7bbc 3a74 033e 9ab3 66bd
000000f0: 6bfd 9c3d 80b3 d43d 7014 f83c 81b4 553c
00000100: bfba a7bd 4327 b13c 7ee2 bf3c 1d66 533e
00000110: 0404 4abb 2752 2a3e b20c 593e e657 b63d
00000120: b34a 633c 4f30 8c3d 1c52 603d 7fa8 1abc
00000130: d63b 82bd 2a0a 21be 7145 083d 6492 f33c
00000140: e31b d53c 43b0 2ebe 56fd 63bd 3689 20be
00000150: bed8 26bd a425 8a3e 127e 21bd 85fc cc3b
00000160: c103 0b3e bd91 f2ba e455 993d 7af3 993e
00000170: 3bb7 f03d e0fa f83c f65c 043e 2471 be3d
00000180: 0948 36bd c790 b13d 4c0c 13bd c827 ddbd
00000190: 7cc1 5aba 8a48 e1bd d469 0dbe b346 8cbd
000001a0: 15df efbd b215 ae3d 7216 8f3d 2a95 93ba
000001b0: c85f e83d 1b47 753e 1ce7 b13d f8bd 46bd
000001c0: c6ae 413d 59ac 06be 88b9 fcbd 968d 383e
000001d0: 9d6b 09be b37f e7bd b1d0 72bd 0aa7 a7bd
000001e0: 0bee a5bd 2b70 85bd 9194 42be 5ed9 b7bd
000001f0: d8ce c73c 67bc 18be 0816 883c 2171 2e3e
00000200: d2bc ad3d 98b7 d2bb 4230 b0bd 5325 863d
00000210: 123d 4fbd 1bf8 a1bd ecb4 893b c66e 3e3d
00000220: 136b a43c 7e7a 6dbb 03c2 68bd 28b2 e4bd
00000230: aef4 3abd bf10 ed3c 4319 043e 42d0 043e
00000240: 728d bb3d 9ddf 19bd e34c eb3d f9c3 d53d
00000250: 0f11 573e c9fc 4d3e b8f1 f4bc 8960 8dbc
00000260: 32dd 1fbe 4533 d5bd 240f e7bd 7d1a 19be
00000270: 294d cbbd 2387 473d 3cb2 00be 5888 6dbc
00000280: 798f 183d 6e66 053d bfe1 3d3d 06fa 93bc
00000290: f7b3 a5bd 637c 073e a911 3cbe d7e8 1d3e
000002a0: 4d91 933d f89b 41be 7e15 bc3c 0966 213e
000002b0: 5038 80bc ddfd 1d3e 820e e33d 25f1 89bc
000002c0: cd2e 923d 8710 52be b091 88be 84dc 85be
000002d0: b277 8cbd c1d7 78bc e60b b3bd a363 5e3b
000002e0: a2b2 af3d 4dac 23bd 9ede f5bd 7662 99bd
000002f0: 502c 11be c0fd b73d e3e0 fb3d 7966 fd3d
00000300: eb5c d23d 7eb0 bd3d 2047 2b3e d129 973d
00000310: 7593 df3d 51cb 233e 02ed da3c 2b4c d53c
00000320: 3a94 d8bd ae3e 1b3d 80ab 1c3e a8b6 2fbe
00000330: 24bf b6bd eb29 2c3d f0ae f4bd a4b3 9e3d
00000340: 2094 8fbd 9a8d c03c 308b 433e f313 e3bd
00000350: 5b9e ee3d 5bee c03c e37e c4bd 8020 11be
00000360: 9db4 b3bb 51e2 86bc 9b5b 48bd 7918 603e
00000370: a4f0 5aba 91da 5abb d95a ab3c 6108 73bd
00000380: f8d1 93bd b63f 18be ccff cb3b f5ac 94bd
00000390: 4d22 76bc 2650 c03d 4850 963d e164 ecbd
000003a0: 9795 88bc be76 a3bd f41d 78bd 9464 42bd
000003b0: ebf7 31bd 40fa f0bc 187d c4bd 904e ef3c
000003c0: 14bf 14bd 26d8 50be 840f 6fbd 32c5 eabb
000003d0: d35f 8ebd 8981 5bbd b336 e8bc 1787 c0bd
000003e0: bd57 1abe 03d4 2cbd 8edf 0dbe cdfc acbd
000003f0: c8ec 6bbd c668 7f3c 2deb 1d3d 5c71 1b3d

const_fold_opt__1489 f4 [16, 1, 3, 3]
0.054306917 -0.14146397 -0.018214528 0.29992127 0.21691056 -0.07334803 0.054111127 0.3106311
0.05370633 0.08213349 0.089980885 -0.08048817 -0.01829539 0.17914337 -0.26501435 0.14362463
0.07870784 -0.12784179 -0.08683036 -0.14887069 -0.07798631 -0.17589262 0.29875436 -0.19176017
-0.009159875 -0.2239635 0.1837983 -0.07372729 -0.22619498 -0.06906756 -0.16790228 -0.10067042
0.13380837 0.1967355 0.15776773 0.21997923 -0.0100111505 -0.01538771 -0.07050791 0.27990428
0.13915694 -0.3651441 0.026586484 0.031206047 -0.30505472 0.08397206 -0.061591916 0.02125468
0.2173704 0.2944694 -0.08614121 0.024724139 0.02315187 -0.33149916 0.22520296 0.054517668
-0.024272589 -0.12337594 -0.103720576 0.3208137 -0.39362258 -0.30514416 0.361511 -0.035092667
-0.11064096 0.19032717 0.0061124875 -0.028766856 -0.043776255 -0.039634157 0.14313558 -0.029831134
-0.0011725639 -0.21257213 -0.07498184 -0.102644145 -0.056348387 -0.06824895 -0.2123899 0.044723287
0.029773066 -0.093976155 -0.19631 0.021654246 0.19021454 0.07426636 -0.22984287 0.048506595
0.18281004 0.25067338 -0.05907477 -0.13825062 0.0043574343 -0.15016505 -0.16636662 0.29600617
0.011100388 -0.121522866 0.10065148 -0.07154812 0.01689618 0.029118655 -0.020775879 -0.2139024
0.19059905 -0.109720126 -0.08102371 0.034063812 -0.0006433548 0.097125776 -0.23613153 -0.09777314
-0.121342935 -0.03647726 0.1446119 0.44245243 -0.0042917565 -0.16557111 0.28824943 0.12276184
0.20316714 0.23935798 0.035899866 -0.029866084 0.055407852 0.07159892 0.019969702 0.026053853
0.08401217 -0.26532242 0.4843554 0.0048500434 -0.06597069 -0.0056840274 -0.107648276 -0.07531528
0.14798202 0.12640043 0.10917113 -0.042802688 -0.094776034 0.11969188 0.14645682 0.12305487
00000000: ee70 5e3d eedb 10be a236 95bc 488f 993e
00000010: cd1d 5e3e 7e37 96bd a1a3 5d3d 0a0b 9f3e
00000020: 2bfb 5b3d 9a35 a83d e647 b83d fbd6 a4bd
00000030: 37e0 95bc 5c71 373e f6af 87be 5612 133e
00000040: 9331 a13d f5e8 02be 1ed4 b1bd 8f71 18be
00000050: 49b7 9fbd 321d 34be 55f6 983e c75c 44be
00000060: 4d13 16bc b056 65be 9f35 3c3e 55fe 96bd
00000070: a89f 67be 4b73 8dbd 93ee 2bbe 4b2c cebd
00000080: 1005 093e 0875 493e dd8d 213e 3c42 613e
00000090: cf05 24bc bc1c 7cbc 7366 90bd 9d4f 8f3e
000000a0: 287f 0e3e 2bf4 babe e6cb d93c d3a3 ff3c
000000b0: 2230 9cbe 8bf9 ab3d ce47 7cbd 4b1e ae3c
000000c0: 5996 5e3e b1c4 963e cd6a b0bd 478a ca3c
000000d0: fea8 bd3c 42ba a9be 9b9b 663e eb4d 5f3d
000000e0: 4fd7 c6bc 86ac fcbd 746b d4bd b141 a43e
000000f0: e688 c9be db3b 9cbe f817 b93e 54bd 0fbd
00000100: ba97 e2bd 20e5 423e 434b c83b 78a8 ebbc
00000110: bb4e 33bd 6d57 22bd 2292 123e 6c60 f4bc
00000120: b7b0 99ba 82ac 59be 1490 99bd 1837 d2bd
00000130: 91cd 66bd 1bc6 8bbd bd7c 59be c42f 373d
00000140: a5e6 f33c 9276 c0bd 7d05 49be 3f64 b13c
00000150: 9ac7 423e f618 983d ee5b 6bbe daae 463d
00000160: 8e32 3b3e 4358 803e 63f8 71bd 9291 0dbe
00000170: cfc8 8e3b dec4 19be 035c 2abe 1f8e 973e
00000180: 67de 353c fbe0 f8bd 5d22 ce3d d287 92bd
00000190: dc69 8a3c 3f8a ee3c 2d32 aabc 3b09 5bbe
000001a0: 662c 433e f2b4 e0bd c2ef a5bd 7f86 0b3d
000001b0: cfa6 28ba e1e9 c63d 77cc 71be 493d c8bd
000001c0: a582 f8bd 2e69 15bd 2415 143e 2089 e23e
000001d0: dda1 8cbb 798b 29be 6e95 933e 8f6a fb3d
000001e0: 0c0b 503e 421a 753e bd0b 133d b8a9 f4bc
000001f0: 58f3 623d 74a2 923d 8097 a33c e46e d53c
00000200: 930e ac3d 57d8 87be 6efd f73e 1ded 9e3b
00000210: a41b 87bd 1441 babb b376 dcbd e63e 9abd
00000220: 9988 173e 1d6f 013e 1d95 df3d df51 2fbd
00000230: f019 c2bd 0421 f53d c7f8 153e 3104 fc3d

const_fold_opt__1488 f4 [96, 1, 1, 1]
0.018805483 0.36993018 -0.15502694 -8.792637e-05 -0.22204164 -0.39444506 -0.16028601 0.086227894
-0.3126295 -0.24731715 -0.21562597 0.36791244 0.34800026 0.20333338 -0.017286576 -0.22671963
-0.22883636 0.21718949 0.18781176 0.0666464 -0.24121153 -0.16126227 0.05908328 -0.29916015
0.21098246 -0.19143435 0.04099471 -0.04984124 0.122258365 -0.23894016 -0.20745425 -0.24276881
0.13409606 0.04632976 0.16197185 0.10333189 -0.061861977 -0.02407385 0.03535049 -0.05240664
0.06979246 0.026305594 -0.032316707 0.032373026 -0.075512215 -0.03597303 -0.09604151 -0.18688047
-0.017606089 0.009749791 -0.0024212822 -0.06627068 -0.3517552 0.026976947 -0.16187674 -0.095976114
-0.019990591 -0.010375375 -0.05720229 -0.20516749 -0.0019227909 -0.027208636 0.0004205611 0.09153268
-0.16041079 0.053038675 -0.03486803 -0.009916015 0.087310374 0.06894613 -0.024950769 -0.048177954
0.15637745 -0.026758393 -0.11463098 -0.13401629 0.23848115 -0.05700632 0.14896104 -0.04876208
0.050733685 -0.030581616 -0.018170342 0.0012931305 0.07268369 0.005228253 0.04313285 0.24032994
-0.110548474 -0.03651142 -0.13276763 -0.09695131 0.0013076307 -0.0028700687 -0.0100322915 0.0057780803
00000000: f50d 9a3c 7d67 bd3e 62bf 1ebe 1c65 b8b8
00000010: e25e 63be b4f4 c9be 0422 24be 4098 b03d
00000020: f910 a0be b540 7dbe 0ecd 5cbe 055f bc3e
00000030: 172d b23e a036 503e 949c 8dbc 3129 68be
00000040: 1454 6abe ec66 5e3e ba51 403e e87d 883d
00000050: 2800 77be f021 25be 4f01 723d 852b 99be
00000060: c90b 583e 5e07 44be 12ea 273d 5426 4cbd
00000070: 9862 fa3d bbac 74be e36e 54be 6398 78be
00000080: 7a50 093e 46c4 3d3d f3db 253e ac9f d33d
00000090: fc62 7dbd 8636 c5bc adcb 103d 58a8 56bd
000000a0: 59ef 8e3d d47e d73c 865e 04bd 9499 043d
000000b0: 26a6 9abd 7558 13bd 69b1 c4bd 985d 3fbe
000000c0: a53a 90bc 96bd 1f3c 60ae 1ebb ecb8 87bd
000000d0: 4219 b4be c2fe dc3c 04c3 25be 208f c4bd
000000e0: 4fc3 a3bc 7afd 29bc f34c 6abd 6d17 52be
000000f0: 2806 fcba a5e4 debc c17e dc39 7c75 bb3d
00000100: ba42 24be 153f 593d c8d1 0ebd c876 22bc
00000110: c8cf b23d a133 8d3d 8e65 ccbc 3f56 45bd
00000120: 6921 203e 6b34 dbbc a6c3 eabd 913b 09be
00000130: 6734 743e 767f 69bd 3e89 183e bfba 47bd
00000140: 20ce 4f3d 4c86 fabc f8d9 94bc 427e a93a
00000150: 30db 943d c451 ab3b 12ac 303d 0d19 763e
00000160: 3d67 e2bd 008d 15bd 3df4 07be 698e c6bd
00000170: ce64 ab3a c317 3cbb 7b5e 24bc 0d56 bd3b

const_fold_opt__1487 f4 [64, 1, 1, 1]
0.3091446 0.27902308 0.05671728 0.17770493 0.18948728 -0.30785456 -0.3599264 -0.02743306
-0.23755816 0.122466564 0.3263717 -0.046966266 -0.26429427 0.2473104 -0.10507803 0.021380188
0.13420048 0.15365781 0.2568297 0.12555343 0.27225345 0.17695406 -0.3847966 0.16510114
-0.11574659 0.15476811 0.20990746 -0.51346016 0.025534758 -0.16207248 -0.17654228 0.41558364
0.04180215 -0.14657727 -0.015695896 -0.20044397 -0.019278105 0.34652936 0.22620712 -0.103043035
-0.09699878 0.16969019 -0.030366322 -0.03460459 -0.038182486 -0.0996099 -0.003862908 0.18023643
-0.015378723 0.22038692 -0.2564967 -0.30610576 -0.20738515 -0.096469805 0.04843957 0.22914965
-0.19490422 -0.13272612 0.19859262 0.14026001 0.32963547 -0.2744509 0.011602031 0.21603124
00000000: 3348 9e3e 1ddc 8e3e 6150 683d 48f8 353e
00000010: f408 423e 1d9f 9dbe 4648 b8be 4cbb e0bc
00000020: 7242 73be c0cf fa3d 311a a73e b35f 40bd
00000030: 9451 87be f03e 7d3e 2633 d7bd 8125 af3c
00000040: da6b 093e 7958 1d3e 2f7f 833e 1491 003e
00000050: ce64 8b3e 7233 353e 0f04 c5be 4610 293e
00000060: 8c0c edbd 887b 1e3e fbf1 563e 2072 03bf
00000070: 452e d13c 54f6 25be 80c7 34be 61c7 d43e
00000080: bb38 2b3d 5a18 16be ae94 80bc 2f41 4dbe
00000090: 1eed 9dbc 4c6c b13e d7a2 673e 3a08 d3bd
000000a0: 4ca7 c6bd 44c3 2d3e cbc2 f8bc 8bbd 0dbd
000000b0: 3d65 1cbd 4600 ccbd d828 7dbb e68f 383e
000000c0: 0af7 7bbc 1cad 613e 8953 83be e5b9 9cbe
000000d0: c65c 54be f691 c5bd 9268 463d 35a6 6a3e
000000e0: f994 47be 5be9 07be dd5b 4b3e 52a0 0f3e
000000f0: fbc5 a83e d484 8cbe 7216 3e3c 4b37 5d3e

const_fold_opt__1481 f4 [128, 1, 1, 1]
0.035432294 0.2173003 -0.31862912 0.13050315 0.076460436 -0.115751214 -0.014856501 -0.27451116
-0.09276863 -0.12425915 -0.21659273 -0.06109522 0.014559832 0.10429833 -0.16435008 -0.24010196
-0.28638357 0.23803976 0.32434577 0.055637497 -0.22431482 0.12719621 -0.1394089 0.27244058
0.09011861 0.16455677 -0.082736656 0.011913302 0.13936661 -0.15958974 0.14854825 -0.13254617
-0.15097976 -0.010439813 -0.027396435 -0.207831 -0.03736454 -0.11145445 -0.09703791 0.08649144
-0.16176942 0.32337457 -0.21517064 0.10766725 -0.023007376 0.24396221 0.053342823 -0.16034213
-0.27460414 0.1094153 -0.06259704 0.2988974 0.009730941 0.17028952 0.10162674 0.21487077
-0.078095965 -0.042107746 0.26115507 0.20614953 -0.13513254 0.23940463 -0.06366696 -0.17813084
-0.0060360245 -0.112587325 0.07129741 -0.02272802 0.10204698 -0.061704084 0.015469307 0.073607504
0.04346974 0.013415703 0.09349289 0.02523325 -0.06972044 -0.12135569 -0.013305391 -0.11621599
-0.15464221 0.08375716 -0.22330946 0.029468207 0.05021646 -0.09070245 -0.08899236 -0.07174927
-0.073842436 -0.017449299 0.071449764 0.12355493 -0.09439083 0.10012522 0.052407075 -0.06256213
-0.02244806 0.19608554 -0.009285276 -0.10970511 -0.17185849 -0.0019797774 0.1209236 0.007374201
0.25902572 0.06288604 -0.05340539 -0.2008104 0.040630005 -0.029391913 0.13338849 0.057796277
-0.09723859 0.0018431135 -0.03429956 -0.17347404 -0.13025577 0.1363842 0.088098176 -0.1106862
-0.048497055 -0.042923108 0.025442496 -0.107210696 0.1264192 -0.15859169 0.052242253 -0.003638929
00000000: 7421 113d f883 5e3e 5b23 a3be 9ea2 053e
00000010: 4a97 9c3d f90e edbd ae68 73bc ba8c 8cbe
00000020: 7bfd bdbd 957b febd 7cca 5dbe fb3e 7abd
00000030: 5d8c 6e3c 5d9a d53d 634b 28be 4add 75be
00000040: dea0 92be b2c0 733e a610 a63e 25e4 633d
00000050: c9b2 65be b93f 023e 35c1 0ebe 557d 8b3e
00000060: 1b90 b83d 9281 283e d671 a9bd 0330 433c
00000070: 1fb6 0e3e 7e6b 23be 081d 183e 2fba 07be
00000080: 709a 1abe c00b 2bbc 7d6e e0bc a6d1 54be
00000090: 8f0b 19bd 3b42 e4bd d0bb c6bd 6d22 b13d
000000a0: e2a6 25be 5a91 a53e b155 5cbe a680 dc3d
000000b0: f779 bcbc 3bd1 793e 017e 5a3d ba30 24be
000000c0: ea98 8cbe 2115 e03d e032 80bd 1409 993e
000000d0: 866e 1f3c 6060 2e3e ae21 d03d 1507 5c3e
000000e0: c7f0 9fbd 2c79 2cbd 1eb6 853e dd18 533e
000000f0: 2f60 0abe 7d26 753e d363 82bd ee67 36be
00000100: d8c9 c5bb 2f94 e6bd 6004 923d 1d30 babc
00000110: 02fe d03d 6cbd 7cbd fa72 7d3c 88bf 963d
00000120: 530d 323d 89cd 5b3c 3379 bf3d f6b5 ce3c
00000130: 97c9 8ebd 5589 f8bd dbfe 59bc a602 eebd
00000140: 875a 1ebe e088 ab3d 3cab 64be 4f67 f13c
00000150: c6af 4d3d 35c2 b9bd a041 b6bd 48f1 92bd
00000160: b43a 97bd d5f1 8ebc 4154 923d 5e0a fd3d
00000170: fb4f c1bd 740e cd3d cda8 563d 9320 80bd
00000180: fee4 b7bc a6ca 483e 4521 18bc 13ad e0bd
00000190: acfb 2fbe 27bf 01bb cba6 f73d 48a3 f13b
000001a0: 059f 843e 65ca 803d 9cbf 5abd 3ea1 4dbe
000001b0: a66b 263d 4fc7 f0bc fe96 083e cabb 6c3d
000001c0: 0725 c7bd a094 f13a b27d 0cbd 2ea3 31be
000001d0: c561 05be 4da8 0b3e d16c b43d 72af e2bd
000001e0: d9a4 46bd 24d0 2fbd c86c d03c 4891 dbbd
000001f0: 0974 013e dc65 22be f9fb 553d 197b 6ebb

const_fold_opt__1480 f4 [64, 1, 1, 1]
-0.17759457 0.19494855 -0.00016879769 0.31001845 -0.072870634 -0.2841513 0.02125303 -0.028650874
0.3551751 -0.28369844 -0.068732016 -0.111601494 0.033970125 0.08669982 0.05925828 -0.23167159
-0.1271305 0.27673417 0.16632105 0.37097222 -0.15671863 0.32778507 -0.18292972 -0.093867525
0.015895871 -0.2474889 -0.1956531 -0.058577955 -0.07744733 0.14407946 0.048099976 -0.05574042
0.022240568 -0.16640446 -0.30996415 -0.29522187 0.18667562 0.19928223 -0.09312834 0.21137567
-0.19835202 0.14506236 0.29754186 0.19424188 -0.1290725 -0.31929636 0.08597809 0.19305575
-0.1834749 -0.058545526 -0.32365704 0.30175385 0.13862872 0.24551412 -0.010589385 -0.30304018
0.15841784 -0.2692298 0.25117666 0.35385686 -0.18317182 0.35982308 0.17835689 -0.34485167
00000000: 5adb 35be 98a0 473e 49ff 30b9 bdba 9e3e
00000010: 333d 95bd 477c 91be d61a ae3c 3db5 eabc
00000020: 83d9 b53e ec40 91be 5fc3 8cbd 538f e4bd
00000030: 4224 0b3d ad8f b13d cfb8 723d 513b 6dbe
00000040: 7f2e 02be 1ab0 8d3e 1150 2a3e 12f0 bd3e
00000050: d97a 20be 72d3 a73e ee51 3bbe 9e3d c0bd
00000060: 0f38 823c bb6d 7dbe 4959 48be 70ef 6fbd
00000070: b59c 9ebd 9189 133e 7b04 453d 1150 64bd
00000080: da31 b63c ee65 2abe 9fb3 9ebe 5227 97be
00000090: e527 3f3e a410 4c3e 12ba bebd dd72 583e
000000a0: cb1c 4bbe 3a8b 143e 6857 983e 58e7 463e
000000b0: 952b 04be d07a a3be 4815 b03d 68b0 453e
000000c0: d8e0 3bbe 6fcd 6fbd 60b6 a5be 7b7f 9a3e
000000d0: b0f4 0d3e 0e68 7b3e 1a7f 2dbc 1528 9bbe
000000e0: 4938 223e 7dd8 89be 3a9a 803e ba2c b53e
000000f0: 6591 3bbe bb3a b83e 30a3 363e 6690 b0be
