best_epoch_weights.onnx (onnx, 676615 bytes, 182 tensors)

scales__616 f4 [4]
000000 00 00 80 3f 00 00 80 3f 00 00 00 40 00 00 00 40
       1.0 1.0 2.0 2.0

model/yolo_head_P5/separable_conv2d/ReadVariableOp_1:0 f4 [24, 64, 1, 1]
000000 34 97 5b bd 78 69 c7 bd fb 03 df 3c c8 88 3c 3e
       -0.053610995 -0.097369134 0.027223578 0.18411553
000010 d3 07 58 3e ab 70 15 3e 43 96 92 3d 91 ed 4f 3d
       0.21096735 0.1459376 0.071575664 0.05076367
000020 1b aa f8 3d 3b d4 07 3d 85 1b 19 be 2a 89 35 be
       0.1214182 0.033161383 -0.14951904 -0.17728105
000030 6b 34 85 3e 3a 0b 35 3e 8b 01 56 be 23 fc 14 bc
       0.26016554 0.17680064 -0.20899026 -0.009093317
000040 c2 4c 83 be 4f 4f 03 3c b5 a1 ca 3e 20 ab 70 be
       -0.256445 0.008014514 0.39576498 -0.23502779
000050 16 75 7f be 9d b4 bc 3c 76 de cf bd 0a 65 2f be
       -0.24947008 0.023035342 -0.10149853 -0.17128387
000060 29 4b 1d be c6 75 7e 3e cd 96 5e be 3f 08 26 be
       -0.15360703 0.24849615 -0.21737213 -0.16214083
000070 a6 cd f5 bd 1e eb 7c 3c ba 27 94 3e 0b f2 2f 3e
       -0.12002115 0.015436916 0.2893656 0.17182176
000080 f0 7c 7c be f5 8a d6 bd ea 46 59 3e a4 8c bd 3d
       -0.24657035 -0.10475723 0.21218458 0.09255341
000090 ce e7 20 3e 79 b2 19 3e f6 96 84 3e 14 fa 53 be
       0.15713426 0.15009488 0.25896424 -0.20700866
0000a0 be 84 11 3e 83 02 c3 3e ed bb 66 be 43 51 38 3e
       0.14210793 0.38087854 -0.22532625 0.17999749
0000b0 55 56 36 be 26 47 78 3c 74 84 c6 be 92 26 52 be
       -0.1780637 0.015153682 -0.3877293 -0.20522526
0000c0 f7 7f 8f 3e 19 7a 28 3c 7c 16 a0 bd 7d 58 13 bb
       0.28027317 0.010283017 -0.078167886 -0.0022483163
0000d0 ad 50 9c 3c fc 32 a4 3e 65 b8 82 be f0 11 6b 3e
       0.019081438 0.32070148 -0.25531307 0.22956061
0000e0 26 21 cc 3c c9 b2 c8 bd 54 bf dd 3d fe 35 ac 3d
       0.02491815 -0.097997256 0.108275086 0.08408736
0000f0 72 e0 9d 3e fa 24 7a be 8a 79 ef 3d fc fc 05 3e
       0.308353 -0.24428168 0.116931036 0.13084787
000100 29 c8 84 bd 43 32 17 be 96 c4 4f 3e 9c 61 69 bd
       -0.0648349 -0.14765267 0.20289835 -0.056977853
000110 ab b2 85 3d 5b 3f 91 3e 25 9c ea bd ca 12 3a 3e
       0.06528219 0.2836865 -0.114555635 0.1817123
000120 ec a9 57 3e 8c 08 14 3d 4f c3 49 3e a1 94 e7 3a
       0.21060914 0.036140963 0.1970341 0.0017668196
000130 2c 8d d9 3d 0e d4 1c 3e 85 87 d1 3d 2e 75 1c 3e
       0.106226295 0.15315267 0.102309264 0.15279076
000140 56 bf 33 3e 65 24 7e be fa 49 3d 3e 27 5f db 3d
       0.17553458 -0.24818571 0.18485251 0.10711508
000150 35 1f 1d bd cc 51 12 be 03 bb 38 3d a0 7c 31 3e
       -0.03835984 -0.14289016 0.045100223 0.17332697
000160 62 40 9d be bb bb 03 3e 90 e0 4d 3e 54 3e d3 3c
       -0.30713183 0.12864582 0.20105195 0.025786556
000170 4c 1a 85 3e 87 f7 04 be 04 4c f3 3d 78 78 5e 3e
       0.25996625 -0.12985049 0.11879733 0.21725643
000180 75 12 00 be 7d af 01 3e 57 47 da bc 9c 0c c5 be
       -0.12507041 0.126646 -0.026645346 -0.38486183
000190 6e 71 41 be a9 f6 3a 3d ac 7d cd bd 9d f5 39 3e
       -0.18890926 0.04564539 -0.10033736 0.181601
0001a0 1a dc b8 3c f3 d8 3c 3d f1 0b 9a bd fd 21 40 be
       0.02256589 0.046105336 -0.07521809 -0.18762966
0001b0 2f 4c 39 bd 57 99 45 3e a2 47 11 3e 64 13 38 3e
       -0.04523867 0.19296776 0.14187482 0.17976147
0001c0 a0 86 df 3b 03 b2 b1 be 48 af c5 bb 21 51 b2 3d
       0.0068214685 -0.34706125 -0.006032858 0.0870688
0001d0 73 fb 06 be c5 5c 8d be 4d ee 77 be 46 41 66 be
       -0.13181858 -0.2760984 -0.24211998 -0.22485837
0001e0 d1 cb 00 be c0 c7 39 3e f3 38 17 3e cf e6 14 be
       -0.1257775 0.18142605 0.14767818 -0.14541171
0001f0 d5 20 16 3e ee 19 7e 3e fa 89 61 be b7 65 2d bd
       0.14660962 0.24814579 -0.2202529 -0.04233333
000200 a2 3e 89 3e d6 7b c5 bd 5d 9e c6 bd 67 64 13 3c
       0.26805598 -0.096427605 -0.09698174 0.008996106
000210 4f bf 6a be 44 ef 7b be f0 06 58 3d 00 32 04 3d
       -0.22924541 -0.24602991 0.05274099 0.032274246
000220 08 57 a4 bd 42 ef 56 be 17 54 40 3e 50 22 2b 3e
       -0.080244124 -0.20989707 0.18782078 0.16712308
000230 84 b0 65 3e 9c 51 16 bd 05 2b 8b 3d 5b 6c e3 bc
       0.22430617 -0.036698923 0.06795315 -0.027761629
000240 7f 0d 3c bd 1e 9b f6 3d 0e 9c ce 3d 81 7d 19 3e
       -0.04591131 0.12041305 0.10088359 0.14989282
000250 ab 10 2e 3e 92 ef da bd cb c5 30 3e 12 18 7b 3e
       0.16998546 -0.10690226 0.17262952 0.24520901
000260 e0 3c 4f 3d 1d 8e 2c 3e 08 4d 13 3d da 1a 04 3d
       0.050595164 0.16851087 0.035962135 0.03225217
000270 1c 6f a3 3d 7e e9 44 be 41 4f 89 3c 69 9d 30 be
       0.07980177 -0.19229695 0.016761424 -0.17247547
000280 25 5d 6a bc 1a 29 22 bd 11 71 a5 bc 44 a2 b9 3d
       -0.014304434 -0.03958998 -0.020195516 0.09064153
000290 ed aa 60 3e e1 31 8b 3e 4b 95 8e bc 6f ec ae 3c
       0.21940203 0.27186492 -0.017405173 0.021352975
0002a0 8d 55 70 bd 02 da 60 3d 4d 14 41 3d 16 62 ba bd
       -0.058675338 0.05489541 0.0471385 -0.0910074
0002b0 86 e8 8c 3e 67 22 cf bd c0 36 5f 3d da ec 33 3e
       0.2752115 -0.101139836 0.054495573 0.1757082
0002c0 bd 1a 8e 3e 40 6d 9a 3c b5 c3 11 be 46 90 04 be
       0.27754775 0.018850923 -0.14234813 -0.12945661
0002d0 8b b6 51 3e c1 4d ad 3d 20 ca b1 3d 3d a4 58 be
       0.20479791 0.08462096 0.086811304 -0.21156402
0002e0 8b d1 e7 3d 48 04 fe bc 62 e9 d0 bb 16 6e be 3d
       0.11319264 -0.0310079 -0.0063754776 0.09298341
0002f0 3b 86 73 bc 41 5b f3 3d 18 09 cd 3d 69 8f 96 bd
       -0.014863546 0.1188264 0.100115 -0.07351572
000300 b7 f1 6d 3e 28 2c 54 bc 80 3b 81 3d 9e 5d 74 3e
       0.23236738 -0.012949981 0.06310177 0.23863837
000310 12 46 84 3e 5a d7 8f bd d7 bd 81 3e 28 f6 89 bd
       0.2583471 -0.07023497 0.2534015 -0.06736404
000320 24 5a d9 bd 52 35 2c bd a7 b8 fa bd 9a 33 83 3d
       -0.10612896 -0.042043038 -0.12242251 0.064063266
000330 d8 13 d7 3e 7d bf 45 be 4b 9d 4b be 2b 7d 29 3c
       0.42007327 -0.19311328 -0.19884221 0.010344784
000340 47 25 7e bd 5d 9b 37 be e1 0d 47 3e 60 99 31 be
       -0.06204727 -0.1793036 0.19438888 -0.17343664
000350 cf 0b 80 bd dc 6c 38 be 4d cb 13 3e 4e 92 3a 3e
       -0.06252252 -0.18010277 0.14433022 0.18219873
000360 7f f4 2c 3e 5d cb e0 3e 9c 4c 68 3c 89 4d 9e 3c
       0.16890143 0.43905154 0.014178421 0.019324081
000370 b5 9b 4a be a1 d9 4a 3e fd e1 d0 3c 5f 43 4f 3e
       -0.1978596 0.19809581 0.025498385 0.20240544
000380 0a 96 3a be 7c d4 f7 bd 1a c0 fc bc 05 74 63 be
       -0.18221298 -0.12101075 -0.03085332 -0.22212227
000390 ef fc 40 bd 9b 3d 44 3d 4b 44 c0 3d fe 73 bb bd
       -0.047116216 0.047910314 0.09388026 -0.09152983
0003a0 cd 92 04 be 92 23 10 3c d8 cf 3b bc cf f2 69 3d
       -0.12946625 0.008797543 -0.011463128 0.057116326
0003b0 fd 69 9f 3e 58 31 26 be 80 3a 3c 3d 52 a1 26 3d
       0.3113555 -0.1622976 0.045954227 0.04068119
0003c0 e8 f9 b0 3c 7d c8 ac bd ad ed 5d 3d ee e8 8e 3d
       0.02160354 -0.084366776 0.054181743 0.069780216
0003d0 0e d7 4d bd c3 bc 2b 3e e7 2b fa 3d e9 ca 69 be
       -0.05025392 0.16771226 0.12215405 -0.2283131
0003e0 b8 f4 c9 3c 5f 0e c2 3d 6d 71 32 bc 74 8d 70 3e
       0.024652824 0.09475397 -0.010891301 0.2349146
0003f0 fe 3e fb 3b 0c ae dd 3c 8c a4 39 be 38 2f 22 3d
       0.0076674214 0.027060531 -0.18129176 0.039595813

model/yolo_head_P5/BiasAdd/ReadVariableOp:0 f4 [24]
000000 c3 f9 16 3d 0d 99 e4 bc 1f df c2 be 3f a3 19 be
       0.036859285 -0.027905012 -0.38060853 -0.1500368
000010 22 cc ad c0 49 b8 51 be ab ff 8d be 67 8b 33 bf
       -5.4311686 -0.20480455 -0.27734122 -0.70134586
000020 9b 57 3e 3d 0f a9 25 3d 8e a9 e5 be e8 e5 df be
       0.046470266 0.04044443 -0.44855922 -0.43730092
000030 f5 17 b0 c0 c6 a4 c4 3e dc 24 04 bf 7d 73 4e bf
       -5.5029244 0.38406962 -0.5161874 -0.8064497
000040 40 de d1 bb 27 c1 c1 bc 1d e2 63 bf f6 00 1d bf
       -0.006404668 -0.023651673 -0.89016896 -0.6132959
000050 4b 46 b4 c0 79 d7 c8 3e 14 91 f2 be 0e 30 13 bf
       -5.6335807 0.39226893 -0.4737631 -0.574952

model/yolo_head_P4/separable_conv2d/ReadVariableOp_1:0 f4 [24, 64, 1, 1]
000000 74 45 27 be 90 81 8e bd b3 49 38 3e 19 fc 1b bc
       -0.16335088 -0.06958306 0.17996864 -0.009520554
000010 44 50 77 be 7e 39 67 be 25 cb fc bd 3a 66 9d ba
       -0.24151713 -0.22580525 -0.12343434 -0.0012008615
000020 f5 d3 ce bd 65 d6 35 bd db fe 1d bd 26 74 32 3e
       -0.10099021 -0.044393916 -0.038573127 0.1742712
000030 c6 03 00 3e d5 ab 2d 3e 1a 34 0c be 35 78 0e 3e
       0.1250144 0.1696008 -0.1369175 0.13913043
000040 e4 54 0b be 5f b5 45 3d 96 b7 6a 3e ce eb 45 bd
       -0.13606602 0.048268672 0.22921595 -0.048320584
000050 a4 34 83 be 92 aa 53 3e 40 a6 e1 bc 21 db 48 3e
       -0.256261 0.20670536 -0.027545094 0.19614841
000060 05 aa 70 bd e5 a9 ec be c9 6f 9b bd ac 4e 1b 3e
       -0.058755893 -0.4622337 -0.07589681 0.1516673
000070 63 14 71 3e cf 16 65 bc b3 2d 51 be 2d 4d 43 3e
       0.23542933 -0.013982489 -0.20427589 0.19072409
000080 f1 69 51 3e 24 87 44 bd a6 58 84 3e 04 49 84 3d
       0.2045057 -0.047980443 0.25848883 0.06459239
000090 a2 44 a9 3d 77 3c db 3c 05 f0 12 be d9 37 cf bd
       0.08265044 0.02676223 -0.14349373 -0.10118074
0000a0 b8 e2 58 bd 3d d4 2d 3e 35 37 e5 3d 6c 24 be bc
       -0.05295059 0.16975494 0.111921705 -0.023210727
0000b0 42 2e 0a be db 45 d2 bd 65 8b 42 3e 79 75 e4 3d
       -0.13494208 -0.1026723 0.18998487 0.11155219
0000c0 40 97 50 bd 7a 26 52 be a5 3c 29 bd 4a 4f 30 3e
       -0.050925493 -0.2052249 -0.0413176 0.17217746
0000d0 a0 af 34 be 5d f2 06 3e ea 09 ff 3d 9d e7 3b be
       -0.1764512 0.13178392 0.12453063 -0.18350072
0000e0 c2 ea bf 3c a3 a5 e6 be ac 21 24 be 71 cf 2b 3e
       0.023427371 -0.45048246 -0.1602847 0.16778351
0000f0 24 1a 14 be d4 4e dd bc 30 c5 a6 3b 26 00 85 3e
       -0.14463097 -0.027015127 0.0050894246 0.25976676
000100 43 fd fb bb 75 92 32 3d ad 5b a0 bd ca a1 f9 3d
       -0.0076901033 0.043596704 -0.07829986 0.12189062
000110 4b bb 52 3d c9 1b 91 bd 19 63 e0 3d c7 b4 76 bc
       0.051448148 -0.07085378 0.109564014 -0.015057749
000120 d7 a6 88 be bb 6f 0e be 32 da f5 bd 2a 1e b5 bc
       -0.2668979 -0.1390981 -0.12004508 -0.02210911
000130 a0 77 17 3e c5 fb e2 be 57 30 20 bd ec 3d 76 be
       0.14791727 -0.4433271 -0.0391086 -0.24047059
000140 08 49 0e bd df fc d1 be 38 67 50 3e 80 d7 73 3d
       -0.034737617 -0.41013238 0.20351875 0.05953169
000150 9f b4 89 3d a2 c0 2d be d0 ef bc be 97 2b ff 3d
       0.06723904 -0.16968015 -0.36901712 0.12459486
000160 02 40 32 3e b9 c9 41 bd 1d 58 a5 3d 29 cf a9 3d
       0.1740723 -0.04731152 0.08073447 0.08291466
000170 56 99 e3 bd 60 4f f5 bd 4f e0 ef 3d c0 45 2c bd
       -0.11113231 -0.1197803 0.11712705 -0.042058706
000180 55 b1 10 be 21 8a ec bd e6 14 70 3e b2 bc db 3d
       -0.14130147 -0.115497835 0.23445472 0.1072935
000190 e9 84 31 3e 90 6b 91 bd 65 2b 2a be 56 7d b0 bb
       0.17335857 -0.07100594 -0.16618116 -0.005386035
0001a0 18 d9 66 3e 79 8c 80 be 26 18 1a 3c 31 22 26 be
       0.22543752 -0.25107172 0.0094051715 -0.1622398
0001b0 90 5b 9f bd b2 4a 89 3e 85 4a 9c 3d f1 2b 3d 3e
       -0.07781136 0.268148 0.07631401 0.18473794
0001c0 3c dd b5 bb f8 8f ce 3e 0e 64 1f 3e f5 af fe 3d
       -0.005550055 0.40344214 0.15565512 0.12435905
0001d0 02 11 16 bd 98 5d 52 3e 60 95 ef bd d3 3d 8f 3d
       -0.036637314 0.20543516 -0.11698413 0.06994214
0001e0 3b 23 1e 3e db da c5 3c ea 07 9a bd 83 11 72 be
       0.15443127 0.02415221 -0.07521041 -0.23639493
0001f0 c3 c1 33 3d 57 ad aa 3c 05 2c 4a be 08 9f 7a 3d
       0.043885957 0.020834608 -0.19743355 0.06118682
000200 fb 97 b4 be 10 a1 ec 3d 63 9b 8f 3d 05 b3 e5 3c
       -0.35272202 0.11554158 0.070120595 0.028039465
000210 09 0c a9 be 7f 56 29 be 59 6d 13 3e b3 22 63 bd
       -0.33016995 -0.16536902 0.14397182 -0.055453014
000220 4a 81 a7 3d 36 cb 04 3e 44 c3 5e 3d a2 10 83 3e
       0.08178957 0.12968144 0.05438544 0.25598627
000230 ba 10 ee 3a 13 79 9f bc 46 b0 b0 3c a1 91 9f bd
       0.0018162944 -0.019466912 0.021568429 -0.077914484
000240 e7 96 7a bd a4 95 31 bd 98 0a bb 3c ab 74 a6 bd
       -0.061179068 -0.0433556 0.0228322 -0.081277214
000250 f3 48 ad bc 32 a6 cb 3d 86 81 06 be 76 d7 90 3d
       -0.021152949 0.099438086 -0.13135347 0.07072346
000260 5d d2 d8 bd 51 82 c3 3c 7e fd 91 3d bf 8e 4d 3d
       -0.105869986 0.02386585 0.07128428 0.05018496
000270 02 9d c3 bd 8e 88 3f bd 79 ae 77 be ba 37 82 3a
       -0.09551431 -0.046761088 -0.2418765 0.0009934821
000280 84 0b 0e 3c 8d 21 17 3e d4 21 af bd 49 d2 f1 bc
       0.008669738 0.14758892 -0.08551374 -0.029519217
000290 f3 8b 0b be fa 47 a7 bd 40 10 0a be 66 82 70 be
       -0.13627605 -0.08168025 -0.13482761 -0.23487243
0002a0 4b 00 53 3e 94 5c 2f be 05 f0 8e 3d a7 e6 8c 3e
       0.2060558 -0.1712516 0.06979374 0.27519724
0002b0 60 df 0c be e7 62 33 be 01 2c 77 bd 14 a6 20 3e
       -0.13757086 -0.17518197 -0.0603447 0.15688354
0002c0 42 e5 38 3c 97 ac bf bd 9a c6 1c 3e 57 82 52 3e
       0.011285128 -0.09359091 0.15310135 0.20557533
0002d0 eb 97 69 3e 04 10 f0 bc 39 cb d9 bd 7e b3 23 3e
       0.22811858 -0.029304512 -0.10634465 0.1598644
0002e0 6c 32 ee 3c 2c 16 f4 3b 74 1e 06 3e 78 29 e0 3d
       0.029076777 0.007448932 0.13097554 0.109454095
0002f0 c6 3d 80 3e d3 ac 1c 3f eb ac 31 3e 17 18 e5 bd
       0.2504713 0.6120121 0.17351119 -0.111862354
000300 50 c3 92 bd 42 75 21 bd 3b 0e c2 3c a1 53 83 3d
       -0.07166159 -0.039418466 0.023688426 0.06412435
000310 a4 3e d8 bd c7 4e 18 bd 57 a8 b0 3d f1 81 3e 3d
       -0.10558823 -0.037184503 0.08625858 0.04651064
000320 a8 2a 13 3d 59 10 17 3e b7 04 79 3e bb 32 7d bd
       0.035929352 0.1475233 0.24318205 -0.06181596
000330 c9 01 b8 bc b6 3d 75 3d e7 c2 ea 3d 04 bf 54 bc
       -0.022461789 0.059873305 0.11462956 -0.012984995
000340 0c 7d d3 bd 42 d7 e9 bc 2d c0 66 3e 1e 56 1d 3d
       -0.10326585 -0.028545026 0.22534247 0.038412206
000350 06 1e fa 3d 16 89 1e be f8 a7 6f 3c b7 78 04 bd
       0.12212758 -0.15481982 0.014627449 -0.032341685
000360 f5 0d fb 3d fd c7 49 3b f5 6d c6 bc a8 21 cd bd
       0.122585215 0.0030789368 -0.024222353 -0.10016185
000370 ed fd 96 3d 17 89 73 be f8 7a 41 be e9 17 d1 be
       0.07372651 -0.23782764 -0.18894565 -0.40838555
000380 71 6b 63 3e 19 19 4c be 80 d6 81 3d e1 a4 06 bc
       0.22208954 -0.19931449 0.06339741 -0.008218021
000390 f9 3a 4d be 7a 4f fc 3d ec 31 2b be 62 c6 c5 be
       -0.20042028 0.123198465 -0.16718262 -0.38627917
0003a0 b3 4f a5 bd 97 4f 1a 3d ff ce 2d 3c 4a 63 21 be
       -0.08071842 0.03767356 0.010608434 -0.15760532
0003b0 f2 5c 70 bd 63 3f 02 3d 1b b0 63 bc d0 c6 33 3e
       -0.05868239 0.03179873 -0.013896967 0.1755631
0003c0 6b ee e1 bb 03 86 f7 bc 96 ba 4b 3d de 42 12 3e
       -0.0068948767 -0.030215269 0.04973849 0.1428332
0003d0 d7 54 6c be 95 1c 99 3d 6d de 98 bb b0 c8 ca bd
       -0.23079239 0.07476155 -0.004665187 -0.09901559
0003e0 7a 6f 23 3c a5 f6 ed 3c 72 8b 27 3e 83 aa 5b 3e
       0.009975309 0.029048273 0.16361788 0.21451764
0003f0 88 33 e2 bc 48 8f b1 bc c7 6e dc bd 82 0d 56 3e
       -0.027612463 -0.021674767 -0.107633166 0.2090359

model/yolo_head_P4/BiasAdd/ReadVariableOp:0 f4 [24]
000000 54 ff b2 bd 07 69 f3 bd 5a a7 3c 3e 78 58 f1 be
       -0.08740106 -0.11885267 0.18423215 -0.4713781
000010 bd c6 3f c0 21 3d 46 be 1a 2f e0 bd d1 ae 91 be
       -2.996505 -0.19359256 -0.10946484 -0.28453687
000020 c6 ba 1c bc e7 dc 44 3d ea 32 a9 be 88 2a a8 be
       -0.009566015 0.04806223 -0.33046657 -0.3284495
000030 e5 9d 3c c0 26 ee 33 be 21 72 e7 bc 15 b9 5e be
       -2.947137 -0.17571315 -0.028252663 -0.2175029
000040 e6 c5 3e 3d 44 7d 1b bd 95 1c 67 be 57 e9 07 bf
       0.04657545 -0.03796126 -0.22569497 -0.53090423
000050 41 4a 48 c0 63 7c f1 3d 74 6d 0d be c8 ac bc be
       -3.129532 0.11791303 -0.13811284 -0.36850572

model/yolo_head_P3/separable_conv2d/ReadVariableOp_1:0 f4 [24, 64, 1, 1]
000000 e5 69 99 be 69 62 65 be 2c 06 08 bc e5 7c 40 be
       -0.29963604 -0.22400822 -0.008302253 -0.18797643
000010 e5 73 b8 bd 38 8b 81 be 7c eb 6a bd e0 7f 5c 3e
       -0.0900648 -0.25301528 -0.05735348 0.21533155
000020 7d 67 00 3e 15 e2 aa bc 34 a7 21 3e 00 7d e7 bd
       0.12539478 -0.020859757 0.15786439 -0.11303139
000030 38 10 8c be ae e1 2c be a4 53 ea bc ab 37 4c 3e
       -0.27356124 -0.16882965 -0.028604336 0.1994311
000040 a5 81 f9 3d 84 04 3e be 3f 98 90 be e9 b2 a0 ba
       0.12182931 -0.1855641 -0.28241155 -0.0012260351
000050 f8 ae 53 3e 8e 74 3e 3e 9f 50 b8 bc c4 24 44 3e
       0.20672214 0.1859915 -0.02249938 0.1915465
000060 f0 97 32 bd 05 a6 4a bd ae 72 84 be d7 0a 82 be
       -0.04360193 -0.049474735 -0.25868744 -0.25398895
000070 67 ab 56 be bc 9a cb 3c d5 88 41 3e 8c 38 4c be
       -0.20963822 0.024854057 0.18899854 -0.19943446
000080 42 5e e3 3d 98 fe 1d be 40 6f 83 3e 37 e9 81 3c
       0.111019626 -0.15429151 0.25670815 0.015858276
000090 18 f0 2a be 4e 34 0f be 5a da 67 be 75 d3 43 be
       -0.16693151 -0.13984796 -0.22641888 -0.19123633
0000a0 2d 59 f0 3d b4 4a c9 3d 9c 30 e8 3b d2 fc 33 be
       0.11735759 0.098287016 0.007085873 -0.17576912
0000b0 95 85 e1 bd 79 e8 47 3d e1 3d 00 be d8 53 16 be
       -0.11011807 0.048805688 -0.12523605 -0.14680421
0000c0 83 a0 1b 3e a6 5f 50 be 0a 2e 40 3c b4 eb 16 be
       0.15197949 -0.20348987 0.011729727 -0.14738351
0000d0 5a 04 8b be 13 8b 08 be 4a 0f ad ba f6 9d 45 3e
       -0.27151757 -0.13334303 -0.0013203409 0.19298539
0000e0 1d a4 eb be a2 34 bf bd a7 16 65 3e aa 59 22 bd
       -0.46023646 -0.09336211 0.22371922 -0.03963629
0000f0 ce fd 4a 3e 23 63 41 be 1c cf 9d be 97 0b cd bd
       0.19823381 -0.18885474 -0.30822074 -0.10011976
000100 9f 01 f6 3c b7 86 a1 3d 29 16 1e 3e da 29 a8 3d
       0.03003007 0.07887023 0.15438141 0.082111076
000110 23 55 ab 3b 90 0b 2f 3e d4 0d 26 3d 05 66 41 3e
       0.005228655 0.17094254 0.04054053 0.18886574
000120 1c bb 12 be db 6a 30 be 0c 8e 0e 3b 8e c2 15 3e
       -0.14329189 -0.17228262 0.0021752147 0.14624998
000130 34 b3 bb be be 76 40 3e 46 cc de bd 65 5a 3a 3e
       -0.3666016 0.18795297 -0.10878806 0.18198545
000140 a0 ee a5 3d 4b 24 89 3c b6 14 94 bd a7 44 1c 3e
       0.08102155 0.016740939 -0.07230513 0.15260564
000150 b3 6f 01 be 5c 66 55 3e 18 df 4e 3e 02 68 b8 bd
       -0.12640266 0.20839828 0.20202291 -0.09004213
000160 8e f5 20 3d 8b c3 80 bd 6b a7 fd bc 1f 8c 18 3e
       0.03929668 -0.06287297 -0.03096362 0.14897202
000170 ee 8a 03 be 00 a3 30 be 90 7f 05 be 8c 0f 84 3e
       -0.12845966 -0.1724968 -0.13036942 0.2579311
000180 aa 35 62 3d 48 8e 80 be a5 48 ad 3d df 72 f0 bd
       0.05522696 -0.25108552 0.084611215 -0.1174066
000190 bc 6e b1 3e 9e 0d ed 3d d7 6c a1 3d 32 24 91 3d
       0.34654796 0.11574863 0.07882088 0.07086982
0001a0 dc 12 5d 3e 0c 79 3b bb 2b e0 26 be f3 84 67 3c
       0.21589226 -0.0028606085 -0.16296451 0.014130819
0001b0 76 0a 9d 3e f7 ac ec 3e c3 ba 90 bd 38 a8 8e 3c
       0.30672044 0.46225712 -0.07066872 0.017414197
0001c0 56 c7 1c be d8 46 81 3d af 6f 50 be a2 be 56 be
       -0.15310416 0.063123405 -0.20355104 -0.20971158
0001d0 14 7b 61 be cc ad 1e be 93 58 ed 3e 27 a5 d1 bd
       -0.22019607 -0.15495986 0.4635664 -0.102365784
0001e0 97 fb a6 bc ff b4 82 bd eb 0d e3 3e e8 1e a1 3d
       -0.02038364 -0.063821785 0.44346556 0.07867223
0001f0 da e8 95 3c f1 c6 ec 3d dd 11 aa bd 1b db 69 bd
       0.018299509 0.115613826 -0.083041884 -0.05709372
000200 d3 ec 77 3e ae 30 bf 3e e3 53 5c bc 90 ed 0c 3e
       0.24211435 0.37341827 -0.0134477345 0.13762498
000210 90 e7 2b 3e c9 73 ee 3d 0c d8 ac bd c7 7b 85 3b
       0.16787553 0.11643178 -0.08439645 0.0040735933
000220 5a ea a7 3d 3d 0c 85 be fc 09 ff 3d 86 29 51 3e
       0.08198996 -0.259859 0.12453076 0.20425996
000230 f5 b1 87 be 8c ae 69 bc 11 ed 64 be 42 9b 32 be
       -0.26502958 -0.014262807 -0.22356059 -0.17442039
000240 ac e1 d0 3e 7e b8 52 3e 62 63 85 3d 2d 37 23 3e
       0.40797174 0.2057819 0.065130964 0.15939017
000250 57 d2 bc bd 93 ec e4 bd 6e 06 1b be cc 2d 4b be
       -0.09219807 -0.111779355 -0.15139171 -0.19841689
000260 41 13 13 3e 71 7d d6 3c b9 19 85 bd 95 1f bd 3b
       0.14362814 0.026182862 -0.06499047 0.005771587
000270 37 cb 86 3e a9 87 c6 3d 02 40 81 3e fe 45 5e be
       0.26326916 0.09693844 0.25244147 -0.21706387
000280 3c 2b 4a 3e ba 9e 83 3d 7f d1 05 3e cf e7 30 be
       0.19743055 0.06426759 0.13068198 -0.17275928
000290 70 6d 08 3e 42 a3 03 3d ba f7 fa 3d d4 2c fb be
       0.13322997 0.032138117 0.12254281 -0.4905764
0002a0 82 51 25 3e 5c 6a 88 bd fe 1a 2e 3e e5 01 43 3e
       0.16144374 -0.066609114 0.17002484 0.19043691
0002b0 ab ac 2c 3e 9e 41 97 bd c2 86 9c bd e2 55 25 bd
       0.16862743 -0.07385562 -0.076428905 -0.040365107
0002c0 6e 51 06 be 71 a0 ca 3e 6a 06 61 be 5d 88 34 be
       -0.13117 0.39575532 -0.21975103 -0.17630143
0002d0 ee 15 23 be 97 fe 4b 3e d5 67 af 39 f9 f9 7f be
       -0.15926334 0.19921337 0.00033455962 -0.24997701
0002e0 dd 9a 4d 3c 98 70 50 3d 13 c8 d1 bd 5a b0 63 bb
       0.012549129 0.050888628 -0.10243239 -0.0034742565
0002f0 72 39 9b bd 04 a9 5c bb be 0f 63 3e 14 62 d1 3d
       -0.07579316 -0.0033670077 0.22173974 0.10223785
000300 ce 8e 81 be 39 06 8b be 04 96 11 be bc ca 5e 3e
       -0.25304264 -0.27153185 -0.14217383 0.21757025
000310 7c e0 cf 3d a5 40 b0 be b4 74 e8 bc bd 84 37 be
       0.10150239 -0.3442432 -0.02837596 -0.1792173
000320 47 3e 02 be 46 69 17 3d be 3c 08 be 18 06 d7 3d
       -0.1271907 0.03696563 -0.13304421 0.10499209
000330 19 ed 5d be b7 29 5d bd e1 aa d6 bd 10 9e 49 be
       -0.21672477 -0.05399486 -0.10481811 -0.19689202
000340 e4 16 b5 3d 1b c9 82 be e4 d8 74 bc 6f bf 3f be
       0.08842257 -0.25544056 -0.014944289 -0.1872537
000350 e2 a8 22 be 7f 04 8c 3e 7d 48 95 3d e9 ec 16 bd
       -0.15884736 0.2734718 0.07289217 -0.03684703
000360 ba aa 92 3e ad b8 81 3e c9 21 ad bc b1 bd b2 3d
       0.2864588 0.2533621 -0.021134274 0.08727587
000370 fd 18 5b 3e cc 94 0b 3e a6 28 50 3e 25 8f 6a 3e
       0.21396251 0.1363098 0.20328006 0.22906168
000380 5a 24 99 bd 50 8a 8b be c6 a0 5f be 9b c5 3b bd
       -0.07477637 -0.27253962 -0.21838674 -0.045842748
000390 4b 3d 26 bc d9 aa a8 bd bb 8d 81 bc 19 54 b8 bd
       -0.010146449 -0.082357116 -0.015814653 -0.09000415
0003a0 d2 f3 65 be 1a ed 70 be 91 82 8d bd 83 15 c3 bd
       -0.22456291 -0.23527947 -0.06909669 -0.095255874
0003b0 96 3f 5e bd 88 a8 12 bd be 3c f5 3d 02 36 97 bd
       -0.05425986 -0.035805255 0.11974476 -0.07383348
0003c0 9a 3e 74 be d0 b9 4a 3e b6 c5 46 3e 6e 84 b7 3d
       -0.23852006 0.19797444 0.19411358 0.08960806
0003d0 f2 4d a1 3d 9a 70 a9 bc 96 cb b7 3d be bf 18 be
       0.07876195 -0.020683575 0.08974378 -0.14916894
0003e0 d7 26 13 3d 30 49 83 be e2 e0 8e bb 2d 0e ce bb
       0.035925712 -0.25641775 -0.004360304 -0.006288311
0003f0 cc b2 42 3e ec 8d bb 3d 26 7d fc bd 16 62 dc bb
       0.19013518 0.09157929 -0.12328558 -0.00672556

model/yolo_head_P3/BiasAdd/ReadVariableOp:0 f4 [24]
000000 43 23 a4 bc fe 7d b8 bc 33 92 83 3e 39 10 9a be
       -0.020036345 -0.022521015 0.2569748 -0.30090502
000010 b9 aa 14 c0 5a 65 b2 be 55 04 1c 3d 42 5e a5 bd
       -2.32292 -0.3484295 0.03809007 -0.08074619
000020 c9 37 a4 bd 4e 8d db 3c e0 2c a6 3e 41 f3 8c be
       -0.08018453 0.026800778 0.32456112 -0.27529338
000030 48 62 20 c0 a2 c0 8c be c8 3c b1 bd b0 4e 50 bd
       -2.5059986 -0.27490717 -0.08654171 -0.050856292
000040 fe 4a f2 bd 96 9e 04 3c 69 68 00 be 67 80 58 be
       -0.1183071 0.00809445 -0.1253983 -0.21142732
000050 fa 1a 21 c0 23 92 68 be cb 20 cd bd 86 1f 74 bd
       -2.5172715 -0.22711997 -0.100160204 -0.059600376

model/separable_conv2d/separable_conv2d/ReadVariableOp_1:0 f4 [12, 3, 1, 1]
000000 3f 92 93 bd cf 04 16 3d d6 46 78 be 3e db a3 be
       -0.072056286 0.03662568 -0.24245772 -0.32003206
000010 f7 69 fd 3e cc 5c 15 3e ec 96 06 bf 04 cb 5b 3e
       0.49494907 0.1458618 -0.5257404 0.21464163
000020 0f ac 12 bf 5e 38 ea be 51 f0 c5 3e da de 7a be
       -0.5729379 -0.4574613 0.3865991 -0.24499074
000030 f5 13 cd be ad f2 11 3e 6a 74 d8 be 80 25 8a 3e
       -0.40054289 0.1425273 -0.42276317 0.26981735
000040 6b d6 5d 3e 56 a0 c5 3e 47 1c c7 3e 50 d5 25 3f
       0.21663825 0.3859889 0.3888876 0.64778614
000050 41 e0 4b be f5 18 5b bf 41 8c ec bc 16 11 16 bf
       -0.19909765 -0.85584956 -0.028875472 -0.5861982
000060 49 8b 8b be 25 52 1f 3f 8c 30 d2 bd dd 9d fa 3e
       -0.27254704 0.6223472 -0.10263166 0.48948565
000070 15 72 ec 3e a6 d0 ca be c8 a0 86 3e 93 f4 43 3f
       0.46180788 -0.3961231 0.2629454 0.76545066
000080 5e b2 cc 3e 77 c9 cf 3e 55 8e 14 3f 12 c7 1a 3f
       0.39979833 0.40583393 0.5802968 0.6046001

model/separable_conv2d/BiasAdd/ReadVariableOp:0 f4 [12]
000000 20 13 0a 3e 4d 5a da 3c cb 4d 1d bd 7f 8c ec 3d
       0.13483858 0.026654387 -0.038404267 0.11550235
000010 aa d1 1c bd 6e 05 82 3e 8c 62 0b 3e 3b 00 7b 3d
       -0.03828589 0.25394768 0.13611811 0.061279517
000020 af c0 ed 3d 2e fa 98 bc ef f8 20 3e 1d a0 c0 3e
       0.11609017 -0.018673982 0.1571996 0.37622157

model/7600:0 f4 [1, 1, 3, 2]
000000 00 00 e8 42 00 00 b4 42 00 00 1c 43 00 00 46 43
       116.0 90.0 156.0 198.0
000010 00 80 ba 43 00 00 a3 43
       373.0 326.0

model/7581:0 f4 [1, 1, 3, 2]
000000 00 00 f0 41 00 00 74 42 00 00 78 42 00 00 34 42
       30.0 61.0 62.0 45.0
000010 00 00 6c 42 00 00 ee 42
       59.0 119.0

model/7562:0 f4 [1, 1, 3, 2]
000000 00 00 20 41 00 00 50 41 00 00 80 41 00 00 f0 41
       10.0 13.0 16.0 30.0
000010 00 00 04 42 00 00 b8 41
       33.0 23.0

const_fold_opt__1534 f4 [128, 1, 1, 1]
000000 00 f6 50 be 4e db 9a be 1d 94 ae be 4b 08 5c 3e
       -0.20406342 -0.3024544 -0.34097376 0.21487539
000010 1c b8 80 bd 7a 0e a5 3d 45 02 11 bc 0e 6e c6 bd
       -0.06285116 0.08059402 -0.008850639 -0.0968896
000020 7a 36 9f 3e 9b 44 18 be 38 d8 ba 3d 3d c5 ba bd
       0.3109625 -0.14869921 0.09123272 -0.091196515
000030 66 91 a8 3d 5c c9 88 3d bc 62 6d bd af b9 05 be
       0.082308576 0.06679031 -0.05795549 -0.13059114
000040 5b 3a 64 3e d7 b8 bc 3e c1 78 f6 bd 67 e4 1c 3e
       0.22287886 0.36859772 -0.12034751 0.15321504
000050 5a db fb 3d de 60 8c 3d 2e e0 87 be 76 5c 26 be
       0.12297697 0.068544134 -0.26538223 -0.16246209
000060 6b f2 b9 3d f9 99 a9 3b 4c 5c b6 3d 0b 8d 1f 3e
       0.09079441 0.0051758257 0.08904323 0.15581147
000070 b6 93 9d be 7f 4f 8a 3e 06 20 5f be 92 4b 53 be
       -0.30776757 0.27013776 -0.2178956 -0.20634297
000080 a0 72 35 be 3f e1 e4 bd 09 66 d4 3d a1 45 50 be
       -0.17719507 -0.11175775 0.10371024 -0.20339061
000090 31 55 89 3d 7f 88 37 3e b4 30 f4 3d ce 38 fd bd
       0.06705702 0.17923163 0.11923352 -0.1236435
0000a0 dd d7 a3 3c 38 be 00 be c0 d5 1d 3e 52 ae cd bd
       0.020000393 -0.12572563 0.1541357 -0.100430146
0000b0 f6 b6 04 be 20 82 8c 3d 02 e6 10 3e 71 f9 0c 3e
       -0.12960419 0.06860757 0.14150241 0.1376703
0000c0 2a f5 31 be 94 b4 3c 3d 4f 8c c7 3d de 1e 6f bd
       -0.17378679 0.04607065 0.097435586 -0.058379047
0000d0 da f3 aa 3d 49 cf 11 bc 38 9d 10 bd b9 5b 4a 3e
       0.08347292 -0.008899518 -0.035306185 0.19761552
0000e0 e6 21 77 be bc 62 02 3e 5b df b4 3d 95 f5 b6 bd
       -0.24134025 0.12732977 0.08831664 -0.0893356
0000f0 41 31 b4 bd 62 14 0a be 9c 1f e1 3c 93 c7 d1 bd
       -0.08798457 -0.13484338 0.027480893 -0.10243144
000100 d7 5a cf bd 35 a0 61 bd fc 53 a4 3d c4 2f 76 3c
       -0.10124748 -0.055084426 0.08023831 0.015026037
000110 19 d5 12 3e ed 8d 93 bc 90 87 45 3e b6 f3 8b bc
       0.14339103 -0.018012011 0.19289994 -0.017083984
000120 b9 e4 de 3c 9a 16 cd 3d 6a e7 e7 bc 62 82 45 3c
       0.027208673 0.100140765 -0.028308589 0.0120550115
000130 5a c1 10 3d 98 8e 1e be 0a a6 78 bd 99 38 8d 3d
       0.035340644 -0.15484083 -0.060705222 0.06895561
000140 c1 98 f4 bd 4c b5 0c 3c d8 a8 73 bd 7f ac 20 3d
       -0.11943198 0.008588146 -0.059487194 0.039227005
000150 c6 58 1d 3d 17 74 5e bd 10 79 a3 bd ba c2 b7 bc
       0.03841474 -0.05430993 -0.07982075 -0.02243172
000160 f3 69 4b 3e 20 a4 de bd a9 85 55 3b 71 e2 e4 3d
       0.19864635 -0.10871148 0.0032580888 0.11176003
000170 bb 12 84 bd 28 9f f9 3c 47 da 34 3d f0 cc e9 3d
       -0.06448885 0.0304714 0.044153478 0.11416042
000180 c4 d2 17 bd ea 8d a6 3b 53 8c b6 3d 5e 98 f6 3c
       -0.037066236 0.0050828354 0.089134835 0.030101951
000190 8c 7d 6f 3d 04 a8 ba bd 3b 95 b3 3d 29 8f af bd
       0.05846934 -0.09114078 0.08768698 -0.085722275
0001a0 5c 7f 07 bd 0b ec c0 bd 9f 6c 53 3c d5 c1 f0 bd
       -0.033080444 -0.094200216 0.012904315 -0.117557205
0001b0 c2 47 94 3d 6f 3a 11 bd 87 dd 5f bb ad da 20 3e
       0.07240249 -0.035456117 -0.003415914 0.15708418
0001c0 13 28 72 3d d9 3e c6 3c bf b9 aa 3c 9c 95 9a bd
       0.05912025 0.02419989 0.020840524 -0.07548067
0001d0 51 de f4 3c 85 9b fe 3d d5 89 7d 3d 61 8f c7 3c
       0.029891165 0.12432007 0.061899025 0.02436036
0001e0 08 71 e2 3d 1a 53 c6 bb 33 38 d8 bb 68 88 e0 bd
       0.11056715 -0.006052387 -0.0065984963 -0.109635174
0001f0 12 f1 e2 bd e1 9b 80 bd 0f 25 44 be 05 12 1e be
       -0.11081137 -0.062797315 -0.19154762 -0.15436561

const_fold_opt__1533 f4 [32, 1, 1, 1]
000000 60 e6 60 be f5 6a 1b be 9e a8 53 be f6 46 29 be
       -0.21962881 -0.1517752 -0.20669791 -0.16530976
000010 45 eb e4 be a5 6a 5a be 51 b3 59 3e 41 2f e2 3d
       -0.44710746 -0.21329744 0.2125981 0.11044169
000020 7e d7 49 bd 46 04 d1 3e b4 56 55 be 13 50 0b be
       -0.049277775 0.40823573 -0.20833856 -0.13604765
000030 7d 82 b5 3e 5b 26 37 be 33 d1 bb be b3 4c 78 be
       0.35451117 -0.17885725 -0.36683044 -0.24248008
000040 fa 22 2d be f9 40 a0 3e 26 bd 86 3e 70 4b bc 3e
       -0.16907874 0.3129957 0.26316184 0.36776304
000050 a1 c9 4c 3e 2e 66 aa be 8b a9 0e 3c bd 5c 62 3e
       0.1999879 -0.33281082 0.008707414 0.2210569
000060 db 61 04 bf d7 a6 8e 3e fc ba b5 3e 58 71 14 be
       -0.51711816 0.27861664 0.3549422 -0.14496362
000070 f2 63 69 3d eb 23 a0 3e f1 9d e7 be 70 8e 05 be
       0.05698008 0.31277403 -0.45237687 -0.13042617

const_fold_opt__1532 f4 [64, 1, 1, 1]
000000 36 66 92 be 0d 68 43 3e b1 de 7d 3e b1 5d 28 3e
       -0.28593606 0.19082661 0.24791981 0.1644199
000010 f5 76 c4 3e ba 6e e8 bc 70 ad 0b be 40 6e 28 be
       0.38372007 -0.028373111 -0.1364038 -0.16448307
000020 72 84 64 be 09 ee fa 3d 8e 84 d7 3d 53 e5 83 be
       -0.22316149 0.12252433 0.1052333 -0.25760898
000030 17 1c 2d be dd b8 e7 bd ed 67 4c be e4 91 de bd
       -0.16905247 -0.11314557 -0.1996152 -0.1086767
000040 c2 2a ab 3e c9 1a a5 3d d9 ff 98 bd 93 cb 63 be
       0.3343106 0.080617495 -0.07470674 -0.22245626
000050 1d 64 5d bd 4d 9d fe bd 90 bc 5e be 5c 38 41 3e
       -0.054050554 -0.124323465 -0.21751618 0.18869156
000060 64 c6 dc 3d d1 65 61 3d 31 63 25 3e 09 aa cc be
       0.107800275 0.05502874 0.1615112 -0.39973477
000070 92 28 f9 3c 13 6e ce bd 01 d5 f8 3d e2 4b 70 be
       0.030414853 -0.10079589 0.12150002 -0.23466447
000080 b2 22 5f bd 47 a1 6c 3e cd 7c 13 bd e5 96 f8 3d
       -0.054476447 0.23108397 -0.03600769 0.12138156
000090 fa 69 2a 3d c3 ae 53 3e 2f a3 7d 3e 38 dc b6 3e
       0.041604973 0.20672135 0.24769281 0.3571489
0000a0 c7 0f 5b 3e 5c a7 c2 be 12 96 9b be 95 e2 cc bd
       0.21392737 -0.3801831 -0.30387932 -0.100041546
0000b0 32 9c 7a 3e a4 94 a4 3e d4 9e 81 3e 58 85 67 bd
       0.24473646 0.32144654 0.2531649 -0.05652365
0000c0 46 a5 86 3e ba 9f 53 be ed 33 6d 3e 32 ae fa bd
       0.2629797 -0.206664 0.2316434 -0.12240256
0000d0 cf d3 a3 3c 90 c1 60 be b1 99 cd 3d 13 da 37 be
       0.01999846 -0.21948838 0.1003908 -0.17954282
0000e0 76 df 50 3c a8 e9 8f be 13 1c 69 bd c0 c2 e3 3d
       0.01274859 -0.28107953 -0.05691154 0.1112113
0000f0 83 8a 0f be d4 8e af 3c 83 c3 35 be 7e 09 7a bd
       -0.14017682 0.02143041 -0.17750363 -0.06104421

const_fold_opt__1531 f4 [64, 1, 1, 1]
000000 92 3b 9d 3d c5 3e d6 3e ed 3b 7a 3e c7 1a 04 3e
       0.07677378 0.41844764 0.24436922 0.1290084
000010 10 d4 62 3e f1 59 ac 3e 47 30 5a 3e 10 0b 64 bf
       0.22151208 0.3366237 0.21307479 -0.8907938
000020 cd fb 81 3e d3 9c ba be f1 fa 3f 3f 5c 36 89 3e
       0.2538742 -0.36447772 0.7499228 0.26799285
000030 54 d6 05 3f f7 85 7d be 22 a0 32 3e 65 b6 77 3f
       0.52280164 -0.24758135 0.17443898 0.96762687
000040 4e 70 9f bd 2c 0e c7 3e 79 7a f3 3e 95 ba 47 bd
       -0.07785092 0.38878 0.47554377 -0.048761923
000050 5b 41 dc 3e 43 19 3b 3f 11 0d 0f bf a6 4c 8c be
       0.43018612 0.7308542 -0.5587931 -0.27402228
000060 f6 b1 22 bf f7 4c 34 3f 03 ae 43 3f 0b 3e 72 bf
       -0.63552797 0.7042994 0.76437396 -0.9462592
000070 49 3c 0c 3f 04 aa 97 be 10 b8 de 3e 2d 65 fc 3d
       0.5477949 -0.296219 0.43499804 0.12323985
000080 66 8f 31 3f 78 77 9e bf 64 8d 78 3e b9 70 fe 3e
       0.69359434 -1.2380209 0.24272686 0.49695376
000090 03 c1 2c 3e 12 bc a1 3e 8f 37 d8 3e 1b 3f 3a be
       0.16870503 0.315888 0.42229888 -0.18188135
0000a0 ee 69 f9 be 02 84 9d bf 46 02 b0 be 16 a7 5d be
       -0.4871363 -1.230591 -0.34376734 -0.2164577
0000b0 51 85 92 3e aa a7 12 3f 75 fc 89 bf 63 ba bd be
       0.28617337 0.57287085 -1.0780169 -0.37056264
0000c0 1f 72 92 be da 65 2c 3f 98 74 ee 3e 56 f9 2d bf
       -0.28602692 0.67342913 0.4657333 -0.6795858
0000d0 86 2d 01 bf 71 d5 32 bf 0a 09 94 3e fe e5 8e be
       -0.5046009 -0.69856936 0.28913146 -0.27909845
0000e0 13 43 9e bd a0 d2 fe 3e a3 79 07 bf 92 4d bd be
       -0.07727637 0.4977007 -0.5291998 -0.36973244
0000f0 d7 cc 4f bf 3b c8 0e 3f 04 1f 1e bf 66 5a c2 3d
       -0.81171936 0.5577428 -0.61766076 0.094898984

const_fold_opt__1528 f4 [16, 1, 3, 3]
000000 f8 7f 4d 3d db a7 11 be c1 65 b2 bc 40 0f 9d 3e
       0.05017087 -0.14224188 -0.021777036 0.30675697
000010 1e ca 64 3e 80 be 8e bd ac 9b 42 3d 2c 1c 9f 3e
       0.22342727 -0.06969929 0.04751174 0.3107618
000020 f7 e5 6a 3d 9e 57 b3 3d 3b a6 ca 3d 6e 0b a5 bd
       0.057348218 0.08756946 0.09894987 -0.08058821
000030 5e ad 0c bb 8e 35 3c 3e 4d 95 89 be 1b 88 1b 3e
       -0.002146564 0.18379804 -0.2687172 0.15188639
000040 63 2c 9e 3d 96 de fb bd d4 85 bb bd e6 90 19 be
       0.0772331 -0.12298314 -0.09156385 -0.1499668
000050 ee b8 a5 bd c2 79 36 be 67 a4 91 3e 48 7d 2d be
       -0.08091913 -0.17819884 0.28445742 -0.16942322
000060 3f d5 55 bc 0d af 6d be 57 ae 47 3e 6b e8 9a bd
       -0.01305133 -0.23211308 0.19500099 -0.075638615
000070 d0 a4 63 be 3a 8c 8a bd 70 1d 25 be 7f 1b b3 bd
       -0.2223084 -0.06765027 -0.16124511 -0.08745479
000080 5d 2a 11 3e 84 0e 3c 3e 67 65 25 3e 05 cb 62 3e
       0.14176317 0.18364912 0.16151963 0.22147758
000090 b6 43 63 3a 1b 43 91 bc 71 b4 8d bd de 79 8f 3e
       0.00086694525 -0.017732194 -0.06919182 0.28022665
0000a0 09 d4 10 3e 2e 10 c0 be 15 79 fc 3c 2d 7b b6 3c
       0.14143385 -0.37512344 0.030819455 0.022275532
0000b0 9d bc 9e be 25 6e ac 3d 54 89 7f bd 47 4c e6 3c
       -0.31003276 0.08419446 -0.062386826 0.028112544
0000c0 5f ea 68 3e 03 b6 99 3e db 01 b5 bd 75 32 e7 3c
       0.22745655 0.30021676 -0.088382445 0.028222302
0000d0 df 16 dc 3c 9e a2 b2 be ff a1 59 3e 30 f1 4b 3d
       0.026866375 -0.34889692 0.21253203 0.04979056
0000e0 b9 df 05 bd 66 f3 04 be 58 a1 db bd ea 69 ae 3e
       -0.03268406 -0.12983474 -0.10724133 0.3406518
0000f0 d8 c3 c5 be 28 c9 9a be 4d ac c1 3e 80 41 b0 bc
       -0.3862598 -0.30231595 0.37826768 -0.021515608
000100 e7 9c f5 bd 8f 9a 43 3e 16 de 50 3b ce 1e 03 bd
       -0.11992817 0.19101928 0.0031870655 -0.0320118
000110 9f 96 54 bd bc b6 45 bd 1f ab 0e 3e 36 91 85 bc
       -0.051901456 -0.048269972 0.13932465 -0.016304594
000120 f9 a1 18 bc 2c 62 60 be 08 6c 9f bd ee 7c c8 bd
       -0.009315961 -0.2191245 -0.07784277 -0.097894534
000130 a6 33 34 bd 0f df 88 bd e9 92 69 be 0a 23 4d 3d
       -0.04399457 -0.0668317 -0.22809948 0.050082244
000140 1b 8f bf 3c 1b 94 b9 bd 4c b4 32 be b7 41 08 3c
       0.023383668 -0.09061452 -0.1745159 0.008316449
000150 1a 47 28 3e 19 af a9 3d 40 2b 63 be fc b9 d4 3c
       0.16433373 0.0828535 -0.22184467 0.02596759
000160 de 79 3c 3e 05 c5 82 3e e7 46 46 bd b5 fa 12 be
       0.18405864 0.2554094 -0.04840746 -0.1435345
000170 36 52 a2 3b 53 7b 11 be 69 30 31 be c3 94 91 3e
       0.004953648 -0.142072 -0.17303623 0.2843381
000180 1c 86 a9 3b 2f 33 04 be fe 66 f3 3d 28 45 87 bd
       0.005173458 -0.1291015 0.118848786 -0.066049874
000190 f3 4d 3e 3c df 87 ba 3c 66 26 53 bc a2 42 54 be
       0.011615264 0.022769867 -0.012887573 -0.20728543
0001a0 0a a7 58 3e 9b ae e0 bd 42 dc 9d bd bd a6 3d 3d
       0.2115747 -0.10970803 -0.077080265 0.046301592
0001b0 9e bb 0a ba f7 86 e0 3d 8f 43 72 be de 27 d6 bd
       -0.00052922394 0.109632425 -0.23658584 -0.10456823
0001c0 46 a4 0d be 42 28 60 bd bb 13 12 3e c5 88 e4 3e
       -0.13832197 -0.054725893 0.14265339 0.44635597
0001d0 c9 ba 7d 3a 2d 92 19 be 9b 6b 95 3e 24 85 08 3e
       0.0009679017 -0.14997168 0.2918366 0.13332039
0001e0 29 31 59 3e 7d 7a 6e 3e cd 59 09 3d 61 ab 12 bc
       0.2121016 0.23288913 0.033532906 -0.008951993
0001f0 fe 77 60 3d a0 d8 97 3d 78 ad a5 3c 6b 68 09 3d
       0.054801933 0.07414365 0.020224318 0.033546846
000200 5b 60 98 3d f7 b8 89 be ca 3e fb 3e 01 4a f5 3a
       0.07440253 -0.2689893 0.49071342 0.0018714071
000210 40 6b ae bd 5d e2 8d bb c9 1e f1 bd 96 7f 9c bd
       -0.0851655 -0.004329963 -0.1177345 -0.076415226
000220 5d bc 10 3e f7 7d fc 3d df 2a e2 3d 01 56 0e bd
       0.14134355 0.123287134 0.11043333 -0.03474999
000230 30 c0 a4 bd 63 7b e0 3d a2 1a 14 3e f9 15 08 3e
       -0.08044469 0.10961034 0.14463285 0.13289632

const_fold_opt__1527 f4 [64, 1, 1, 1]
000000 73 54 46 be ed 1c 4d 3e 01 41 45 3c ef 86 9c 3e
       -0.19368152 0.20030566 0.012039424 0.30571696
000010 d0 7a ac bd 64 61 91 be 5d 68 ea 3b 94 d5 c6 bc
       -0.08421862 -0.28394616 0.0071535544 -0.024271764
000020 ca aa b4 3e dd b6 8d be ec f0 8e bd 46 5e ee bd
       0.35286552 -0.27678576 -0.06979546 -0.11639075
000030 dd 6b 0f 3d 18 b7 ab 3d 62 48 87 3d a0 7a 7d be
       0.035014976 0.08384532 0.06605603 -0.24753809
000040 07 c5 0c be de 03 8b 3e 85 4a 2c 3e 3c fc b9 3e
       -0.13747035 0.27151388 0.16825302 0.36325252
000050 c1 f4 31 be 41 ec ac 3e d3 7c 3c be 99 56 ac bd
       -0.17378522 0.33773997 -0.18406992 -0.08414955
000060 f2 4d 38 3c 70 16 86 be b5 7c 4b be 5f 20 57 bd
       0.011249052 -0.26188993 -0.1987179 -0.052521106
000070 97 37 93 bd b1 a8 27 3e 40 48 50 3d a2 74 4b bd
       -0.07188337 0.16372944 0.050850153 -0.049671777
000080 eb df af 3c fb 71 21 be 7f b1 a1 be 14 33 97 be
       0.021469077 -0.15766136 -0.3158073 -0.29531157
000090 2e df 3a 3e e9 d6 4d 3e e9 75 bc bd aa 6e 55 3e
       0.18249199 0.20101513 -0.09202177 0.20842996
0000a0 41 d0 48 be 51 d1 1c 3e cc a2 92 3e 5d 02 4e 3e
       -0.19610693 0.15314223 0.2863983 0.20118089
0000b0 18 a7 02 be ba 2e 9e be 3a 67 b2 3d 2e d8 49 3e
       -0.12759054 -0.30895025 0.08711095 0.19711372
0000c0 6f 23 35 be 9c e5 59 bd c5 c4 a7 be 8e eb 9a 3e
       -0.17689298 -0.05319749 -0.3276731 0.3025784
0000d0 e6 3d 14 3e 00 e5 7b 3e 0e 89 43 bc 53 6a 94 be
       0.14476737 0.24599075 -0.011934532 -0.2898737
0000e0 b5 21 27 3e 75 52 85 be 73 03 82 3e 47 cd bb 3e
       0.16321452 -0.26039472 0.25393257 0.36680052
0000f0 30 5c 2c be 56 71 ba 3e 78 5c 35 3e 04 7f af be
       -0.16832042 0.36414593 0.17711055 -0.34276593

const_fold_opt__1526 f4 [64, 1, 1, 1]
000000 48 a9 b9 be 88 e5 fe 3c f4 29 61 be 13 e0 2c 3e
       -0.36261964 0.031115308 -0.2198866 0.16882353
000010 8f 80 dd 3d 4f 33 bf bd 70 78 ec 3d d7 88 c9 bc
       0.10815536 -0.09335958 0.11546409 -0.024601383
000020 7d 2a 1f be 5b dc 1c bd 31 f6 78 be 9d 3f b2 3d
       -0.15543552 -0.038296085 -0.24312665 0.087035395
000030 56 b7 91 3e cf c9 62 3e d3 82 25 be f9 30 0d 3e
       0.28460187 0.22147296 -0.16163187 0.13788213
000040 a6 45 df 3d 28 da 74 3e 72 7b 53 be 47 9e 82 3e
       0.10901956 0.23911345 -0.2065256 0.2551138
000050 91 28 45 3e 9d 27 3e be 0d 02 5a be cd fe b6 bd
       0.19253756 -0.18569799 -0.21289845 -0.08935318
000060 71 7a 7f bd ad ad d1 3c dd 4b 29 be 66 e2 9d 3d
       -0.06237263 0.02559551 -0.16532846 0.07709198
000070 65 84 9d 3e 16 0d 2c 3e fb 4c b3 bd a3 44 57 3e
       0.30765072 0.16801867 -0.08754917 0.21022277
000080 bb be e7 bd bb d2 0d 3e 1a 1f 11 3e f6 2e 30 3e
       -0.11315676 0.13849919 0.1417202 0.17205414
000090 10 f1 cc 3d 41 93 94 3e fc c8 61 3d 9f df b6 3e
       0.100069165 0.29018596 0.055123314 0.35717484
0000a0 84 89 68 bc c3 cc 68 3d ff 20 38 be 85 2f 82 3e
       -0.0141929425 0.0568359 -0.17981337 0.2542688
0000b0 42 5d 5f 3e f7 02 33 3e a0 e4 48 be 4b 08 86 3e
       0.21812919 0.174816 -0.19618464 0.26178202
0000c0 f3 61 ab be f9 88 3b be e9 e1 02 be 39 a0 0c 3e
       -0.33473167 -0.1831397 -0.1278149 0.13732995
0000d0 37 db 72 3e 2c 50 0c be bd ee 45 be 0a 15 70 3e
       0.23716436 -0.13702458 -0.19329353 0.23445526
0000e0 87 22 39 3e 44 34 3f be 16 da b6 3c 31 80 38 be
       0.18079577 -0.18672282 0.022320788 -0.18017651
0000f0 66 a3 79 be 00 82 fc bd 19 9a 05 3e 64 a6 00 be
       -0.24378738 -0.12329483 0.13047065 -0.12563473

const_fold_opt__1525 f4 [64, 1, 1, 1]
000000 15 00 b3 be 17 f3 27 bf bc 61 9f be 85 92 f3 3d
       -0.34961 -0.656053 -0.31129253 0.11893181
000010 90 00 33 be 02 9f 29 bf 18 6c fa bf 2f 71 07 bf
       -0.17480683 -0.6625825 -1.9564238 -0.5290708
000020 82 1d bb be ef 03 ac be d8 a6 02 bd a1 93 ad bf
       -0.3654595 -0.3359675 -0.031897396 -1.3560678
000030 92 85 f3 bf 98 55 d7 3d 84 97 50 be da 44 e0 3e
       -1.9025137 0.105143726 -0.20370299 0.4380253
000040 6e ba f3 3e 99 e1 9b bd 45 a8 92 3e 86 45 23 be
       0.47603172 -0.07611389 0.28644004 -0.1594449
000050 5d 7c 55 bd 56 7e f7 3e 16 46 96 be db 7e 39 bb
       -0.052120555 0.48338574 -0.29350346 -0.0028304372
000060 4a fa 28 3f d5 86 33 3f f7 ee 14 be 3f b0 6e bc
       0.6600691 0.7012761 -0.14544283 -0.0145683875
000070 c6 d6 90 3d 74 44 a7 bd f6 da 2e 3f 91 9e 1e 3d
       0.07072215 -0.08167353 0.6830286 0.03872544
000080 33 79 ba 3d 15 60 10 3f fe 7f db bf c5 d1 5c 3e
       0.09105148 0.5639661 -1.7148435 0.21564396
000090 5d cd 22 3f fa 19 14 3e 8f 42 c7 3d 6a 60 56 bf
       0.6359461 0.14463034 0.09729492 -0.83740866
0000a0 70 e8 9e be 13 07 03 3d 66 8b b6 be 63 ae a1 3c
       -0.3103671 0.03198917 -0.35653228 0.019736474
0000b0 ea 9a 17 bf af 3a fe 3e 20 d0 8c 3e 69 5f 80 3e
       -0.59220755 0.49654147 0.27502537 0.25072792
0000c0 f0 cf 60 be f0 a3 84 3e 7e cb 44 be 0d ee a0 be
       -0.21954322 0.25906324 -0.19218251 -0.31431618
0000d0 e2 4a f0 be 13 5a 1a 3e a8 08 02 bf 9b 42 15 3f
       -0.4693213 0.15073423 -0.5079446 0.58304757
0000e0 87 46 4c 3f e3 b3 56 3e fb 4e 1f bf 1b 21 ed 3f
       0.79795116 0.20967059 -0.6222989 1.8525728
0000f0 87 6c 05 3e eb 87 7e 3e 0d 06 c6 be 28 f5 0d 3f
       0.13029681 0.24856536 -0.3867649 0.55452204

const_fold_opt__1524 f4 [32, 1, 1, 1]
000000 85 3f 8c 3e 39 7c ab 3e bd 1e ab 3e b1 3f 54 be
       0.27392212 0.33493212 0.3342189 -0.20727421
000010 58 2c 5c be 8d 43 21 3e b5 f8 61 3e fe 31 58 be
       -0.21501291 0.15748425 0.2206753 -0.2111282
000020 b6 3b 15 be 55 26 e7 3e ff ae b5 3e 29 2b e5 bd
       -0.14573559 0.45146433 0.35485074 -0.11189873
000030 c9 c7 8f be ed 6c 79 be c0 c6 72 3e 72 7c 9d 3e
       -0.2808211 -0.24357958 0.2370863 0.30759007
000040 7c 8c 67 3e 03 91 87 3e 72 c2 d5 bd 2a f4 c9 bd
       0.22612184 0.26477823 -0.10437478 -0.09861024
000050 43 48 55 3e 1a b2 97 3e bd c7 44 be eb 9f 1b 3e
       0.20828347 0.29628068 -0.19216819 0.15197723
000060 0b c8 a0 3e b1 be c3 3e e8 ad b8 3e bc 02 ad 3d
       0.3140262 0.38231423 0.3607018 0.08447787
000070 31 96 84 be db 63 52 be fe 37 d1 3e fb e8 46 be
       -0.25895837 -0.20545904 0.4086303 -0.19424812

const_fold_opt__1523 f4 [64, 1, 3, 3]
000000 14 c3 54 3d 2e 7e 8b 3c a2 15 d2 3c 15 68 d1 3c
       0.051943853 0.01702794 0.025645081 0.025562325
000010 a8 60 fc 3c 1e 09 85 3c 92 44 1d 3d a4 9c 35 3c
       0.030807808 0.016239699 0.038395472 0.011084709
000020 ed 31 93 3d b5 ae bb 3c 29 53 48 3d 1f 44 46 3d
       0.07187257 0.022910455 0.048907433 0.04840481
000030 1f c6 0d 3c 1f 74 01 bd 6d 56 6c bc 61 36 19 3c
       0.008653193 -0.031604882 -0.014424902 0.009351344
000040 05 dd 51 3d 51 1b 34 3d 77 d9 4f ba 2a 27 b0 bc
       0.05123617 0.043971363 -0.0007928828 -0.02150305
000050 bd 39 a8 bc 49 19 4a bd 8b e1 c7 bc e8 28 9d bd
       -0.020535344 -0.04934052 -0.02439954 -0.07673818
000060 5d 86 8b bc 0b 82 15 bd 87 6b 52 3d c1 64 ed bc
       -0.017031843 -0.03650097 0.051372077 -0.028978707
000070 71 72 e4 3c 18 00 84 bd 05 51 e0 3c d6 2b ad bc
       0.027886601 -0.064453304 0.027382383 -0.021139067
000080 33 c2 51 3e be 03 93 3d cf 7f cb 3c 20 d3 d8 3d
       0.20484237 0.07178448 0.024841217 0.10587144
000090 1e c9 95 bb e0 2a 7b 3d 2f 3b cb 3d d6 cd cd 3c
       -0.004571094 0.061320186 0.09923398 0.025122564
0000a0 ba ca de ba 0e 96 62 bc c3 fa 0a 3d d5 b4 95 bd
       -0.0016997673 -0.013829721 0.03393055 -0.073098816
0000b0 6c 81 e3 bd 0c aa 0a 3d f3 f3 97 bc 62 7c 8b 3d
       -0.1110867 0.033853576 -0.018548941 0.068108335
0000c0 11 15 3f 3c e3 e0 51 3c f3 ec fd 3c 7e 88 b4 3d
       0.0116627375 0.012809965 0.030996775 0.08815096
0000d0 12 26 75 3d dc a6 3f 3c 17 f4 57 bb 10 c2 60 3c
       0.05985076 0.011697497 -0.0032951885 0.013718143
0000e0 53 cb b3 bc 44 ff 5b bb e7 87 9c bc 75 01 65 bd
       -0.021947538 -0.0033568898 -0.019107772 -0.055909593
0000f0 f1 2f b3 39 32 f3 cc 3b aa 50 0b bd 63 13 34 3c
       0.0003417726 0.006254577 -0.034012474 0.01099095
000100 1f 4f eb bc 01 2e e9 bd 2e c6 90 3a 9a 19 e8 bc
       -0.028724251 -0.11385728 0.001104539 -0.02833252
000110 d0 47 ea bd 5d c1 be bc 7f 5a 28 3b da 04 8c bd
       -0.114394784 -0.023285562 0.0025688706 -0.06836863
000120 1c 90 9e 3c 55 0a 99 bc 80 35 b3 3d 65 9f 56 bd
       0.019355826 -0.018681685 0.08750439 -0.052398104
000130 d2 1d 96 bd 48 b9 ac 3d fb ba 43 bc 83 11 5e bc
       -0.073299065 0.08433777 -0.011946435 -0.01355398
000140 fd 97 a3 3d 95 31 95 3d 23 57 49 3b 01 61 8c 3d
       0.07987974 0.07284848 0.0030722104 0.068544395
000150 6e e7 92 3d f0 c8 8b 3c ac 63 3c bc 31 20 39 3e
       0.07173048 0.017063588 -0.011498373 0.18078686
000160 6a b3 a0 3d 2e 1b c1 3c 81 ef c2 3d ad 84 41 3d
       0.078467205 0.02357253 0.09518338 0.04724567
000170 dc e7 0b 3e bc 3d 92 3c 56 d7 25 3e 82 81 69 bd
       0.13662666 0.017851703 0.16195425 -0.057008274
000180 f2 fc 4a bd fe 69 51 3b 0b 87 62 be 72 03 8b bc
       -0.049557634 0.0031954045 -0.22121827 -0.016969416
000190 96 f9 b9 3d c3 96 96 3d 0f c8 2e 3d ef 90 d6 3d
       0.09080808 0.07352974 0.04267126 0.10476863
0001a0 07 77 6f bd fd bc e1 3d ef 95 3b 3e 29 10 2b 3e
       -0.058463123 0.11022375 0.18318914 0.16705383
0001b0 52 b7 98 bc a4 45 0d 3c 55 8e 1e 3d bd d7 f0 bc
       -0.018642101 0.008622561 0.038709957 -0.029399747
0001c0 4f 9e 14 bd 3c 70 83 3c 62 a6 cd bc a6 ee 89 bc
       -0.036283787 0.016044728 -0.025103752 -0.01683743
0001d0 de a4 66 bd 44 51 16 3a 73 23 4d bc d8 56 cd bc
       -0.056309573 0.00057341554 -0.012520659 -0.025065824
0001e0 60 87 66 3c a7 41 bb 3d 5e e6 8d 3d 4a 50 19 3c
       0.014070362 0.091433816 0.06928705 0.009357521
0001f0 61 fc 25 3e 29 4c d2 3d 02 9f a8 3b 49 02 9f bb
       0.16209556 0.10268433 0.0051459083 -0.0048525673
000200 9b 52 e9 bc c2 9d 59 bd 15 db f7 bc 0e c2 56 bd
       -0.028481772 -0.053128965 -0.030255834 -0.05243116
000210 5b 3a cc bc 0f df 12 3d b2 7b 3b 3c 7f 26 64 3c
       -0.02493017 0.035857257 0.0114430655 0.013925194
000220 8c 48 8e bd ee 76 cb 3c 69 9a bf bc 58 a9 89 bc
       -0.06947431 0.024836984 -0.023389058 -0.016804382
000230 28 2b 1f bb de e2 1a 3e ff be 67 3d 9f 14 3e bd
       -0.0024287198 0.15125605 0.056578632 -0.046406385
000240 dd 81 1a bb db 1e b8 bc cd cc 8f bd 59 a3 60 bd
       -0.002357594 -0.02247565 -0.070214845 -0.05484328
000250 1c 2f c7 bd ba ff ba bd df 1d 8b bd 13 e9 5a be
       -0.09725782 -0.09130807 -0.06792807 -0.21377973
000260 9f 2b b0 bc 81 1c ea 3c 8a e3 6f 3d 5b 2e 58 3d
       -0.021505175 0.028578045 0.058566608 0.052778583
000270 b9 da 58 bb ee d5 78 bd a5 67 f6 3c 82 1c 39 3d
       -0.0033089353 -0.060750894 0.030078718 0.045193203
000280 f3 28 15 bd f4 b7 c5 3d d4 17 03 bd e8 9f 15 3d
       -0.036416005 0.09654227 -0.032005146 0.03652945
000290 bf 93 49 3c 9e 0f da 3b 00 0a d4 3d fe d4 0e 3d
       0.012303292 0.0066546937 0.1035347 0.034871094
0002a0 78 a0 4d bd 8e b2 0a 3d 77 e7 6d bd 7b b2 a6 3d
       -0.050201863 0.03386169 -0.05808207 0.08139511
0002b0 30 a8 d9 3c 6e 52 96 bd a5 72 03 3e 80 ff 3c bb
       0.026569456 -0.07339941 0.12836702 -0.0028838813
0002c0 19 a2 5d bd 3c 90 13 3e 80 6b e4 bc 83 c2 52 bd
       -0.054109666 0.1441049 -0.027883291 -0.051455032
0002d0 41 d2 9b 3b 40 32 f2 3d 62 c4 31 3e 70 36 f5 3b
       0.004755289 0.11825991 0.1736007 0.007483296
0002e0 08 c5 ad 3d ce d6 8a 3d fb c5 07 3d b5 c8 18 3d
       0.08484846 0.06779252 0.033147793 0.037300784
0002f0 c3 65 96 3d bc 7c c7 bc 37 c2 92 bd ae df 38 bd
       0.07343628 -0.02435147 -0.0716595 -0.045135193
000300 2f 5e ce bc 2c 14 d9 bd c7 d4 1a be c2 b7 0c bc
       -0.025191395 -0.105995506 -0.1512023 -0.008588733
000310 fa 68 23 3e fa 88 d7 3d ee df 96 bd 21 db 4e 3c
       0.15958014 0.10524173 -0.0736693 0.012625487
000320 21 73 de 3d b0 90 51 be b5 87 a0 3d f0 9c 45 3e
       0.10861803 -0.2046535 0.07838384 0.19298148
000330 db b7 8e be e1 fa 84 3d a8 89 f6 3d 92 17 21 3b
       -0.27874646 0.06493164 0.120379746 0.00245807
000340 48 7f b3 3c fd 55 07 3c 7f 49 d3 ba 98 7e 92 3d
       0.021911278 0.008260247 -0.0016119926 0.07153052
000350 1d e3 d1 3d 85 c7 9a 3b 5e 8c 87 3d 6c e3 15 3d
       0.102483965 0.0047234916 0.0661857 0.03659384
000360 f0 73 9e bc 12 8c 00 3d 79 4d 85 bd e4 0b bc 3c
       -0.019342393 0.03138358 -0.06508917 0.022954889
000370 c1 59 dc bc 13 67 b4 bd 29 cc c7 3c c2 18 18 3e
       -0.026898267 -0.08808722 0.024389343 0.14853194
000380 74 4a 7e 3d 52 aa 3d bd 9a 83 47 bd bd 04 13 bd
       0.062082723 -0.04630501 -0.04870949 -0.03589319
000390 bc fc 36 3c d4 9f 2e 3d e9 74 1f 3d 3d d8 0f bd
       0.011168655 0.042632893 0.038929854 -0.03511833
0003a0 bf 9b c9 3c 0b 91 1f 3d 48 5a 13 3d a9 b0 26 3d
       0.024610398 0.038956683 0.03597477 0.04069582
0003b0 08 0e e9 3c e5 1e 40 3d e9 09 aa bc 44 da 23 be
       0.028449073 0.046904463 -0.020756679 -0.1600123
0003c0 b7 b3 7e 3d de ad 02 bb f6 8d 3c be 60 f7 88 3d
       0.06218311 -0.0019940059 -0.18413529 0.06687808
0003d0 6d 53 da 3a c4 93 a9 3d 41 b5 f5 bd ae e6 9e 3d
       0.0016656943 0.08280137 -0.11997462 0.077588424
0003e0 14 1d 99 3b 7f e9 85 bc 8c ef e4 bd 79 cd 21 be
       0.004672656 -0.016346691 -0.111785024 -0.15801038
0003f0 29 fe 59 bd 3d 8e 0b be e5 0e 80 bd a2 34 fe bd
       -0.0532209 -0.13628478 -0.06252841 -0.12412383
