model.onnx (onnx, 697400 bytes, 184 tensors)

scales__617 f4 [4]
000000 00 00 80 3f 00 00 80 3f 00 00 00 40 00 00 00 40
       1.0 1.0 2.0 2.0

model_3/yolo_head_P5/separable_conv2d/ReadVariableOp_1:0 f4 [24, 64, 1, 1]
000000 57 ab 5c bd b9 eb bf bd 50 89 c5 3c c4 13 3b 3e
       -0.05387434 -0.093711324 0.024113327 0.18269259
000010 72 11 57 3e 0c 4c 15 3e a7 4f 95 3d 82 08 5a 3d
       0.21002749 0.14579791 0.07290583 0.05323077
000020 e1 9d fe 3d d9 9f 25 3d 2c 8b 20 be 2d 6e 33 be
       0.12432457 0.040435646 -0.1567809 -0.17522497
000030 07 05 82 3e ed ba 33 3e 7a 46 52 be 7b 56 86 bc
       0.2539446 0.17551775 -0.20534697 -0.016398659
000040 82 f1 82 be a4 ac ff 3b 77 ec cd 3e 73 bd 6f be
       -0.2557488 0.007802563 0.4021947 -0.23412113
000050 c9 06 80 be 8f ef c7 3c bf c2 d5 bd 45 cb 2b be
       -0.25005177 0.024406223 -0.104375355 -0.1677676
000060 5b ea 22 be 43 9f 7c 3e 2b f0 5d be 51 04 2f be
       -0.15909712 0.24670129 -0.21673648 -0.1709149
000070 42 79 ed bd c3 26 4e 3c c5 72 94 3e ae fc 30 3e
       -0.11595394 0.012582484 0.28993812 0.1728389
000080 45 cb 81 be 5f 6e bd bd 19 06 58 3e ae e8 c2 3d
       -0.25350395 -0.09249567 0.21096076 0.095170364
000090 9c af 1f 3e 63 91 1c 3e e2 c1 85 3e 2b b5 54 be
       0.15594333 0.15289836 0.26124483 -0.20772235
0000a0 c7 d9 15 3e 3d e3 c5 3e 4b d9 5b be 87 85 38 3e
       0.14633857 0.38649932 -0.2146961 0.18019687
0000b0 6a bf 36 be cf 35 8c 3c be 8b c2 be 4c ae 4f be
       -0.17846456 0.017115502 -0.3799724 -0.20281333
0000c0 64 8b 90 3e 5b d0 bf 3b 1e be b0 bd 76 ea 95 bb
       0.28231347 0.0058536953 -0.08630012 -0.004575069
0000d0 36 cc 91 3c 0b 86 a4 3e d6 a2 83 be d3 c5 6a 3e
       0.01779757 0.32133517 -0.2571017 0.22927026
0000e0 bd 08 cc 3c 82 08 d8 bd 08 e4 f0 3d bb e3 aa 3d
       0.02490651 -0.10548498 0.117622435 0.083442174
0000f0 82 0d 9d 3e 87 e6 7d be 72 eb f8 3d 38 2e 07 3e
       0.30674368 -0.2479497 0.12154283 0.13201225
000100 e2 2d 85 bd 08 ad 0f be b8 ff 53 3e f8 01 65 bd
       -0.06502892 -0.1403085 0.20703018 -0.05591008
000110 7b 76 88 3d 5f 60 92 3e 5c a3 ec bd 3c d3 41 3e
       0.06663223 0.2858915 -0.11554596 0.18928236
000120 10 7b 56 3e fa cc dc 3c 95 89 47 3e 3a b7 a1 3b
       0.20945382 0.02695321 0.19486077 0.0049351724
000130 eb ee e7 3d 61 4a 1e 3e 0a 9c ce 3d ef c6 24 3e
       0.11324867 0.15458061 0.10088356 0.16091512
000140 f4 6d 33 3e d3 61 7c be 0d e4 40 3e ff 80 da 3d
       0.17522413 -0.24646692 0.18836994 0.10669135
000150 28 67 2a bd 4d 15 19 be 92 af 41 3d 78 ba 30 3e
       -0.041602284 -0.14949532 0.047286578 0.17258632
000160 c4 04 9d be a6 26 06 3e 98 4b 54 3e ce 6d d1 3c
       -0.30667698 0.1310068 0.20731962 0.025565054
000170 c5 38 85 3e 48 03 03 be 1b 1c f0 3d 6a b1 5c 3e
       0.26019874 -0.1279422 0.11724111 0.21552053
000180 9e cb 0c be de 98 07 3e 0e 7f d8 bc 0e 25 c0 be
       -0.13749549 0.13241908 -0.026427772 -0.3752827
000190 7a 8b 3d be 1c 5a 45 3d a7 9f e9 bd 84 8b 39 3e
       -0.18510237 0.048181638 -0.114074044 0.18119627
0001a0 10 6d ac 3c c0 d1 6d 3d f1 ce 96 bd e5 37 42 be
       0.021048099 0.05806136 -0.0736369 -0.18966635
0001b0 7d 35 33 bd 98 74 4a 3e dc 1f 19 3e cb 5d 3b 3e
       -0.043752182 0.1977104 0.1495356 0.18297498
0001c0 fc 31 68 3b 99 62 af be 94 86 6b bb 1a 5c aa 3d
       0.0035430184 -0.34254912 -0.003593837 0.08318348
0001d0 59 c8 0a be 33 b8 8f be 5f 00 7c be b8 3e 67 be
       -0.13552989 -0.2807022 -0.24609517 -0.22582519
0001e0 43 a0 fe bd af 8d 3a 3e 17 42 13 3e 74 15 18 be
       -0.12432911 0.1821811 0.1438068 -0.14851934
0001f0 44 12 12 3e 0f 3a 74 3e 18 13 66 be 98 4a 31 bd
       0.1426478 0.23850273 -0.22468221 -0.04328403
000200 c1 a5 89 3e 29 d7 cd bd ac c8 c5 bd 70 08 04 3c
       0.26884273 -0.10050804 -0.09657416 0.008058652
000210 c5 94 6a be 38 20 78 be 1d 0d 5a 3d e6 8b fa 3c
       -0.22908314 -0.2423104 0.053235162 0.030584287
000220 aa d8 a3 bd a2 6a 56 be 45 d4 3d 3e 4f d2 1f 3e
       -0.0800031 -0.20939115 0.18538006 0.1560757
000230 ba 54 5f 3e 49 a8 21 bd 9f 7c 8d 3d 45 c6 04 bd
       0.21809664 -0.03946713 0.06908535 -0.032415647
000240 53 7b 3a bd 24 a3 fe 3d e1 a5 d0 3d bc c5 18 3e
       -0.045527767 0.1243346 0.10187889 0.1491918
000250 fa c2 32 3e 60 53 d1 bd 73 1e 39 3e 6f 69 71 3e
       0.1745719 -0.10220981 0.18078022 0.23575376
000260 b9 23 31 3d 3b c0 2d 3e 5a a2 e7 3c 4f 24 f3 3c
       0.04324696 0.16967861 0.028275657 0.0296804
000270 0c f9 a2 3d 20 9e 49 be 3e 86 a3 3c 32 d6 2d be
       0.07957658 -0.19689226 0.019961473 -0.1697624
000280 76 99 74 bc 4f 18 56 bd 39 9c 8e bc d5 87 df 3d
       -0.014929166 -0.052269276 -0.017408477 0.1091458
000290 1f 88 60 3e a0 97 8c 3e 92 f5 ac bc cd 15 a0 3c
       0.21926926 0.2745943 -0.02111319 0.019541645
0002a0 f0 0d 8c bd 2c 2a 59 3d 4d 0d 58 3d d1 48 c0 bd
       -0.06838596 0.053018734 0.05274706 -0.093888886
0002b0 d1 f3 8c 3e bd d1 d2 bd 3b 3c 5a 3d 29 9f 3b 3e
       0.27529767 -0.10293911 0.053280097 0.18322434
0002c0 b9 61 8f 3e f8 2f c1 3c 68 bc 11 be 4b 4d 06 be
       0.28004244 0.023582444 -0.14232028 -0.13115422
0002d0 dc 25 50 3e ae 36 bb 3d 61 10 af 3d ce b6 62 be
       0.20326942 0.09141289 0.08548046 -0.22140047
0002e0 43 ad ea 3d b4 d9 00 bd b9 86 d3 bb d1 ca b9 3d
       0.11458828 -0.031457618 -0.006455269 0.09071887
0002f0 e2 f1 39 bc 3a 65 ef 3d 71 73 e3 3d 92 a3 9e bd
       -0.011349173 0.11689229 0.11106003 -0.07746042
000300 90 57 6e 3e 22 ee 19 bb ea 48 6f 3d 65 5f 72 3e
       0.2327559 -0.0023487885 0.058419146 0.23669203
000310 50 3e 84 3e 7a 65 87 bd 37 b3 80 3e 4d 65 95 bd
       0.2582879 -0.06611152 0.2513673 -0.07294712
000320 1c 09 e3 bd 6a 11 0f bd d3 16 ea bd 7d d7 6a 3d
       -0.11085722 -0.034928717 -0.114301346 0.057334412
000330 1e 52 d6 3e 78 53 46 be 2b e1 4d be 7f fb 61 3c
       0.41859525 -0.19367778 -0.20105426 0.0137928715
000340 bc 36 7e bd 8c 5e 3d be fc 31 40 3e a8 cb 30 be
       -0.062063918 -0.18493098 0.18769068 -0.17265189
000350 3f c0 82 bd b1 3f 36 be 7c b3 19 3e fb 62 3d 3e
       -0.06384324 -0.17797734 0.15009874 0.1849479
000360 38 4e 2f 3e fe 00 e1 3e 10 11 64 3c 3a 5c 97 3c
       0.17119682 0.4394607 0.013920084 0.018476594
000370 b9 04 43 be 8e be 4e 3e b8 b0 e8 3c d2 e7 4e 3e
       -0.1904477 0.20189878 0.028404579 0.2020562
000380 b6 e2 32 be f8 59 0f be 4c bc 09 bd 94 a7 62 be
       -0.17469296 -0.13999164 -0.03362684 -0.22134238
000390 3a f7 38 bd 3b 4a 42 3d 39 b2 af 3d ce a6 c0 bd
       -0.04515765 0.047434073 0.08578915 -0.094068155
0003a0 38 bf 0a be ca 3f b8 3b a8 47 e4 bb 37 88 59 3d
       -0.13549507 0.0056228386 -0.00696655 0.05310842
0003b0 00 b1 9d 3e ec 3e 2f be 96 b8 43 3d d2 eb 1a 3d
       0.30799103 -0.17113847 0.047783457 0.037822552
0003c0 b9 49 73 3c c5 59 b7 bd 59 5b 58 3d 85 1d 92 3d
       0.01484912 -0.08952669 0.05282149 0.07134537
0003d0 99 d2 44 bd b9 a2 2c 3e 17 a5 fa 3d b4 5a 67 be
       -0.048052404 0.16858949 0.1223852 -0.22593194
0003e0 58 53 d1 3c f2 e4 d9 3d 5d 92 14 bc a0 7e 72 3e
       0.025552437 0.10639371 -0.009068099 0.23681116
0003f0 25 1f 0c 3c a6 36 05 3d c8 3e 3d be 51 f3 1b 3d
       0.008552347 0.03252282 -0.1848098 0.03807384

model_3/yolo_head_P5/BiasAdd/ReadVariableOp:0 f4 [24]
000000 1e c4 00 3d f6 b4 0a bd 4d a7 c6 be 6a 4f 08 be
       0.031437032 -0.033863984 -0.38799515 -0.13311544
000010 35 84 ad c0 17 b5 4f be ef a9 8a be 10 e1 31 bf
       -5.4223886 -0.20283924 -0.27082774 -0.69484043
000020 76 77 3e 3d 5b 72 04 3d 50 b5 e3 be 26 e3 da be
       0.046500646 0.03233562 -0.44474268 -0.42751426
000030 e2 ce af c0 6c c6 c4 3e 51 f2 02 bf 45 92 4c bf
       -5.4940042 0.38432634 -0.51150995 -0.7991069
000040 c1 fe 75 bb 1b 5f be bc 0d e3 5e bf 77 f0 1b bf
       -0.0037535878 -0.02323871 -0.870652 -0.60913795
000050 74 dd b3 c0 84 eb c7 3e 9d 31 f0 be 27 d7 11 bf
       -5.620783 0.39046872 -0.46912852 -0.5696892

model_3/yolo_head_P4/separable_conv2d/ReadVariableOp_1:0 f4 [24, 64, 1, 1]
000000 e0 cd 27 be c0 52 98 bd ae 11 3a 3e 3a f2 01 bc
       -0.16387129 -0.07437658 0.18170807 -0.0079312865
000010 2e d3 75 be 85 fc 66 be 8b 23 fc bd 84 a5 33 ba
       -0.2400634 -0.22557266 -0.12311467 -0.0006852972
000020 66 b6 c6 bd 94 b1 27 bd 72 71 1e bd ca 6c 32 3e
       -0.097027585 -0.040940836 -0.03868241 0.17424312
000030 23 fd 00 3e d4 e3 2e 3e 36 3f 0a be c2 c5 0e 3e
       0.12596564 0.17079097 -0.13500676 0.13942626
000040 c9 f9 0a be 84 ff 47 3d 29 4a 6b 3e 3b 0b 44 bd
       -0.13571848 0.048827663 0.22977509 -0.047862273
000050 0c f6 82 be 50 31 53 3e 55 aa f6 bc 21 3e 48 3e
       -0.25578344 0.2062428 -0.030110518 0.1955495
000060 c4 05 74 bd 29 a8 f4 be 05 71 9b bd 4f c3 16 3e
       -0.05957581 -0.47784546 -0.07589916 0.14722942
000070 5b 2f 71 3e 76 d4 58 bc ea 16 51 be 21 f6 45 3e
       0.23553221 -0.013234248 -0.20418897 0.19332172
000080 c1 18 52 3e 43 63 44 bd 01 82 84 3e 26 ed 80 3d
       0.20517255 -0.047946226 0.25880435 0.062952325
000090 95 79 a9 3d ca d2 db 3c 6e d5 12 be 8b e4 d7 bd
       0.08275143 0.02683391 -0.1433923 -0.10541638
0000a0 f6 dc 58 bd 9a 49 2e 3e 24 40 e6 3d 59 ac 90 bc
       -0.0529451 0.17020264 0.112427026 -0.017660307
0000b0 75 bd 09 be 4a 95 d2 bd e9 10 43 3e ce 5d e8 3d
       -0.13451178 -0.10282381 0.1904942 0.11346017
0000c0 64 34 5d bd 65 43 55 be 51 10 28 bd 34 38 2f 3e
       -0.05400504 -0.2082649 -0.041031186 0.17111284
0000d0 19 9d 34 be 4e 0d 0e 3e f0 c0 01 3e 06 4e 3e be
       -0.17638053 0.13872263 0.12671256 -0.18584451
0000e0 d0 c4 be 3c 74 8e ed be 4f d1 25 be 22 00 2c 3e
       0.023287207 -0.46397746 -0.16193126 0.16796926
0000f0 97 5f 12 be 7d dd c7 bc 57 41 a5 3b 91 7d 85 3e
       -0.14294277 -0.024397606 0.0050431895 0.26072362
000100 23 da 13 bc 80 5e 3f 3d 4e c7 97 bd a9 6f fc 3d
       -0.009024176 0.04672098 -0.07411061 0.12325985
000110 cf 06 57 3d 46 20 8f bd c6 50 d9 3d 4b 94 80 bc
       0.052496728 -0.069885775 0.106111094 -0.015695712
000120 7a 55 8a be 61 55 14 be a8 42 f9 bd a1 48 b5 bc
       -0.27018338 -0.14485694 -0.12170917 -0.022129359
000130 54 78 1a 3e 30 7d df be 86 5f 1e bd e4 c4 71 be
       0.15084964 -0.43650198 -0.038665317 -0.23610264
000140 d2 08 0d bd 7b 30 d0 be ef 89 50 3e 4f 96 78 3d
       -0.03443224 -0.40661988 0.20365117 0.06069022
000150 aa 81 9c 3d 9a 1e 2e be 08 45 bd be 55 5b 03 3e
       0.07641919 -0.17003861 -0.3696673 0.12827809
000160 db b5 2f 3e 10 64 45 bd 7d 54 a5 3d 34 b2 af 3d
       0.17159216 -0.04819113 0.080727555 0.085789114
000170 28 bd e2 bd 56 13 fb bd 41 fb ef 3d 89 d2 2c bd
       -0.11071235 -0.122595474 0.11717845 -0.04219297
000180 52 43 11 be 06 56 ec bd 50 69 6f 3e d5 96 e1 3d
       -0.14185837 -0.11539845 0.23380017 0.11015097
000190 6e 73 31 3e e1 bd 92 bd c6 33 2a be 0f 68 85 bb
       0.17329189 -0.07165123 -0.16621312 -0.0040712426
0001a0 ba d2 66 3e 74 07 84 be fa 47 31 3c 8e b9 26 be
       0.22541323 -0.25786936 0.010820383 -0.16281721
0001b0 31 62 aa bd e1 d4 8c 3e d5 1d 98 3d 68 8a 3f 3e
       -0.0831951 0.27506164 0.07427565 0.18705142
0001c0 70 c4 35 bc c9 9f ce 3e d7 7b 1f 3e db 4a 00 3e
       -0.011094198 0.4035628 0.15574585 0.12528555
0001d0 f1 30 11 bd a8 4f 5b 3e 44 02 e7 bd 1b 97 94 3d
       -0.035447065 0.21417105 -0.11279729 0.072553836
0001e0 38 d6 20 3e 58 73 a8 3c be 8c 9d bd e1 2d 72 be
       0.15706718 0.020562813 -0.0769286 -0.23650314
0001f0 aa 20 2a 3d 99 58 60 3c 78 51 4a be 5f 18 7e 3d
       0.041535057 0.013692998 -0.1975764 0.06203496
000200 09 89 b6 be e6 6c f6 3d ce d7 9f 3d 97 cf fc 3c
       -0.35651425 0.120324895 0.07804833 0.030860705
000210 62 32 a5 be 39 84 29 be 34 18 15 3e f0 31 6a bd
       -0.32265002 -0.16554345 0.14560014 -0.05717653
000220 cc 6d b3 3d ee 10 08 3e 38 80 5a 3d a9 2b 83 3e
       0.087611765 0.13287708 0.053344935 0.25619248
000230 89 6f ba 3a 7e 3b ca bc 6f 4c a7 3c fe 57 ac bd
       0.0014223914 -0.024686571 0.020422189 -0.08415221
000240 09 95 7e bd e4 23 60 bd 62 13 ac 3c ad d6 a7 bd
       -0.06215385 -0.054721728 0.021005336 -0.08195243
000250 56 e2 00 bd 51 c9 ca 3d 4c c2 03 be e7 8f 89 3d
       -0.03146585 0.09901679 -0.12867087 0.067169
000260 39 49 e0 bd 34 60 57 3c c2 d4 91 3d 50 24 45 3d
       -0.10951466 0.013145495 0.071206585 0.048130333
000270 96 25 c2 bd 26 f3 3e bd cb c6 77 be 7a 37 ca 3b
       -0.09479825 -0.046618603 -0.24196927 0.006171164
000280 77 db f6 3b ff 23 17 3e 82 62 aa bd 94 37 01 bd
       0.0075334865 0.14759825 -0.0831957 -0.031547144
000290 03 99 0b be 2c ec ab bd d1 db 09 be e7 dd 6e be
       -0.13632588 -0.083946556 -0.1346276 -0.23326837
0002a0 e0 03 53 3e 2a 97 2f be c2 0f 7b 3d 40 c5 89 3e
       0.20606947 -0.17147508 0.061294325 0.26908302
0002b0 2f 06 0b be e1 e1 3b be 27 f1 71 bd df 61 1b 3e
       -0.13576578 -0.18347885 -0.05906787 0.15174054
0002c0 2d 92 e5 3b 23 aa c0 bd e5 52 1b 3e 0e 5b 50 3e
       0.007005951 -0.09407451 0.1516834 0.20347235
0002d0 55 0e 69 3e 79 94 00 bd 72 a2 e5 bd c9 98 28 3e
       0.22759373 -0.031391595 -0.112126246 0.16464533
0002e0 f6 9c ca 3c 9c df e1 ba 5a 65 05 3e da 58 e0 3d
       0.024733048 -0.0017232778 0.13026944 0.10954447
0002f0 43 22 84 3e 0f ce 1e 3f 83 90 31 3e 6d a5 df bd
       0.2580739 0.6203317 0.17340283 -0.10920224
000300 e7 38 94 bd 40 38 15 bd 5c 7f b9 3c 3d c3 81 3d
       -0.07237416 -0.036430597 0.022643737 0.06336067
000310 f3 db d2 bd 4f 06 19 bd a5 78 a7 3d d6 26 3f 3d
       -0.10295858 -0.037359532 0.08177308 0.046667896
000320 7f a3 14 3d 9f c4 1d 3e a4 2e 7a 3e 28 a4 7d bd
       0.036288735 0.15407036 0.24431854 -0.06192413
000330 75 b2 96 bc c3 5c 69 3d 05 44 ec 3d cc 41 8e bc
       -0.018395642 0.05697323 0.11536411 -0.017365359
000340 74 ad d7 bd 07 d4 a7 bc 87 f2 67 3e 3a 3b 23 3d
       -0.105311304 -0.020486845 0.2265111 0.039851405
000350 43 5b f3 3d 99 38 1f be 10 50 a1 3c 9d af 08 bd
       0.11882641 -0.15548934 0.019691497 -0.033370603
000360 c9 a6 02 3e 79 74 f0 3b aa c1 c5 bc 2b d7 d9 bd
       0.12758936 0.0073381034 -0.024140198 -0.10636743
000370 94 fe 94 3d f7 50 70 be c4 2f 41 be 3a 6e cc be
       0.072751194 -0.23468386 -0.18865877 -0.39927846
000380 76 c7 63 3e 46 c9 4b be 04 f4 85 3d 6e 83 a4 bb
       0.22244057 -0.19900998 0.06540683 -0.0050205505
000390 28 50 4d be 7b ce 00 3e f8 71 2b be 9a ef c4 be
       -0.20050108 0.12578766 -0.16742694 -0.3846405
0003a0 3f 78 a5 bd a1 7f 36 3d a9 97 29 3c 14 76 24 be
       -0.08079576 0.04455531 0.0103511 -0.16060668
0003b0 08 39 6f bd 52 5b 0b 3d fb 9f c9 bb 30 1c 34 3e
       -0.058404 0.034022637 -0.0061531044 0.17588878
0003c0 d3 a2 16 bc b1 1f 04 bd e4 73 56 3d a5 6e 10 3e
       -0.009194094 -0.032256786 0.052356616 0.14104708
0003d0 84 37 72 be 9f 3f 8e 3d e3 14 d5 ba d9 ac c6 bd
       -0.2365399 0.069457285 -0.0016256835 -0.09700937
0003e0 95 c3 d1 3b df b7 f3 3c 28 e1 20 3e 9c f2 5b 3e
       0.006401489 0.029750763 0.1571089 0.21479267
0003f0 f1 cc ae bc 44 9f 8a bc 8f 84 dc bd fb 20 57 3e
       -0.021337958 -0.016921647 -0.10767471 0.21008675

model_3/yolo_head_P4/BiasAdd/ReadVariableOp:0 f4 [24]
000000 f8 05 b6 bd 5c 08 fc bd bb 28 45 3e 28 7b ef be
       -0.08887857 -0.12306282 0.19253819 -0.46773648
000010 63 bb 3f c0 dc bd 44 be a6 f2 e0 bd f8 6e 91 be
       -2.9958122 -0.1921305 -0.109837815 -0.28404975
000020 ea 17 1e bc 00 f9 3e 3d 16 67 a7 be ad 14 a4 be
       -0.009649256 0.046624184 -0.32695836 -0.32047024
000030 4b 70 3c c0 8a 86 31 be 1e 38 de bc db e5 5c be
       -2.9443538 -0.17336479 -0.027126368 -0.21572058
000040 0b 9c 4f 3d 3d e3 20 bd cb 60 5e be 66 a6 06 bf
       0.050685924 -0.03927921 -0.21716611 -0.52597654
000050 5d 1f 48 c0 28 69 f3 3d 05 dc 0c be 77 44 bc be
       -3.1269143 0.11885291 -0.13755806 -0.36770985

model_3/yolo_head_P3/separable_conv2d/ReadVariableOp_1:0 f4 [24, 64, 1, 1]
000000 e0 ff 99 be 34 ad 67 be bf 0c 09 bc 15 e7 3f be
       -0.3007803 -0.22624665 -0.008364855 -0.18740495
000010 a8 cf b5 bd da 4e 83 be c8 13 71 bd d0 c5 5a 3e
       -0.08877498 -0.25646096 -0.058856755 0.21364522
000020 8e 0f 02 3e ce ca a0 bc 27 88 21 3e 09 e1 04 be
       0.12701246 -0.019627955 0.15774594 -0.12976469
000030 87 a0 96 be 06 da 2b be 14 23 ea bc 7d 51 4e 3e
       -0.29419348 -0.16782388 -0.02858118 0.20148273
000040 70 f3 f5 3d 64 7a 3e be b5 ef 90 be 58 63 3e bb
       0.12009323 -0.18601376 -0.28307882 -0.0029050913
000050 25 0b 54 3e 01 5c 3e 3e fd 9c b4 bc e9 25 44 3e
       0.20707376 0.18589784 -0.022047514 0.19155087
000060 88 68 27 bd fc 7c 4b bd f2 cb 84 be d8 02 82 be
       -0.040871173 -0.04967974 -0.25936848 -0.25392795
000070 9e 72 57 be 06 2c d5 3c 7e 0c 3d 3e 13 ed 4b be
       -0.21039817 0.026021969 0.18461797 -0.19914655
000080 eb e5 e3 3d 1d 2a 1d be 62 e5 85 3e fb 0b 6d 3c
       0.11127838 -0.15348096 0.26151568 0.014468188
000090 92 41 2b be d4 49 10 be f7 ee 66 be 89 a7 40 be
       -0.16724232 -0.14090663 -0.22552095 -0.1881391
0000a0 e9 28 ec 3d 6b b9 c9 3d 3d 80 e1 3b a7 33 34 be
       0.115312405 0.09849819 0.0068817423 -0.17597829
0000b0 68 10 df bd bf 99 5f 3d 94 c5 00 be cb 83 15 be
       -0.10891801 0.054589983 -0.1257537 -0.14601056
0000c0 6a 2c 1c 3e 33 6f 53 be 7e b4 2a 3c 98 c4 12 be
       0.15251318 -0.20647888 0.010419009 -0.14332807
0000d0 78 13 8b be 60 5c 08 be c1 4a ba bb 7a 2a 44 3e
       -0.2716329 -0.13316488 -0.005685181 0.19156829
0000e0 2a 05 ed be c1 6c bc bd 28 8b 67 3e e7 9e 14 bd
       -0.46293002 -0.09200431 0.22611678 -0.036284354
0000f0 2c b5 4b 3e ec ab 42 be 9a b1 9f be 5e c9 cf bd
       0.1989333 -0.19010895 -0.31190187 -0.101458296
000100 9f 42 e6 3c 5d f5 a2 3d 71 48 1e 3e 74 c1 a7 3d
       0.02810794 0.079569556 0.15457322 0.08191195
000110 fc 22 0e 3c da bd 30 3e 67 39 11 3d 50 96 46 3e
       0.008675333 0.17259923 0.035455134 0.19393277
000120 ea 57 14 be 93 11 33 be ec a6 05 3b 38 40 15 3e
       -0.14486662 -0.17487173 0.0020393683 0.14575279
000130 01 b1 bf be 7b 54 40 3e 11 10 e0 bd 8b af 3b 3e
       -0.3743973 0.18782227 -0.109405644 0.18328683
000140 54 c0 a4 3d 4d bd 8d 3c da 71 98 bd 09 6a 1b 3e
       0.08044496 0.01730218 -0.074435905 0.15177168
000150 dd e9 01 be 03 f5 50 3e 8f 91 4e 3e 02 64 b8 bd
       -0.12686868 0.20405965 0.20172714 -0.0900345
000160 48 a6 1a 3d 3c 3d 88 bd 1e 1c fd bc da b6 18 3e
       0.037756234 -0.066523045 -0.030897196 0.14913502
000170 d9 8c 04 be 6d f9 2f be d5 7c 0b be 91 3c 84 3e
       -0.12944354 -0.17184992 -0.13621838 0.25827459
000180 9d 27 64 3d 6f 1b 81 be 8f 11 99 3d 0d 2d ed bd
       0.05570184 -0.25216243 0.07474052 -0.115808584
000190 5b e6 b3 3e db e8 eb 3d 43 96 a0 3d 47 52 97 3d
       0.35136685 0.11519023 0.0784116 0.0738874
0001a0 79 cc 60 3e 4e 72 37 bb 22 99 27 be ec 19 65 3c
       0.21953 -0.0027991715 -0.1636701 0.013983231
0001b0 5a 08 a0 3e 69 63 ed 3e 1e e6 8e bd a8 a8 8e 3c
       0.31256372 0.46364906 -0.06977485 0.017414406
0001c0 25 47 1c be 47 8d 7d 3d 76 43 51 be 67 9b 57 be
       -0.15261514 0.06190231 -0.2043589 -0.21055375
0001d0 e2 11 63 be 6e af 1e be 26 e3 ea 3e ef 38 c9 bd
       -0.2217479 -0.15496609 0.45876426 -0.09825312
0001e0 93 97 e1 bc 84 5e 82 bd 07 e3 e2 3e 6d 8d a2 3d
       -0.027538097 -0.06365684 0.44313833 0.07937131
0001f0 31 54 9e 3c 52 a7 ea 3d 1f 15 aa bd f5 22 72 bd
       0.019327255 0.11457695 -0.0830481 -0.05911537
000200 38 82 79 3e c2 a9 c3 3e e0 e2 45 bc 4b 5a 0d 3e
       0.24366081 0.38215452 -0.012078017 0.13803975
000210 61 5a 29 3e b3 1c eb 3d cd 63 cf bd cd 10 31 3b
       0.16538383 0.11480083 -0.10126457 0.002701807
000220 57 0e a6 3d 37 fc 84 be 22 11 ff 3d f9 fc 48 3e
       0.08108204 -0.25973675 0.1245444 0.19627751
000230 de c5 8e be a0 e6 71 bc 73 7d 65 be 0d 41 31 be
       -0.27885336 -0.014764458 -0.22411136 -0.17309971
000240 33 be ce 3e 63 27 52 3e 86 90 89 3d 00 80 23 3e
       0.40379485 0.20522837 0.06717019 0.15966797
000250 64 7d be bd 22 bb e3 bd 17 2e 1b be ef 31 4b be
       -0.0930126 -0.11119677 -0.151543 -0.19843267
000260 50 2b 0b 3e 1b 6e e2 3c e3 e7 83 bd 9c a3 c1 3b
       0.13590741 0.027640393 -0.06440713 0.0059093963
000270 3e 48 86 3e 21 e9 c7 3d 4c 75 79 3e c5 0c 5e be
       0.2622699 0.09761263 0.24361151 -0.21684559
000280 f5 9e 49 3e 95 0f 85 3d fd 66 0d 3e 3f 55 2f be
       0.19689544 0.06497113 0.13808818 -0.17122363
000290 ef 32 07 3e ec 4f 03 3d ac 39 fe 3d 14 d1 fb be
       0.13203023 0.03205864 0.12413344 -0.4918295
0002a0 37 11 27 3e 90 8b 88 bd 77 ba 2e 3e 7f 0d 43 3e
       0.1631516 -0.066672444 0.17063318 0.19048117
0002b0 0a 60 34 3e 54 92 9a bd 06 b8 99 bd 27 44 28 bd
       0.17614761 -0.07547441 -0.07505803 -0.04108062
0002c0 e2 89 05 be 18 13 ca 3e 2b 6c 60 be da 2a 33 be
       -0.1304088 0.39467692 -0.21916263 -0.17496815
0002d0 81 84 21 be ac 54 49 3e ad 17 ce 3b 73 4e 7a be
       -0.15773202 0.19661206 0.0062894435 -0.24443989
0002e0 14 16 88 3c 65 83 54 3d a6 7c d3 bd 79 4f 31 3a
       0.01661209 0.05188312 -0.10326509 0.00067638565
0002f0 55 71 a4 bd 90 f3 c5 bb 5d f2 64 3e 7d b1 ca 3d
       -0.08029429 -0.006040998 0.22358079 0.098971345
000300 4b 9d 82 be a5 36 8f be 8a f3 0e be 99 7b 5e 3e
       -0.2551063 -0.27971378 -0.1396009 0.21726836
000310 61 16 cb 3d 91 7c b0 be 5a f6 07 bd af bb 3b be
       0.09916378 -0.34470037 -0.033193924 -0.18333314
000320 c9 1c 02 be 10 ae 24 3d c7 18 08 be 70 2f cb 3d
       -0.12706293 0.04020506 -0.13290702 0.09921157
000330 f9 ae 6e be fe 9f 5c bd 62 9c d7 bd 60 b2 48 be
       -0.23308934 -0.053863518 -0.105278745 -0.19599295
000340 48 ea c2 3d dd 3b 83 be 6c 1e 62 bc 61 2e 40 be
       0.09517342 -0.2563161 -0.013801198 -0.18767692
000350 8a 0f 22 be fc 4d 8e 3e 1e 1c 98 3d c0 2a 17 bd
       -0.1582624 0.27793872 0.07427238 -0.036906004
000360 98 ca 94 3e 49 5e 83 3e 58 c5 b2 bc 4f cf b2 3d
       0.29060817 0.2565787 -0.021822616 0.08730947
000370 19 85 5d 3e 0e 3b 0a 3e 4b 0c 59 3e 56 a0 6a 3e
       0.21632804 0.1349909 0.21196096 0.22912726
000380 77 be 94 bd 49 35 8e be 52 ec 6b be 43 df 45 bd
       -0.07262891 -0.27775028 -0.23039368 -0.048308622
000390 6a 5c 5c bc 1d 44 a7 bd 65 c7 7a bc e5 e7 b7 bd
       -0.013449768 -0.081672885 -0.015306328 -0.08979777
0003a0 ac a8 68 be f8 e2 70 be 9e ce 8e bd 37 c9 c2 bd
       -0.22720593 -0.23524082 -0.06973003 -0.09511035
0003b0 d2 df 6b bd e4 ee 1b bd f6 93 f5 3d 52 15 97 bd
       -0.0575865 -0.03806962 0.11991112 -0.073771134
0003c0 1c 24 74 be c1 06 4b 3e 68 28 45 3e fa e6 b6 3d
       -0.238419 0.19826795 0.19253695 0.08930774
0003d0 b4 92 a1 3d 23 fb 83 bc f3 2b af 3d 78 f3 25 be
       0.078893095 -0.016110962 0.085533045 -0.16206157
0003e0 b1 c4 cb 3c 80 22 83 be ff 31 96 3b a4 0b 7f 3a
       0.024874063 -0.2561226 0.0045835967 0.00097292126
0003f0 40 57 47 3e c2 a9 bf 3d 55 04 04 be 9f 3f 7b 3b
       0.19466877 0.093585506 -0.12892278 0.0038337482

model_3/yolo_head_P3/BiasAdd/ReadVariableOp:0 f4 [24]
000000 52 50 6e bc ff 22 b8 bc 53 4f 84 3e 04 67 91 be
       -0.014545517 -0.022477625 0.2584177 -0.28398907
000010 bb 6b 14 c0 8d 97 b0 be 4e f3 25 3d 37 e5 a6 bd
       -2.3190753 -0.34490624 0.040515237 -0.08149188
000020 2d d8 a8 bd 73 94 d6 3c 6c 76 9a 3e ec 5c 95 be
       -0.08244357 0.026193833 0.30168474 -0.29172456
000030 03 b1 20 c0 a3 14 8b be aa f2 aa bd d5 db 4e bd
       -2.510804 -0.27164182 -0.08347066 -0.050502617
000040 d5 d7 ea bd cb 66 f1 3b 8d 26 0d be 8a 14 61 be
       -0.11466948 0.00736699 -0.13784237 -0.21980491
000050 b1 ce 21 c0 14 9e 65 be 58 bf c5 bd 41 29 74 bd
       -2.5282404 -0.22423583 -0.096556365 -0.059609655

model_3/yolo_eval/truediv_7:0 f4 [2]
000000 89 88 88 3a 89 88 88 3a
       0.0010416667 0.0010416667

model_3/yolo_eval/Reshape_3:0 f4 [1, 1, 3, 2]
000000 00 00 e8 42 00 00 b4 42 00 00 1c 43 00 00 46 43
       116.0 90.0 156.0 198.0
000010 00 80 ba 43 00 00 a3 43
       373.0 326.0

model_3/yolo_eval/Reshape_19:0 f4 [1, 1, 3, 2]
000000 00 00 20 41 00 00 50 41 00 00 80 41 00 00 f0 41
       10.0 13.0 16.0 30.0
000010 00 00 04 42 00 00 b8 41
       33.0 23.0

model_3/yolo_eval/Reshape_11:0 f4 [1, 1, 3, 2]
000000 00 00 f0 41 00 00 74 42 00 00 78 42 00 00 34 42
       30.0 61.0 62.0 45.0
000010 00 00 6c 42 00 00 ee 42
       59.0 119.0

model_3/yolo_eval/Cast_9:0 f4 [2]
000000 00 00 f0 43 00 00 f0 43
       480.0 480.0

model_3/separable_conv2d_1/separable_conv2d/ReadVariableOp_1:0 f4 [12, 3, 1, 1]
000000 e0 7e 79 bd f4 78 12 3d c4 6c 80 be b0 f2 aa be
       -0.060912013 0.03575988 -0.25082982 -0.3338828
000010 16 f2 fa 3e c9 8a 1a 3e 59 63 06 bf d5 e2 5c 3e
       0.49012822 0.15092005 -0.5249534 0.21570905
000020 38 bb 12 bf 53 00 e5 be b4 90 c6 3e be a4 7d be
       -0.57316923 -0.4472681 0.38782275 -0.24769875
000030 eb 7b d2 be 98 51 10 3e 95 b1 d8 be 6f 26 85 3e
       -0.41110167 0.14093626 -0.42322984 0.26005885
000040 8a 7f 5e 3e 4e 44 c0 3e 6d 9b d0 3e 1a e0 25 3f
       0.2172834 0.37552112 0.4074358 0.64795077
000050 f6 e6 52 be a8 c5 5b bf 48 4e b6 bc fa 06 18 bf
       -0.20595917 -0.85848475 -0.022254124 -0.59385645
000060 8e 80 8b be 09 e5 1a 3f e7 31 c7 bd 88 d4 fa 3e
       -0.27246517 0.6050573 -0.09726315 0.48990273
000070 2f 2d ee 3e 75 86 c9 be 58 b2 6f 3e 08 74 40 3f
       0.46518847 -0.39360395 0.23407876 0.7517705
000080 88 3a c4 3e 59 4b bc 3e 53 f6 11 3f 64 40 15 3f
       0.38325906 0.36776236 0.57016486 0.5830138

model_3/separable_conv2d_1/BiasAdd/ReadVariableOp:0 f4 [12]
000000 16 b7 02 3e 3d 47 4c 3d 8f 72 ea bc cc b3 f2 3d
       0.12765154 0.049872626 -0.028619079 0.118507
000010 7c de 14 bd 1d 09 8d 3e 96 db 07 3e a7 f6 3f 3d
       -0.03634499 0.27546015 0.13267359 0.046866085
000020 74 8b 08 3e 66 7a 2f bb a2 9f 3d 3e 94 75 d9 3e
       0.13334447 -0.0026775836 0.18517926 0.42472517

const_fold_opt__1765 f4 [32, 1, 3, 3]
000000 6c 29 b4 3a 91 66 19 3b d9 1a c8 3c 30 2d 87 3b
       0.0013745255 0.0023407082 0.024426864 0.00412526
000010 59 10 62 3c 75 b7 d0 3d e5 d2 cf bc 78 60 28 3e
       0.013797843 0.10191242 -0.025369117 0.1644305
000020 24 69 62 3d 03 b2 c9 bd a8 16 03 bc 91 de 2f bd
       0.05527605 -0.09848406 -0.008001007 -0.042936865
000030 1c 75 3a bd 08 98 c1 3c 1c 0f 76 3b 43 fb a2 bc
       -0.04552184 0.023632064 0.0037545627 -0.019895202
000040 7a 02 28 bd 5f d5 7a bd ea ea 88 3d 94 b6 c8 3d
       -0.041017987 -0.061238643 0.06685431 0.09800449
000050 b1 f4 20 3e 03 eb 97 3d 7b 65 fc bd 0a 6e ad bd
       0.15718342 0.07417872 -0.12324043 -0.08468254
000060 9d 35 4b 3d 61 4b 63 be db 85 0c be e3 08 86 bc
       0.049611676 -0.22196724 -0.13722937 -0.01636166
000070 1b 23 b8 bc c5 be 04 3e 1e 38 63 3c 3a 5f 82 3d
       -0.022477677 0.12963398 0.01386836 0.06365819
000080 7d 2f 0d 3d ec e7 f6 3c 21 9d e5 bd e9 2f 3d bc
       0.034469116 0.030139886 -0.112116106 -0.011547067
000090 46 9f 81 bd 0b 1e cb bd 0e 1c 9c bd 9e 9f b4 bd
       -0.06329207 -0.099178396 -0.076225385 -0.08819507
0000a0 16 90 cc bd 2f 23 7f bd 84 e0 9c bd 9b ed 5d bd
       -0.0998842 -0.062289413 -0.076600105 -0.054181676
0000b0 5a 9b 10 bd 6d e9 37 bd 85 a9 5c 3d 5d 24 a1 bd
       -0.035304405 -0.044900347 0.053872604 -0.07868264
0000c0 29 d8 8f bd 92 32 bb 3d db bc 6b bd d1 f5 e2 3d
       -0.07023651 0.09140505 -0.057553153 0.11082042
0000d0 42 2e 45 3e f3 dc 1d 3d e6 af 7a bd 20 87 45 bd
       0.19255927 0.03854079 -0.061202906 -0.04822457
0000e0 c6 64 34 be 13 f4 7e bc 8d e9 03 3e dd b7 63 bd
       -0.17616567 -0.0155611215 0.12882061 -0.055595268
0000f0 d6 fc 9c 3d aa 9b d5 3d 73 d9 fd 3c 16 4b 58 3c
       0.07665412 0.10430081 0.030987477 0.013201496
000100 24 d9 a6 bd 4c cd b3 3c d8 bf c1 3c 95 bf 53 3e
       -0.08146885 0.02194848 0.023651049 0.20678551
000110 d8 30 37 bb 54 5c 2a 3e fb 30 59 3e 3c 88 b6 3d
       -0.0027952697 0.16636783 0.21210091 0.089127034
000120 f8 c2 64 3c 8d e1 8c 3d 25 03 63 3d 85 4c 1b bc
       0.0139625 0.06878958 0.05542292 -0.009478693
000130 31 80 81 bd e3 51 20 be 3f df 08 3d c4 10 f7 3c
       -0.06323279 -0.15656237 0.03341603 0.030159362
000140 54 b0 d9 3c 39 c7 2e be 93 89 63 bd b9 83 20 be
       0.026573338 -0.17068185 -0.055551123 -0.15675248
000150 8e f3 26 bd 31 3c 8a 3e 93 76 21 bd 0a d0 cd 3b
       -0.040759616 0.26999047 -0.03941972 0.0062809037
000160 55 5e 0b 3e a0 a9 dc ba f2 fe 98 3d e9 de 99 3e
       0.13610204 -0.001683522 0.07470502 0.3005288
000170 72 ba f0 3d 25 d3 f7 3c 49 40 04 3e 98 6a be 3d
       0.117543116 0.030252049 0.12915148 0.09297675
000180 e5 7d 36 bd 7d 51 b1 3d ff e6 12 bd 84 e2 dc bd
       -0.044553656 0.08658121 -0.035864826 -0.10785392
000190 e7 9a 75 ba 39 74 e1 bd 28 39 0d be c2 0f 8c bd
       -0.00093690905 -0.11008496 -0.13791335 -0.06838943
0001a0 22 c6 ef bd 28 62 ae 3d 9c ff 8e 3d 76 53 a6 ba
       -0.11707713 0.085148156 0.06982347 -0.0012689668
0001b0 64 7d e8 3d fe f0 74 3e c7 7e b1 3d 93 51 47 bd
       0.11352041 0.23920056 0.08666759 -0.04866178
0001c0 6b 8c 3f 3d 65 eb 06 be f9 5f fd bd f1 08 38 3e
       0.046764772 -0.13175733 -0.12371821 0.17972161
0001d0 e9 8e 09 be 75 b1 e7 bd db 9e 73 bd b7 01 a8 bd
       -0.13433422 -0.11313144 -0.05947767 -0.08203452
0001e0 63 b1 a5 bd 48 54 85 bd a0 8e 42 be 33 43 b7 bd
       -0.080904745 -0.06510216 -0.1899972 -0.08948364
0001f0 a6 cd c8 3c e5 c4 18 be 5c b6 89 3c e0 d8 2e 3e
       0.024512123 -0.1491886 0.016810589 0.17074919
000200 ee 5b ae 3d f7 7d c6 bb 30 1a af bd 19 09 87 3d
       0.08513628 -0.0060574966 -0.08549917 0.06593532
000210 17 fe 4d bd 8b 0a a1 bd 92 0f 9a 3b 62 b2 40 3d
       -0.050291147 -0.07863339 0.004701563 0.04704512
000220 43 8a a5 3c 40 48 77 bb c6 cd 66 bd 20 4e e4 bd
       0.02020753 -0.0037732273 -0.056348585 -0.11147714
000230 87 34 3b bd 5c 42 f0 3c 91 69 04 3e e0 e1 04 3e
       -0.04570439 0.029328518 0.12930895 0.1297679
000240 b2 a8 bc 3d 17 e1 17 bd 52 ad ec 3d 9f 31 d6 3d
       0.092118636 -0.037079897 0.11556496 0.10458683
000250 3a 39 57 3e 82 61 4e 3e a0 a0 f4 bc 1a e3 8d bc
       0.21017924 0.20154384 -0.029861748 -0.017320205
000260 d3 c8 1f be 2f 65 d4 bd f7 4f e6 bd 98 c4 18 be
       -0.15603952 -0.10370862 -0.11245721 -0.14918745
000270 8c 12 cb bd 4b 8b 48 3d e3 74 00 be 00 49 6c bc
       -0.09915647 0.048960965 -0.12544589 -0.014421701
000280 d0 8b 19 3d 10 c5 06 3d 2e 9d 3e 3d c3 33 91 bc
       0.03748685 0.032902777 0.046536617 -0.017724877
000290 a1 f6 a4 bd b5 ea 07 3e 60 7e 3b be 5e 8d 1e 3e
       -0.08054853 0.13273127 -0.18309927 0.15483615
0002a0 3a 8c 94 3d 1a fe 40 be de d4 c1 3c b3 8b 20 3e
       0.072533086 -0.18846932 0.023661073 0.15678291
0002b0 af f4 87 bc b1 f8 1c 3e a1 c8 e1 3d 92 22 90 bc
       -0.016596166 0.15329243 0.11024595 -0.01759461
0002c0 b1 17 90 3d ec 78 52 be 42 c2 88 be 92 47 86 be
       0.07035769 -0.2055394 -0.26710707 -0.2622648
0002d0 f6 20 8d bd 22 27 80 bc 7a dd b3 bd 23 f9 51 3b
       -0.068910524 -0.01564366 -0.08782478 0.0032039366
0002e0 aa d9 ae 3d 11 b6 25 bd e1 42 f6 bd 10 93 9a bd
       0.0853761 -0.040456835 -0.12024475 -0.07547581
0002f0 ee 0a 12 be 95 7e b7 3d fa f5 fa 3d f4 e2 fc 3d
       -0.14261982 0.089596905 0.122539476 0.123479754
000300 99 32 d2 3d 7b 04 bd 3d 6c ef 2a 3e 0a 49 97 3d
       0.10263557 0.0922937 0.16692895 0.07386978
000310 e8 7b df 3d db b1 23 3e 0b 76 da 3c d5 bf d3 3c
       0.10912305 0.15985815 0.026667615 0.025848309
000320 5a d3 d8 bd 3d 06 1c 3d 9d 94 1c 3e 93 eb 2f be
       -0.10587187 0.038091887 0.15291066 -0.17179708
000330 a0 a1 b6 bd 18 6f 2b 3d 6e 3a f5 bd b8 50 9f 3d
       -0.08917546 0.041853994 -0.11974035 0.07779068
000340 bd ec 8e bd 63 b8 c1 3c 53 e2 43 3e 1a 61 e2 bd
       -0.06978748 0.023647493 0.19129305 -0.11053677
000350 b9 1c ef 3d cd d7 c1 3c 48 f0 c3 bd 6a df 10 be
       0.116754 0.023662472 -0.095673144 -0.14147726
000360 e4 66 c2 bb 37 6b 88 bc 3c 33 48 bd 1f bb 5f 3e
       -0.0059326757 -0.016652687 -0.048876986 0.21848725
000370 d2 e8 87 ba ee 3f 56 bb 9d 12 a7 3c c2 fd 72 bd
       -0.0010369068 -0.0032691914 0.020394618 -0.059324034
000380 1e 71 93 bd 5b a0 18 be f9 ce c7 3b 0f 70 94 bd
       -0.0719931 -0.14904921 0.006097671 -0.07247936
000390 4b 41 7b bc ae 26 c0 3d 1b a8 96 3d ea b1 ec bd
       -0.015335391 0.093823776 0.07356282 -0.11557372
0003a0 a7 48 88 bc 55 e3 a2 bd f0 c2 75 bd e8 09 40 bd
       -0.016636206 -0.079535164 -0.06000036 -0.046884447
0003b0 1e a8 2f bd b2 99 ec bc 25 a4 c3 bd 40 66 f4 3c
       -0.04288494 -0.028881881 -0.095527925 0.029833913
0003c0 70 cd 12 bd 32 42 50 be db f8 6b bd bc 63 f0 bb
       -0.03584045 -0.20337752 -0.057610374 -0.007336108
0003d0 65 34 8f bd 63 77 5d bd 0d 0c e9 bc 03 51 c1 bd
       -0.06992415 -0.054068934 -0.02844813 -0.0943928
0003e0 88 d5 1a be 94 1c 2e bd 4a 45 0e be e9 24 ae bd
       -0.15120518 -0.042507723 -0.13893619 -0.08503134
0003f0 cc 66 6b bd c9 1e 80 3c 2f 23 1e 3d f7 ca 1c 3d
       -0.05747108 0.01563968 0.038607772 0.0382795

const_fold_opt__1759 f4 [128, 1, 1, 1]
000000 3c 3c 9f 3e b8 7a 71 be f2 1e 49 be 8f c8 cf bd
       0.31100643 -0.2358197 -0.19640711 -0.101456754
000010 36 77 a5 3d e5 f6 24 3e 2a f7 0c 3e 76 ec ad 3c
       0.08079378 0.16109808 0.1376616 0.021230917
000020 8f d0 29 be 0d b8 85 be 42 f6 24 bd e5 9c 42 be
       -0.16583465 -0.26116982 -0.040273912 -0.19005163
000030 5a b0 21 3e ee f7 a1 be 9a e5 a6 be e7 d1 b5 3d
       0.15789929 -0.31634468 -0.32597047 0.08877926
000040 c4 74 02 be d7 38 e6 3d 80 72 82 3e 40 20 33 be
       -0.12739855 0.1124131 0.25477982 -0.17492771
000050 7d 51 cb bc 83 0d 47 be 30 54 6a 3e b2 6b 20 bd
       -0.02481913 -0.19438748 0.22883677 -0.039165206
000060 8e fa b2 3e 45 f0 86 be 49 fd 3b 3e f3 8b 7b 3d
       0.34956783 -0.26355186 0.1835834 0.061412763
000070 3a e5 94 bc 9c ec 35 3d 5f 0a 3b 3e f4 e1 2c 3e
       -0.01817571 0.0444151 0.18265675 0.1688307
000080 b5 83 64 3d ac f8 c9 bd 0f 6e 69 3e 9d e3 97 3c
       0.055789668 -0.098618835 0.2279589 0.018541152
000090 58 54 47 be b4 9e 1b 3e 45 ae 40 3e 8d 6d 29 bc
       -0.19465768 0.15197259 0.18816479 -0.01034106
0000a0 38 e8 50 bd b3 0b b2 be d2 d3 1b be eb 36 9a 3e
       -0.05100271 -0.3477455 -0.15217522 0.30120024
0000b0 58 16 47 be c0 80 65 3e 87 fd 27 3e 9d 1f 4e bd
       -0.19442117 0.22412395 0.16405307 -0.050323118
0000c0 3a 0a 5b 3e 1a 5e 14 3d dd 59 50 be b5 57 0e 3d
       0.2139062 0.036222555 -0.2034678 0.034751613
0000d0 59 f7 65 be f6 f9 8e bd 92 43 72 bd c5 83 7d be
       -0.22457637 -0.0698127 -0.05914647 -0.24757297
0000e0 a0 c8 36 bd 9f b0 14 3d 56 1b e8 3d 09 b2 ab 3e
       -0.044624925 0.03630125 0.11333339 0.33534268
0000f0 8d 2f 8e bd 69 20 34 3e d3 0b 26 be 53 a6 36 3e
       -0.06942663 0.17590488 -0.16215448 0.17836885
000100 89 52 d5 bd ee 27 76 bd 5f 16 fe 3d 5c f5 14 be
       -0.10416133 -0.060096674 0.12406611 -0.14546722
000110 70 08 83 3d 28 da a2 3d a6 83 45 be 70 f2 4d bd
       0.06398094 0.07951766 -0.19288501 -0.050280035
000120 bd 41 95 bd d0 05 35 3d 43 41 64 bd 97 24 03 3d
       -0.07287929 0.044194996 -0.0557263 0.032017317
000130 cd af 09 bd bd cf 81 bc 4e 0e 8f 3c 53 76 46 3d
       -0.033614922 -0.015846128 0.017462876 0.048452687
000140 06 25 88 3c 25 c1 05 3e c1 d3 8b bc 72 28 e2 bc
       0.016619217 0.1306196 -0.017068746 -0.027607176
000150 bb 04 b5 3d f2 f9 69 3d 2b b3 7d bd cd 45 35 bc
       0.08838793 0.057123132 -0.061938446 -0.011064005
000160 6c b6 a0 3c 01 fb 29 be 4d 8d 25 3e 6c 52 8f bd
       0.019618236 -0.16599657 0.16167183 -0.069981426
000170 c9 de 44 bd 0c bf 33 be b0 0b 0e bd ed 4d c4 bd
       -0.048064027 -0.17553347 -0.034679115 -0.09585176
000180 d3 7f d4 3d 75 14 38 bd 30 7d a1 3d ae 29 1d bd
       0.10375943 -0.044941384 0.07885206 -0.038369827
000190 1e 19 b2 3d b5 e9 34 3e fe 8e 4a 3d e5 c1 b7 bb
       0.08696197 0.17667277 0.049452774 -0.005607831
0001a0 60 2a 0b 3c ff bc 97 bd 20 0e eb bc b8 92 1a bc
       0.00849399 -0.07409095 -0.028693259 -0.009434395
0001b0 be 9c 0f 3e 84 26 28 3e 6f a4 aa 3b fd 19 2a 3d
       0.14024636 0.16420943 0.0052075903 0.04152869
0001c0 2a c7 a0 bc 23 ff 53 3e e4 e3 36 3c 68 e9 64 3d
       -0.019626219 0.20702796 0.011162732 0.055886656
0001d0 e3 5e 34 bd 01 09 8f 3c 8d c7 15 3d db 82 eb bd
       -0.044035804 0.017460348 0.03656726 -0.11499568
0001e0 19 86 46 3e ab f1 0c be 90 e7 34 3e b5 22 3f 3e
       0.19387092 -0.13764064 0.17666459 0.18665583
0001f0 05 08 f5 bd 0b d3 18 3d 9c 63 37 3c 8c b2 ac 3b
       -0.1196442 0.03731064 0.011193182 0.005270308

const_fold_opt__1754 f4 [64, 1, 1, 1]
000000 3b af c0 3e 51 21 8a 3e 4f 67 32 be 0d 07 82 be
       0.3763369 0.26978543 -0.17422222 -0.25396004
000010 08 ff 4b 3e 9f f1 65 3b 4a 22 60 3e c7 c5 e0 3d
       0.19921505 0.0035086644 0.2188808 0.10975223
000020 02 ee 03 be 27 60 38 3e cc 52 8b 3e f5 24 41 be
       -0.12883762 0.18005429 0.27211607 -0.18861754
000030 77 da 0f be 7d d0 b9 bd aa b8 e6 3d 6f 44 7b be
       -0.14048181 -0.09072969 0.112656906 -0.24537824
000040 9c cd 60 3e 4a 13 98 3e d2 2e 01 3e dd 51 ed 3d
       0.21953434 0.29702216 0.12615517 0.1158788
000050 36 6e 7e be d0 21 2d be c9 45 ba bd a0 6a 16 be
       -0.2484673 -0.1690743 -0.09095342 -0.14689112
000060 07 67 3e 3e da 2e 98 bc 52 98 ab 3d e5 10 a0 3e
       0.1859399 -0.018577028 0.08378662 0.3126289
000070 d4 51 ae 3d 6b 1f b2 3c 93 f0 90 be 79 bf ea bd
       0.08511701 0.021743497 -0.28308544 -0.11462302
000080 3a 3b f9 3c c7 8c 9e 3d 71 11 87 bb c2 34 7b 3d
       0.03042375 0.07741695 -0.004121952 0.06132961
000090 70 28 a6 3e da d6 3c 3e f1 c0 47 3d ac 4f 0b 3e
       0.32452726 0.18441334 0.048767988 0.13604611
0000a0 ba 27 ba 3d f6 4c 99 bd 9f 54 29 3e b6 69 02 3d
       0.090896085 -0.07485382 0.16536187 0.031839095
0000b0 1c 4f e0 3d 24 0c 2b be 57 6d 35 3e c6 4c 85 3e
       0.10952589 -0.1670385 0.17717491 0.26035136
0000c0 9f e7 5d be c0 44 45 3e d5 24 38 3e 0e 9c c0 3e
       -0.21670388 0.19264507 0.179828 0.3761906
0000d0 49 40 76 3e 0f 25 3e be b6 79 4d be be 1f 16 be
       0.2404796 -0.18568824 -0.2006596 -0.14660546
0000e0 09 9c 80 3e 80 5e 21 be 2a 6d 28 3e c0 63 e1 3d
       0.25119045 -0.15758705 0.16447893 0.11005354
0000f0 5c 72 4a 3e 0c 90 30 3d 55 8f 92 be 1c 6c 65 be
       0.19770187 0.043106124 -0.2862498 -0.22404522

const_fold_opt__1752 f4 [16, 1, 3, 3]
000000 e1 4b 5a 3d 36 42 12 be 26 f3 96 bc 74 08 99 3e
       0.05329502 -0.1428307 -0.01842649 0.29889262
000010 97 05 5d 3e 02 49 96 bd 2d e6 59 3d 92 b9 9e 3e
       0.21584164 -0.07338144 0.05319803 0.31000954
000020 13 88 5c 3d 51 5a aa 3d a2 02 b9 3d 42 82 a2 bd
       0.053840708 0.08318008 0.09033705 -0.07935001
000030 5d 2a 8c bc 23 27 38 3e e1 e8 86 be 43 60 14 3e
       -0.017110044 0.1798368 -0.26349548 0.14489846
000040 ca 21 a3 3d f7 5a 01 be 56 16 b1 bd 29 00 18 be
       0.07965429 -0.12632357 -0.08646838 -0.14843811
000050 8d 60 9f bd c6 a1 33 be d1 26 99 3e 6c 2f 44 be
       -0.077820875 -0.1754218 0.29912427 -0.19158715
000060 e7 ac 0c bc 99 02 65 be 52 5f 3c 3e 02 e5 94 bd
       -0.008586145 -0.22364272 0.18395737 -0.07270242
000070 66 f9 66 be f1 4e 8d bd d1 e1 2a be da b5 cc bd
       -0.22556075 -0.068998225 -0.16687705 -0.09995623
000080 f9 38 09 3e 48 7d 4a 3e c7 04 22 3e f7 46 61 3e
       0.1340064 0.19774354 0.15822135 0.21999727
000090 87 b6 2c bc 2d 03 85 bc 21 cc 91 bd 50 5a 8f 3e
       -0.010541565 -0.016236866 -0.071190126 0.2799859
0000a0 22 28 0e 3e b0 19 bb be 87 c2 d2 3c 01 34 f8 3c
       0.13882497 -0.36543036 0.025727523 0.030298235
0000b0 56 64 9c be 74 c0 ac 3d fa ea 79 bd 6f 2f a8 3c
       -0.305453 0.08435145 -0.061015107 0.02053043
0000c0 b8 92 5e 3e b1 d6 96 3e 12 88 b1 bd 11 77 cb 3c
       0.21735656 0.29460672 -0.086685315 0.024837049
0000d0 83 6f c4 3c f6 b9 a9 be e4 2a 66 3e f9 ff 5d 3d
       0.023978954 -0.3314969 0.22477299 0.054199193
0000e0 62 34 c9 bc bf eb fc bd 66 f6 d4 bd f3 39 a4 3e
       -0.02456111 -0.123496525 -0.10398559 0.32075462
0000f0 de 66 c9 be 49 33 9c be c6 18 b9 3e ed 46 10 bd
       -0.39336294 -0.30507877 0.36151713 -0.03522389
000100 4a ac e1 bd dd a4 42 3e 66 9e b7 3b 17 1a e9 bc
       -0.1101919 0.19008203 0.0056035994 -0.028454823
000110 8e d1 34 bd 07 53 26 bd 4f a8 12 3e 76 5c f9 bc
       -0.04414516 -0.040606525 0.14322017 -0.030439597
000120 c2 4f a8 ba 9f 12 5a be 54 86 9a bd 9d d1 d1 bd
       -0.0012841152 -0.21296166 -0.07545152 -0.10245059
000130 5a 5f 67 bd 58 72 8b bd f2 5a 59 be 66 b3 35 3d
       -0.05648742 -0.06808919 -0.21226099 0.04436054
000140 63 d1 f3 3c 5f f8 bf bd 65 9d 48 be c1 1b b5 3c
       0.02976293 -0.09373545 -0.19591291 0.02210796
000150 d0 0e 43 3e cf 8f 98 3d 83 db 6a be 39 73 47 3d
       0.1904862 0.07449304 -0.229353 0.04869387
000160 40 5b 3b 3e e8 6e 80 3e d7 96 72 bd 47 9b 0d be
       0.18296528 0.25084615 -0.059225883 -0.13828765
000170 82 c2 93 3b c9 f2 19 be 95 61 2a be 0a 98 97 3e
       0.004509271 -0.15034021 -0.16638787 0.29608184
000180 7a ab 35 3c 85 7d f8 bd b9 33 ce 3d e6 1c 91 bd
       0.0110882465 -0.12133316 0.10068459 -0.0708559
000190 e9 af 8d 3c 07 9c f5 3c 30 98 ab bc 3d 59 5b be
       0.017295795 0.029981626 -0.020946592 -0.2142076
0001a0 c9 a1 43 3e a4 ec e0 bd 92 9d a6 bd ab c7 0c 3d
       0.19104685 -0.109826356 -0.08135523 0.034370106
0001b0 a7 59 86 39 87 e8 c8 3d a1 4c 71 be 13 ee c6 bd
       0.00025625268 0.09809976 -0.23564388 -0.09713378
0001c0 60 d6 f7 bd cf 3b 15 bd 36 c3 14 3e 23 eb e2 3e
       -0.12101436 -0.03643399 0.14527592 0.4432002
0001d0 ff 10 6b bb 73 77 29 be 6f a4 93 3e 0f d4 fb 3d
       -0.0035868285 -0.16549473 0.2883639 0.12296306
0001e0 2f 38 50 3e 82 27 75 3e 45 1c 13 3d 39 6a f1 bc
       0.20333932 0.23940852 0.03591563 -0.029469596
0001f0 26 72 63 3d bb 28 93 3d e5 e2 ad 3c 41 14 db 3c
       0.055528782 0.07185503 0.021226356 0.026743056
000200 c8 3f ac 3d 7d 95 87 be a4 24 f8 3e f1 44 98 3b
       0.08410603 -0.26481238 0.48465455 0.0046468903
000210 5b ab 87 bd 69 70 cc bb 6d 66 dd bd d7 99 98 bd
       -0.0662448 -0.0062389863 -0.10810552 -0.074512176
000220 cb 04 18 3e 30 be 01 3e 8d e0 e1 3d c4 56 2d bd
       0.14845578 0.12670207 0.11029158 -0.042319074
000230 e8 78 c1 bd ac 0a f7 3d e8 43 16 3e ac 9f fc 3d
       -0.09446889 0.120625824 0.14674342 0.123351425

const_fold_opt__1751 f4 [96, 1, 1, 1]
000000 96 9f 9c 3c af 4e bd 3e b1 9f 1e be a5 e4 1f b9
       0.019119065 0.36974093 -0.15490605 -0.00015248598
000010 9d 94 63 be 35 d3 c9 be d6 ad 23 be 54 77 b1 3d
       -0.2222466 -0.3941895 -0.15984282 0.08665338
000020 27 28 a0 be 71 14 7d be 5a e4 5c be 00 99 bc 3e
       -0.31280634 -0.24714829 -0.21571484 0.3683548
000030 09 55 b2 3e 67 09 50 3e 0b a1 8f bc 1a d4 67 be
       0.34830502 0.20316087 -0.017532846 -0.22639504
000040 a8 09 6a be 79 ad 5e 3e 12 ee 3f 3e a5 d0 88 3d
       -0.22855246 0.21745862 0.1874316 0.06680421
000050 25 c7 76 be 4a 35 25 be 82 84 71 3d 90 74 99 be
       -0.24099405 -0.1613361 0.05896426 -0.29971743
000060 ad 13 58 3e f4 1b 44 be 42 93 29 3d 62 3c 4c bd
       0.21101256 -0.19151288 0.0414002 -0.049862273
000070 74 9c fa 3d 1c 49 74 be e0 9d 54 be 94 97 78 be
       0.12236872 -0.23856014 -0.2076335 -0.24276572
000080 70 4b 09 3e fe 82 3d 3d fb c0 25 3e b4 f8 d2 3d
       0.13407683 0.046267502 0.16186897 0.103013426
000090 4d 8d 7c bd 9e 23 c5 bc 8f c0 11 3d cc bc 57 bd
       -0.061658192 -0.024064835 0.03558403 -0.052670285
0000a0 8a 8b 8e 3d 21 1e d9 3c ea 80 03 bd e9 63 03 3d
       0.06960209 0.026503624 -0.032105364 0.032077704
0000b0 4a c0 9a bd ab 55 13 bd 1b f2 c4 bd ae 49 3f be
       -0.075562075 -0.03597037 -0.096164905 -0.1868045
0000c0 bf e7 8d bc 34 1d 20 3c 05 85 28 bb 5b b9 87 bd
       -0.01732242 0.009772588 -0.0025714051 -0.066271506
0000d0 78 1b b4 be 84 08 dc 3c 3a d8 25 be 0d a7 c3 bd
       -0.35177207 0.02685953 -0.16195765 -0.09553347
0000e0 30 9e a6 bc 85 90 32 bc f3 53 6a bd 87 db 51 be
       -0.020339102 -0.010898714 -0.057208966 -0.204939
0000f0 4e ad 0a bb 46 d1 de bc c6 7e 3f 3a da 68 bb 3d
       -0.0021160427 -0.027199399 0.00073049625 0.09150858
000100 d8 6a 24 be 1f 6a 57 3d 18 bb 0a bd cd e1 21 bc
       -0.16056383 0.05259144 -0.033869833 -0.009880495
000110 da b0 b2 3d 3c 7c 8d 3d 27 a2 cd bc 46 e2 45 bd
       0.08725138 0.069084615 -0.025101734 -0.048311494
000120 87 f6 1f 3e 5a a1 db bc 02 f0 ea bd 2b fa 08 be
       0.15621386 -0.026810337 -0.11471559 -0.13376682
000130 86 54 74 3e 30 5a 6a bd 05 77 18 3e 2f 8d 48 bd
       0.23860368 -0.057214916 0.14889152 -0.04896277
000140 46 f7 50 3d 7a 40 f9 bc 2b 6c 97 bc f8 b5 a3 3a
       0.05101707 -0.030426253 -0.018484196 0.0012490144
000150 4a bb 94 3d 22 71 a5 3b 4b 96 30 3d 25 6b 76 3e
       0.07262285 0.005048887 0.04311208 0.2406431
000160 8d 52 e2 bd b6 af 15 bd 89 09 08 be 70 be c6 bd
       -0.110509016 -0.036544524 -0.13284887 -0.09704292
000170 24 3c b1 3a ca 3f 46 bb 0b df 22 bc 40 1b b6 3b
       0.0013521952 -0.0030250424 -0.009940873 0.0055574477

const_fold_opt__1748 f4 [128, 1, 1, 1]
000000 cd 3f 86 be 96 c9 df 3d b6 bb 81 3e 02 6f 01 3c
       -0.2622055 0.10927121 0.25338525 0.0079000015
000010 5d ed 6e 3d 5e c3 70 be b8 83 f3 3c fe 53 1a be
       0.058331836 -0.23512027 0.029725894 -0.15071103
000020 c9 72 87 3e 53 c2 16 3e 7a 0e 3a be d1 75 98 bd
       0.26454762 0.14722566 -0.18169585 -0.07444347
000030 7c b8 81 3e 90 04 36 bd 39 08 93 3e 92 3f 97 bd
       0.25336063 -0.044437945 0.2871721 -0.07385172
000040 ba 28 90 bd a3 d0 42 bd f3 f0 5a bc 6d c4 5a 3e
       -0.07039018 -0.047562253 -0.013363111 0.21363993
000050 37 e6 5e 3e 1d de 6b be a8 28 10 bd d4 3a 20 3e
       0.21767507 -0.23033948 -0.035195023 0.15647441
000060 fb 34 98 3e 2a 79 04 3e 7c b8 74 3e 6b e3 66 3e
       0.2972792 0.12936845 0.238985 0.2254769
000070 cb 14 f3 3d 51 d3 35 be c5 e0 1c b8 6d 02 05 3e
       0.118692 -0.17756392 -3.740263e-05 0.12989207
000080 50 f5 cf be 17 0b a7 3b 5d 67 96 bb 98 45 7c 3d
       -0.40616846 0.0050977576 -0.0045899586 0.061589807
000090 de 30 6c 3e 1c 1f 12 be ed 06 8a bd 20 c8 b7 3d
       0.23065516 -0.1426968 -0.06739602 0.08973718
0000a0 3a 80 db 3d 61 12 b3 3c 43 a2 58 be 6d c3 0a be
       0.10717817 0.02185935 -0.21155648 -0.13551112
0000b0 09 ec 49 be eb d6 ba 3d a9 64 1b be 5b bd 9e bd
       -0.19718947 0.091230236 -0.15175118 -0.077509604
0000c0 87 4d 2e be 41 b5 52 3e ce 14 70 3e ff d3 85 3e
       -0.17021762 0.20576955 0.23445436 0.26138303
0000d0 75 12 30 be 9f 42 24 3e b3 00 ff 3d f9 f7 68 be
       -0.17194541 0.16041039 0.12451305 -0.22750844
0000e0 a2 ab 40 3e 24 b7 4a bb 25 a1 86 be c8 7a fc bd
       0.18815473 -0.0030931914 -0.2629482 -0.12328106
0000f0 2f bc ca 3d 77 d4 06 3e 28 01 29 bd 78 c2 bd bd
       0.098991744 0.13166986 -0.04126087 -0.092656076
000100 31 44 53 3d 99 0c be 3d 1b c0 08 bd 28 3c a7 bd
       0.051578704 0.092797466 -0.03338633 -0.08165771
000110 46 a7 35 3d 75 44 0b bc 01 00 81 3d 55 91 4b 3e
       0.044348978 -0.008500208 0.06298829 0.19879659
000120 bd 60 9f 37 0f cc 51 3a a5 ab e5 3c 77 ae 3f 3d
       1.8999324e-05 0.00080031244 0.028035948 0.046797242
000130 44 58 19 3d bb 1f 13 bc 2d cf 73 bd 20 33 4d 3c
       0.037437692 -0.008979733 -0.05952375 0.012524396
000140 cd d1 fd bc 1e c8 11 be 28 a9 46 be f9 86 dc bc
       -0.03098383 -0.14236495 -0.19400465 -0.026919829
000150 4f 48 99 3c 11 4f 44 3d e3 ff 55 3c 9d 0d 26 bd
       0.018711237 0.047926966 0.013061496 -0.040540326
000160 80 40 9b 3b bc 0b 08 3e e8 84 ac bd 73 91 98 bd
       0.0047379136 0.13285726 -0.08423787 -0.07449617
000170 37 97 f8 3c 9a 16 cb bc a7 37 01 be 96 11 2d 3e
       0.030345542 -0.02479105 -0.12618886 0.1690124
000180 d5 e9 3a be 6d e5 de 3d c3 71 15 3c a2 e3 60 bc
       -0.18253262 0.10883603 0.009121361 -0.013726147
000190 b4 bc 8f bd fc d2 18 bd 64 f1 22 bc 62 af 23 3e
       -0.07018414 -0.037310585 -0.009945247 0.15984872
0001a0 64 7d b0 be fb 9e 12 bd c6 31 72 3e 1f c2 4e bd
       -0.34470665 -0.035796147 0.236518 -0.050478097
0001b0 ae f3 c8 3c 1b 31 2d 3d b7 bb 49 3c 0c 08 6c 3c
       0.024530258 0.04228316 0.012312821 0.014406215
0001c0 ac 17 83 3d ab a0 c3 bd 44 01 85 bd 9c 10 23 3c
       0.064009994 -0.09552129 -0.06494382 0.00995269
0001d0 16 d6 54 bd e6 f1 05 bd 5f 01 01 bd 1d ba 8f bd
       -0.05196198 -0.032701395 -0.03149545 -0.0701792
0001e0 40 be 32 3e de 87 ba bd 2a 57 a7 3c ae 96 23 be
       0.17455387 -0.09107946 0.020427305 -0.15975448
0001f0 96 40 28 3d d9 9b 93 3d 36 20 54 3e eb bc e8 bc
       0.04107722 0.0720746 0.20715412 -0.028410396
