deploy/best_epoch_weights.tflite (tflite, 556832 bytes, 185 tensors)

model_2/separable_conv2d_1/BiasAdd/ReadVariableOp/resource f4 [12]
0	0x3e001e87	0.12511645
1	0x3dd3b7ab	0.10337766
2	0xbd0a6624	-0.033788815
3	0x3de773f9	0.11301417
4	0xbd8b4545	-0.068003215
5	0x3e893694	0.26799452
6	0x3da2a724	0.07942036
7	0x3d3c6ff9	0.046005223
8	0x3e012d2b	0.12614886
9	0x3994d6ef	0.00028388898
10	0x3e455a46	0.19272718
11	0x3edf0662	0.43559557

model_2/separable_conv2d_1/separable_conv2d/depthwise f4 [3]
0	0x00000000	0.0
1	0x00000000	0.0
2	0x00000000	0.0

model_2/separable_conv2d_1/separable_conv2d/depthwise1 f4 [1, 6, 6, 3]
0	0x3da18f1c	0.07888624
1	0x3c4df466	0.012570476
2	0xbc8380f0	-0.016052693
3	0x3d7d276d	0.061805177
4	0xbe3a31d2	-0.18183067
5	0xbd58d9aa	-0.052941956
6	0x3d346e57	0.04405054
7	0x3c8c4771	0.01712391
8	0x3d921d6c	0.07134518
9	0xbd72464a	-0.059149064
10	0xbd9f4991	-0.077777036
11	0xbd7cd284	-0.0617242
12	0xbcd62266	-0.02613945
13	0x3d8fa1fa	0.070133165
14	0x3d81a3e7	0.0633009
15	0xbca9b37f	-0.020715473
16	0xbae5009a	-0.0017471493
17	0x3d29df58	0.041472763
18	0xbdf5520b	-0.11978539
19	0x3cd45834	0.025920965
20	0x3bef86cc	0.00730977
21	0x3e066084	0.13122755
22	0xbde3025d	-0.11084435
23	0xbd07756e	-0.033070974
24	0xbe0dd084	-0.13849074
25	0x3d8dd23f	0.06924867
26	0x3e22bdda	0.15892735
27	0xbdb80ad2	-0.08986439
28	0xbdbd78f7	-0.09251588
29	0xbd61aafd	-0.055094708
30	0x3e16ad1f	0.14714478
31	0x3bc1df13	0.005916485
32	0xbd805125	-0.06265477
33	0xbc872637	-0.016497714
34	0x3e18fb51	0.1493962
35	0x3ca161f7	0.019700034
36	0xbe3bbc35	-0.18333514
37	0xbd48193d	-0.048852194
38	0x3d574be9	0.052562628
39	0xbd82f3c3	-0.0639415
40	0x3e2312e0	0.15925169
41	0x3e42857c	0.18996233
42	0xbdc3abb0	-0.09554231
43	0x3ea93d6e	0.3305468
44	0x3eb25da2	0.3483706
45	0x39c33749	0.0003723449
46	0x3dada3a8	0.084784806
47	0x3e72aeb1	0.23699452
48	0xbe40c2c5	-0.18824299
49	0xbe006b6d	-0.1254098
50	0x3db98f62	0.09060551
51	0x3d8dc30e	0.06921969
52	0xbd64dad2	-0.055872746
53	0xbd2c3333	-0.042041015
54	0xbd9decdd	-0.07711194
55	0xbd6358dc	-0.055504665
56	0x3de99262	0.114048734
57	0xbea6e4c7	-0.32596418
58	0x3ea9d88d	0.33173028
59	0x3df551af	0.119784705
60	0xbed8d433	-0.42349395
61	0x3f0a14b4	0.5393784
62	0x3f0096af	0.50229925
63	0xbc4c59b6	-0.012472561
64	0x3eaa8425	0.33303943
65	0x3e3d9dca	0.18517223
66	0x3d1b86e3	0.037970435
67	0x3c597a94	0.013273854
68	0xbd6f676c	-0.05844824
69	0xbd460b63	-0.048350703
70	0xbe8374fa	-0.25675184
71	0x3ce64cc8	0.028112784
72	0x3cbfbb58	0.023404762
73	0xbdce3e09	-0.10070426
74	0xbd5d5820	-0.05403912
75	0x3da27e25	0.079342164
76	0x3d88fc3a	0.066887334
77	0xbd72bbd6	-0.059261166
78	0xbeb32210	-0.34986925
79	0x3ec9119b	0.39271244
80	0x3ed56d78	0.4168508
81	0xbd6a05cd	-0.05713444
82	0x3dbd9d3d	0.092585064
83	0x3d077431	0.033069793
84	0x3d5af2e3	0.05345429
85	0xbdecb1b9	-0.115573354
86	0xbde29217	-0.11063021
87	0x3d8f2417	0.069893055
88	0xbddcea03	-0.10786822
89	0x3c314d1e	0.010821609
90	0x3dceaa38	0.100910604
91	0xbd646b64	-0.05576648
92	0x3d9792d8	0.07401055
93	0xbcfaa9e4	-0.030598588
94	0xbe1cea44	-0.1532374
95	0xbddf26e2	-0.10896088
96	0xbe1a068e	-0.15041563
97	0x3d8f50a0	0.069978
98	0x3e0a8872	0.13528612
99	0x3d4c5183	0.049882423
100	0xbe2811bc	-0.16413015
101	0xbca3578a	-0.019939203
102	0x3c6665f5	0.014062394
103	0xbde8573f	-0.11344766
104	0xbcfe4a46	-0.031041276
105	0x3a8e635c	0.0010863352
106	0x3e5fd0a6	0.21856937
107	0xbcad66d6	-0.0211672

model_2/separable_conv2d_1/separable_conv2d f4 [12, 1, 1, 3]
0	0x3cb9c1ba	0.022675384
1	0x3d50b41d	0.05095302
2	0xbe8280cb	-0.25488886
3	0xbec7f2ed	-0.39052525
4	0x3ee7cc11	0.45272878
5	0x3e403fbd	0.18774314
6	0xbf026475	-0.50934535
7	0x3e7e9c54	0.24864322
8	0xbf0ec3ff	-0.55767816
9	0xbeda11a0	-0.42591572
10	0x3ed89d2a	0.42307407
11	0xbe775c93	-0.24156408
12	0xbee45544	-0.44596303
13	0x3de72cea	0.112878636
14	0xbeccca06	-0.39997882
15	0x3e902625	0.28154102
16	0x3e59f8af	0.21286272
17	0x3ec0a053	0.37622318
18	0x3ef00069	0.46875313
19	0x3f1d475d	0.61437017
20	0xbe8959df	-0.2682638
21	0xbf4f78d8	-0.8104377
22	0x3d560436	0.05225011
23	0xbf140a3b	-0.5782811
24	0xbe8d3513	-0.27579555
25	0x3f01c6b2	0.5069381
26	0xbaedf245	-0.0018153867
27	0x3efd817c	0.4951285
28	0x3ef2b847	0.47406217
29	0xbec0a548	-0.376261
30	0x3e4028a8	0.18765509
31	0x3f32b098	0.6980071
32	0x3ebe716c	0.3719591
33	0x3ec97bf3	0.39352378
34	0x3f187fe8	0.5957017
35	0x3f1a7434	0.6033356

model_2/backbone.stem.conv.conv/separable_conv2d/depthwise f4 [12]
0	0x00000000	0.0
1	0x00000000	0.0
2	0x00000000	0.0
3	0x00000000	0.0
4	0x00000000	0.0
5	0x00000000	0.0
6	0x00000000	0.0
7	0x00000000	0.0
8	0x00000000	0.0
9	0x00000000	0.0
10	0x00000000	0.0
11	0x00000000	0.0

model_2/backbone.stem.conv.conv/separable_conv2d/depthwise1 f4 [1, 3, 3, 12]
0	0x3e317d5b	0.17332976
1	0x3d90da51	0.070728905
2	0xbe6ec4e2	-0.23317292
3	0xbea59ee2	-0.3234778
4	0x3d61d375	0.0551333
5	0x3f1ce77f	0.61290735
6	0x3d792a2d	0.060831238
7	0xbe2afdde	-0.16698405
8	0x3ebb5457	0.36587784
9	0x3d9d644d	0.076851465
10	0x3e184dc8	0.14873421
11	0x3cc7cbe1	0.02438921
12	0xbcde89e1	-0.027165355
13	0x3eaaf266	0.3338806
14	0xbe0fbd60	-0.14037085
15	0xbeadf85b	-0.33978543
16	0xbc8df648	-0.01732935
17	0x3ea7451c	0.32669914
18	0xbdba7def	-0.09106051
19	0x3ec255d2	0.379561
20	0x3f01b530	0.50667095
21	0xbe16f9f2	-0.14743784
22	0x3e856210	0.26051378
23	0xbedee7c6	-0.43536204
24	0x3e38aaed	0.18033953
25	0x3eda15d3	0.42594776
26	0xbe96ba4a	-0.29439002
27	0xbd238d37	-0.039929595
28	0xbe88e37f	-0.26736066
29	0x3e918316	0.28420323
30	0x3c23cc2b	0.009997408
31	0x3ea1d5d2	0.31608444
32	0x3f0f243d	0.5591467
33	0xbe33dad7	-0.1756395
34	0xbcae7625	-0.02129657
35	0xbe1ba1cd	-0.15198441
36	0xbc6cb785	-0.014448051
37	0x3cbc03dd	0.02295106
38	0xbe2397e1	-0.15975906
39	0xbecd1487	-0.40054724
40	0x3e1995c7	0.14998542
41	0x3f06e1d2	0.52688324
42	0x3d368a1f	0.044565316
43	0x3c5d89e3	0.013521644
44	0xbdea9c4a	-0.11455591
45	0xbc3f5829	-0.011678734
46	0x3f4529c6	0.77016866
47	0x3f192951	0.5982867
48	0x3db4692e	0.08809124
49	0xbd3b4cee	-0.045727663
50	0xbde5cb04	-0.11220363
51	0x3ebcd842	0.36883742
52	0x3d7b9370	0.061419904
53	0xbe8c31a6	-0.2738163
54	0xbe0b429b	-0.13599627
55	0x3d99f015	0.07516495
56	0xbef2d6d4	-0.47429526
57	0xbcbbae70	-0.022910327
58	0x3ece54d6	0.402991
59	0xbe9330e5	-0.2874824
60	0xbe2353c1	-0.15949918
61	0xbf0c2a07	-0.5475163
62	0x3e2296bd	0.15877815
63	0x3ed9b5f9	0.42521647
64	0xbe11a58a	-0.14223304
65	0xbefe5b91	-0.49679235
66	0xbcf0208f	-0.0293124
67	0x3dde2800	0.10847473
68	0x3e9e40ef	0.30908915
69	0xbdf744b3	-0.1207365
70	0xbdd089e4	-0.101825505
71	0xbf63b3e4	-0.88946366
72	0xbe30d4e7	-0.17268716
73	0xbdd99fd4	-0.10626188
74	0x3d1db0e2	0.038498767
75	0xbed15d84	-0.4089166
76	0x3e2ce21d	0.1688313
77	0xbd4ca4e2	-0.049961932
78	0xbd49f2f0	-0.04930395
79	0xbe3052af	-0.17219041
80	0xbe1f44f2	-0.15553644
81	0x3d0497dc	0.032371387
82	0xbd4ff77c	-0.05077313
83	0x3f6bb644	0.9207499
84	0xbd887948	-0.066637576
85	0xbe40b1ec	-0.18817872
86	0x3e9fd392	0.31216103
87	0x3e09f2ee	0.13471577
88	0x3ce91b8a	0.028455514
89	0xbf080df7	-0.5314631
90	0x3d455cc8	0.048184186
91	0xbdc3f2ff	-0.09567832
92	0xbf339d3e	-0.7016181
93	0x3e202e56	0.15642676
94	0xbf62db4e	-0.8861588
95	0x3f178a4c	0.591954
96	0x3df597a1	0.119918115
97	0x3cb8ce3e	0.022559281
98	0x3eb9cdc9	0.36289814
99	0x3f12b24e	0.5730332
100	0x3dd5f4c0	0.10447073
101	0xbee85bbe	-0.45382494
102	0x3e4dcc5d	0.2009749
103	0xbe903a82	-0.28169638
104	0xbe9603a0	-0.2929964
105	0x3de19da7	0.11016398
106	0xbef407bb	-0.47662148
107	0xbeba0859	-0.36334494

model_2/backbone.stem.conv.conv/separable_conv2d f4 [32, 1, 1, 12]
0	0xbed359d0	-0.4127946
1	0xc0f904e2	-7.781846
2	0xc1708e2b	-15.034709
3	0xc1b9b741	-23.21448
4	0x4161d56c	14.114605
5	0x408a1dd0	4.316139
6	0x414f511d	12.957303
7	0xc0bb3f1f	-5.851455
8	0x41a1e904	20.238777
9	0xc185dfd3	-16.73429
10	0xc10662e9	-8.399148
11	0x413fca7e	11.986937
12	0xc0d394ad	-6.611899
13	0xc0d1c037	-6.5547137
14	0xbffbbb8d	-1.9666611
15	0x4130421d	11.016141
16	0xc056ab18	-3.3541927
17	0x41025af0	8.147202
18	0x417c36c3	15.76337
19	0xc0fbde99	-7.8709226
20	0xc0ac4659	-5.3835874
21	0x41201b02	10.006594
22	0xc15f5350	-13.95784
23	0xbf658331	-0.8965331
24	0x3fa5cdec	1.2953467
25	0x4182722c	16.305748
26	0x40381f2f	2.8769033
27	0xc07ab988	-3.917574
28	0x417dd571	15.86461
29	0xbf93416a	-1.1504338
30	0xc10d1e0b	-8.819835
31	0x416e795b	14.904628
32	0x41140cc5	9.253118
33	0xc06e24b2	-3.7209897
34	0xc19df4ea	-19.744587
35	0x3fb7c3f5	1.4356676
36	0x4080891f	4.0167384
37	0x3fc5f96e	1.5466745
38	0xc0ea3e74	-7.3201237
39	0xbf90c673	-1.1310562
40	0xc01d8814	-2.4614305
41	0xbdd671c7	-0.1047092
42	0xbeb4e4e2	-0.35330874
43	0xc08cc877	-4.399471
44	0xc10bb3b9	-8.731378
45	0x40f19db3	7.5505004
46	0x4067d416	3.6223197
47	0x4133eff7	11.246085
48	0x414fa5ab	12.977946
49	0xc12703e9	-10.438455
50	0xc06c0783	-3.6879585
51	0x410499e5	8.287572
52	0xc1475b83	-12.459842
53	0x4093c17f	4.61737
54	0xc169a306	-14.602301
55	0x3fdd82ba	1.730552
56	0xc1914400	-18.158203
57	0x4146b462	12.419039
58	0xc0777a5c	-3.8668432
59	0xc0194fd6	-2.3954978
60	0xc0e97213	-7.295175
61	0xc10577b1	-8.341722
62	0xc097b4b4	-4.7408085
63	0x412624e3	10.384006
64	0x3e70f3c6	0.23530492
65	0xc101e25e	-8.117765
66	0xc00741e3	-2.1133964
67	0xc08b6d7a	-4.357114
68	0xc17c1ec1	-15.757508
69	0xc0d31ece	-6.5975103
70	0x40a50937	5.157375
71	0xc13c2dd1	-11.761186
72	0xc0d3928f	-6.6116405
73	0x416878e3	14.529513
74	0xc10c7368	-8.778175
75	0x3fd3472c	1.6506095
76	0xc121d688	-10.114876
77	0xc0f01c80	-7.503479
78	0xbf34c776	-0.70616853
79	0x3fc55338	1.5416021
80	0x3f484b7d	0.78240186
81	0x40b0ce65	5.5251946
82	0x410de6d2	8.868853
83	0x415a15c2	13.630312
84	0xc049d2aa	-3.153483
85	0x408349a8	4.1027412
86	0xbf793a42	-0.9735452
87	0xc0167105	-2.3506482
88	0x4092db79	4.589291
89	0x403b9167	2.9307497
90	0x3e680ac5	0.22660358
91	0x413ee17e	11.930052
92	0x4095833a	4.672269
93	0x3f64c184	0.8935778
94	0xc1184d49	-9.518868
95	0x41363b98	11.389549
96	0x40952811	4.661141
97	0xbfdf1e7e	-1.743118
98	0x40d91c33	6.7846923
99	0x4096b80b	4.709966
100	0x4040e779	3.014128
101	0x40b3db08	5.620487
102	0x3c66c7c6	0.014085716
103	0x40abc77e	5.368102
104	0xc129011c	-10.562771
105	0xc0f29853	-7.5810943
106	0xc06f4c19	-3.7390196
107	0x4108af9c	8.542873
108	0x417cb2b8	15.7936325
109	0x40ced0a7	6.4629703
110	0x40fb5731	7.8543935
111	0xc1163f18	-9.390404
112	0x41b24e09	22.288103
113	0xc19d6710	-19.675323
114	0x41654459	14.329186
115	0x41d2184f	26.26187
116	0x3f854bb5	1.0413729
117	0xc1821637	-16.260847
118	0x41dd45be	27.659054
119	0x417a3333	15.6375
120	0x41773ae7	15.45188
121	0xc1c27823	-24.30866
122	0x413a530d	11.645276
123	0xbe4b570b	-0.19857423
124	0x41746ca6	15.2765255
125	0xc1a1ca67	-20.22383
126	0xc18f54d7	-17.916426
127	0x417e440e	15.891615
128	0x408ffe86	4.4998198
129	0xc1c72c32	-24.89658
130	0x41691d4c	14.569653
131	0x3d2b6ef7	0.04185387
132	0xbf9b6270	-1.2139416
133	0x408ebd81	4.460633
134	0xc00ace8e	-2.168857
135	0xbfde76f0	-1.7380047
136	0x4085c2d3	4.1800323
137	0x41188f91	9.53505
138	0xc016583c	-2.3491354
139	0x400b08ba	2.1724076
140	0xc0ae55ed	-5.447989
141	0x4031a4ae	2.7756763
142	0x4117c5fa	9.485834
143	0x406c9e69	3.6971686
144	0xc0db9715	-6.8621926
145	0xc0afbef1	-5.4920583
146	0x4109f896	8.62319
147	0xbfae4555	-1.3614908
148	0x40e38203	7.1096206
149	0x3d6bc4d5	0.05756076
150	0x40b8ac91	5.771065
151	0xc05c248b	-3.4397304
152	0x40b4f1b3	5.6545043
153	0x401c8722	2.4457479
154	0xc0abe7e7	-5.3720584
155	0xc1299159	-10.597985
156	0x40a6632f	5.1996074
157	0x41753bb6	15.327078
158	0x4118f13c	9.558895
159	0xbfaa232a	-1.3291981
160	0x406d4718	3.7074642
161	0xc11ba061	-9.726655
162	0x40061647	2.0951097
163	0x4185445e	16.658382
164	0x41315bc1	11.084901
165	0x401fa6cd	2.4945557
166	0x41a84169	21.031939
167	0x41758738	15.345512
168	0x40a3dbc9	5.1205792
169	0xbff507e5	-1.9143034
170	0xc099c9d9	-4.8058896
171	0xc0ef95fe	-7.4870596
172	0x408af24e	4.342078
173	0x40e460a2	7.136796
174	0xbe1ecd04	-0.15507895
175	0xc027fd50	-2.624836
176	0xc0dbe3af	-6.8715434
177	0xc08caa0f	-4.395759
178	0x40b12f3a	5.537015
179	0x40ec984a	7.39359
180	0xc079a6fc	-3.900817
181	0x41356520	11.337189
182	0x3db68ca4	0.08913544
183	0x4103422e	8.203657
184	0x4107784c	8.466869
185	0x403f3345	2.9875042
186	0x413d9654	11.849201
187	0x4111b368	9.1063
188	0xc1388b8c	-11.534069
189	0x408edf39	4.464749
190	0xc15e4c3e	-13.893614
191	0x41106317	9.024192
192	0xc160d263	-14.051364
193	0xc001a805	-2.02588
194	0x40eb7b21	7.3587804
195	0xc1b9dc2c	-23.232506
196	0x3f485d07	0.7826695
197	0x40a9f559	5.3111997
198	0xc09f6af9	-4.981808
199	0x411e416c	9.890972
200	0x41578be8	13.471657
201	0xc1639ad8	-14.225304
202	0x40e58241	7.17215
203	0xc049b644	-3.1517496
204	0xc04d4e4b	-3.2079036
205	0x4057b259	3.3702605
206	0x4098b035	4.7715096
207	0x40227d11	2.5388834
208	0xc04f1f64	-3.236291
209	0x414d5de4	12.8354225
210	0x417e6f96	15.902243
211	0x40806c9d	4.0132585
212	0xbefcafb0	-0.4935279
213	0xc09fde78	-4.995907
214	0x403279f6	2.788694
215	0xc11a8964	-9.658543
216	0x417bb3b3	15.731372
217	0x40db22e9	6.8480115
218	0x3f61d1bb	0.8821065
219	0xc1119d00	-9.10083
220	0x418a395a	17.278004
221	0x42010c94	32.262283
222	0x418a7d62	17.311222
223	0xc155ab30	-13.354294
224	0x40dac73c	6.8368206
225	0x4099a7c7	4.8017306
226	0xbf8ea623	-1.1144451
227	0x411f292a	9.94755
228	0x413e7ff7	11.906241
229	0x40e3a33b	7.1136756
230	0xc05969e9	-3.3970892
231	0x3fefa503	1.8722233
232	0xc140d033	-12.05083
233	0x40384526	2.8792205
234	0xc0fb03e7	-7.8442264
235	0x412184b9	10.094903
236	0xc08a2c0f	-4.3178782
237	0x3f81e800	1.0148926
238	0xc16e199c	-14.881252
239	0xc10d6d91	-8.83925
240	0x4082e853	4.09086
241	0xc00760c6	-2.1152816
242	0x40e69bd1	7.2065206
243	0xbfe5c939	-1.7952033
244	0xc06c5c25	-3.693124
245	0xc11b3f63	-9.702975
246	0xc0956e2f	-4.6697
247	0xbe484544	-0.19557673
248	0x3e139df4	0.14415723
249	0x4046dbab	3.1071575
250	0xc0ceb0d7	-6.459087
251	0xc10ceed3	-8.808307
252	0xc166f007	-14.4336
253	0xc09aadcc	-4.8337154
254	0x3fde477f	1.7365569
255	0x3e19f3d6	0.15034422

model_2/backbone.dark2.0.conv/separable_conv2d/depthwise f4 [1, 3, 3, 32]
0	0xbcc77f58	-0.024352714
1	0x3d66a99f	0.056314107
2	0x3c2206a5	0.0098892795
3	0xbe061ce9	-0.13096966
4	0x3c9cd50b	0.019144556
5	0xbd03c9d7	-0.03217491
6	0xbe059d20	-0.1304822
7	0xbc332f27	-0.010936535
8	0x3d63991b	0.055565935
9	0xbb8fc67d	-0.0043876753
10	0x3e159982	0.1460934
11	0x3d67a885	0.056557197
12	0x3daeed7d	0.08541391
13	0xbd7ffe1d	-0.0624982
14	0xbdd12476	-0.102120325
15	0x3df80120	0.121095896
16	0xbd4dbb17	-0.05022725
17	0x3bff4dc8	0.0077912547
18	0xbd239160	-0.039933562
19	0xbbe65168	-0.0070287473
20	0x3d44fda3	0.04809345
21	0x3e1b4eb4	0.15166742
22	0xbac6e900	-0.0015175641
23	0xbd0b4855	-0.034004528
24	0xbd8ae8a0	-0.06782651
25	0xbd59dc93	-0.05318887
26	0xbddb1a97	-0.10698431
27	0x3c779576	0.015111318
28	0x3c24bbfd	0.0100545855
29	0xbe1bc204	-0.1521073
30	0x3e0c3c91	0.13694979
31	0xbbec974a	-0.0072201835
32	0x3d51d0b1	0.051224414
33	0x3a459d7a	0.00075384194
34	0xbd838ab3	-0.06422939
35	0x3d40f102	0.047104843
36	0xbd31db3c	-0.04342197
37	0x3d22c3d9	0.039737556
38	0xbca72b28	-0.02040632
39	0xbc9a7737	-0.018855674
40	0xbd6d0f2e	-0.057875805
41	0x3d13f73b	0.03612445
42	0x3e0c9e98	0.13732374
43	0xbdb5cbee	-0.08876787
44	0x3de0e2f3	0.10980787
45	0x3dfcd5db	0.12345477
46	0xbecf80ac	-0.40527856
47	0xbe954f00	-0.29161835
48	0x3e0b998f	0.13632797
49	0xbcce4d96	-0.02518348
50	0xbd0cc7a7	-0.03437009
51	0x3d966db6	0.073451445
52	0xbcd7c8f9	-0.026340948
53	0xbd6174db	-0.055043083
54	0xbe7c5862	-0.2464309
55	0x3e0b959b	0.13631289
56	0x3e0b2524	0.13588387
57	0xbc9e5cff	-0.019331453
58	0xbd9de93f	-0.07710504
59	0xbdeb0b49	-0.11476762
60	0xbc8edefd	-0.017440313
61	0x3bd29165	0.006426024
62	0xbe3638ba	-0.17795077
63	0x3d689f3b	0.05679248
64	0xbd9f65e3	-0.07783105
65	0x3aa5640e	0.001261832
66	0x3e08c583	0.13356595
67	0xbb89ebb5	-0.0042090067
68	0xbca77863	-0.020443147
69	0xbd25b1a8	-0.04045263
70	0x3da3b1d8	0.079929054
71	0x3e993ba1	0.29928306
72	0x3c064d28	0.008197106
73	0x3dba117b	0.090853654
74	0x3df587b2	0.119887725
75	0x3d4545f6	0.048162423
76	0x3e5e17f0	0.21688819
77	0x3e24cc91	0.16093661
78	0x3c28a346	0.010292834
79	0xbe4c5941	-0.19955923
80	0x3e4011ce	0.18756792
81	0xbe5ac744	-0.21365076
82	0x3dbbd836	0.09172098
83	0xbc047ee0	-0.00808689
84	0xbe028907	-0.12747584
85	0x3c43a55e	0.011941282
86	0xbd770bcd	-0.06031399
87	0x3e1f6d4c	0.15569037
88	0x3d7cc879	0.061714623
89	0xbdac5adf	-0.0841577
90	0xbe0b1984	-0.13583952
91	0xbd17ff22	-0.037108548
92	0xbda61fd5	-0.0811154
93	0xbd4e2584	-0.050328746
94	0xbd4b24aa	-0.049595512
95	0x3de950a5	0.11392335
96	0xbe948a12	-0.2901159
97	0x3d7318b5	0.059349734
98	0xbd492797	-0.04911002
99	0x3e1ba25e	0.15198657
100	0x3cfdc0c4	0.030975707
101	0xbe42c08f	-0.19018768
102	0xbe2c91ed	-0.16852541
103	0xbe4c73a0	-0.19965982
104	0x3e51f435	0.20503314
105	0x3cdbd79a	0.026836205
106	0x3ddc3e82	0.1075411
107	0x3db5eb06	0.08882718
108	0x3e01f7ed	0.12692232
109	0x3e237fc1	0.15966703
110	0xbe090cbc	-0.13383764
111	0x3dc533e2	0.096290365
112	0x3cc5866a	0.024111945
113	0x3cf19aef	0.029492823
114	0xbcc59e1e	-0.024123248
115	0xbc6f57ae	-0.014608307
116	0x3e11904c	0.14215201
117	0x3da1cd50	0.079004884
118	0xbd4c8a3a	-0.04993651
119	0x3c7700a8	0.01507584
120	0xbe4938e0	-0.19650602
121	0xbbff3098	-0.0077877752
122	0xbe07159a	-0.13191834
123	0xbd3bb481	-0.04582644
124	0x3d909b82	0.07060911
125	0xbd9a566e	-0.075360164
126	0x3e901936	0.28144234
127	0x3e2dc14d	0.1696827
128	0x3e475c9d	0.19468923
129	0x3e2b7772	0.16744784
130	0x3c688cc0	0.014193714
131	0xbd279922	-0.040917523
132	0xbe04a702	-0.12954333
133	0xbd1d1f63	-0.03836001
134	0xbdf4af38	-0.11947483
135	0xbe0769e8	-0.13223994
136	0x3d0cc652	0.03436882
137	0x3e364a70	0.17801833
138	0x3d978f23	0.07400348
139	0x3e98bbbc	0.2983073
140	0xbe07c134	-0.13257295
141	0x3d97d02b	0.07412752
142	0xbe94a363	-0.29030904
143	0x3dd2c808	0.10292059
144	0x3d89b90a	0.067247465
145	0xbdd03f6f	-0.10168349
146	0xbdcdc11f	-0.100466006
147	0x3d769f58	0.060210556
148	0xbe8290ef	-0.255012
149	0x3e4e1566	0.2012535
150	0xbe6d90c5	-0.23199756
151	0x3dc69517	0.096964054
152	0x3ed0ba92	0.40767342
153	0x3e09bc09	0.13450636
154	0xbe974ffa	-0.29553205
155	0xbe481ebb	-0.19542973
156	0xbdda1662	-0.106488004
157	0xbe2ab289	-0.16669668
158	0xbe4c4af4	-0.19950467
159	0xbe564510	-0.20924783
160	0x3e9779ef	0.29585215
161	0x3db0a588	0.086253226
162	0x3d97ea14	0.07417694
163	0xbe8fa888	-0.28058267
164	0xbddeb065	-0.10873488
165	0xbbfd04db	-0.007721526
166	0xbc6cfe72	-0.014464961
167	0x3e2ffee8	0.17187083
168	0xbd8d4918	-0.06898707
169	0x3d47e26a	0.04879991
170	0x3cb411a9	0.021981077
171	0x3de277ea	0.11058028
172	0xbd79d06b	-0.06098978
173	0xbdd1d3b2	-0.10245456
174	0x3e071c63	0.13194422
175	0xbe72baeb	-0.23704116
176	0x3d1a5b6b	0.03768484
177	0xbe693247	-0.22773086
178	0xbdda5de6	-0.10662441
179	0x3e0ec9b8	0.13944137
180	0xbe8b59a0	-0.27216816
181	0xbd96cbb5	-0.07363073
182	0x3e9c68d5	0.3054873
183	0x3e29becb	0.16576688
184	0x3ebd3bc5	0.36959663
185	0x3daa0e77	0.0830354
186	0xbe66149d	-0.22468801
187	0xbdd69129	-0.10476906
188	0xbe8389bd	-0.25691023
189	0x3c0f64d4	0.008752067
190	0x3d2571c1	0.040391687
191	0xbeaf965f	-0.34294412
192	0xbda2fc32	-0.07958259
193	0x3b5b325e	0.003344677
194	0xbde5e535	-0.112253584
195	0x3c4ddc4d	0.012564731
196	0xbc49502e	-0.012287183
197	0xbb410c86	-0.0029456927
198	0x3ddb46a4	0.10706833
199	0xbd95afb5	-0.07308904
200	0x3c46e37b	0.0121391965
201	0x3c0e63f6	0.008690825
202	0xbd42f9ab	-0.047601383
203	0xbd5a7859	-0.05333743
204	0x3e0470b2	0.12933615
205	0x3c48558e	0.012227429
206	0xbb7a110a	-0.0038157129
207	0x3dc4db44	0.09612134
208	0xbdc0daa1	-0.094167
209	0x3e445df7	0.1917647
210	0xbca5c462	-0.020235244
211	0x3db67c49	0.08910424
212	0xbe503697	-0.20333324
213	0x3b281fa2	0.002565362
214	0xbd38a810	-0.045082152
215	0x3d92833f	0.071539395
216	0x3d2b2f19	0.041792963
217	0xbd284abd	-0.0410869
218	0x3cf4b8c0	0.029873252
219	0xbc4b8532	-0.012421893
220	0x3e516c67	0.20451508
221	0xbd674541	-0.05646253
222	0x3dc15497	0.09439962
223	0x3d285c2a	0.04110352
224	0xbcf2cbd7	-0.029638214
225	0x3e08d2b1	0.13361622
226	0x3dbe02b7	0.092778616
227	0xbe080660	-0.13283682
228	0xbd633b08	-0.05547622
229	0xbe63b53e	-0.22237107
230	0x3dc4ec69	0.09615404
231	0xbe5c48f5	-0.21512206
232	0x3bd6302b	0.006536504
233	0x3d02862f	0.03186625
234	0xbd28baaa	-0.04119364
235	0x3d33e43a	0.043918826
236	0xbc4c8876	-0.012483707
237	0x3bd6a270	0.006550126
238	0x3a2b8b89	0.00065439247
239	0x3de417ed	0.11137376
240	0xbd4b2d61	-0.049603824
241	0x3cc146d0	0.023593336
242	0xbd39af2a	-0.045333065
243	0x3cfafdb2	0.03063855
244	0xbe82fd27	-0.25583765
245	0x3d77b4be	0.060475104
246	0x3d5c60a3	0.053803097
247	0x3cfd2b6f	0.0309045
248	0x3db6c7b3	0.08924808
249	0x3d546aa3	0.05185951
250	0xbdf269ed	-0.1183661
251	0xbd9d0d00	-0.07668495
252	0x3d25f251	0.040514294
253	0x3d8a8896	0.06764333
254	0x3db08362	0.08618809
255	0xbe8fef2f	-0.2811217

model_2/backbone.dark2.0.conv/separable_conv2d i1 [32, 1, 1, 32]
0	0x0a	10
1	0xcb	-53
2	0xad	-83
3	0x32	50
4	0x60	96
5	0xad	-83
6	0xaa	-86
7	0x23	35
8	0x20	32
9	0x4b	75
10	0x07	7
11	0x44	68
12	0xc3	-61
13	0x38	56
14	0x3f	63
15	0xec	-20
16	0x0f	15
17	0x67	103
18	0x08	8
19	0x42	66
20	0x25	37
21	0xb1	-79
22	0xd8	-40
23	0x1f	31
24	0xc8	-56
25	0xf8	-8
26	0xec	-20
27	0x7f	127
28	0x42	66
29	0x74	116
30	0x54	84
31	0xe0	-32
32	0x29	41
33	0x56	86
34	0x5a	90
35	0xd9	-39
36	0x0a	10
37	0x09	9
38	0x3a	58
39	0x1f	31
40	0xc1	-63
41	0xbf	-65
42	0x28	40
43	0xc8	-56
44	0xd9	-39
45	0x24	36
46	0x81	-127
47	0xc7	-57
48	0x0a	10
49	0xe5	-27
50	0x3d	61
51	0xd9	-39
52	0xf6	-10
53	0xc6	-58
54	0x44	68
55	0xcf	-49
56	0xe9	-23
57	0xd5	-43
58	0x49	73
59	0x17	23
60	0xe8	-24
61	0x3d	61
62	0xc5	-59
63	0xf4	-12
64	0xa8	-88
65	0xc3	-61
66	0xf8	-8
67	0x2a	42
68	0x27	39
69	0xea	-22
70	0xe5	-27
71	0x3d	61
72	0xe1	-31
73	0x81	-127
74	0xfd	-3
75	0x37	55
76	0xbe	-66
77	0xf9	-7
78	0x3c	60
79	0x0c	12
80	0xf3	-13
81	0x28	40
82	0x8f	-113
83	0xaf	-81
84	0xeb	-21
85	0xa1	-95
86	0xd0	-48
87	0xbb	-69
88	0x32	50
89	0xe2	-30
90	0x0c	12
91	0x3c	60
92	0x2c	44
93	0xb2	-78
94	0xb6	-74
95	0xe8	-24
96	0xde	-34
97	0xa9	-87
98	0x12	18
99	0xd2	-46
100	0xc2	-62
101	0x6a	106
102	0x81	-127
103	0xdc	-36
104	0xeb	-21
105	0xbf	-65
106	0xbc	-68
107	0xfe	-2
108	0xd2	-46
109	0xcf	-49
110	0x04	4
111	0x3a	58
112	0xed	-19
113	0x19	25
114	0xfb	-5
115	0x37	55
116	0x3d	61
117	0x66	102
118	0x43	67
119	0x73	115
120	0xc9	-55
121	0x2e	46
122	0xb6	-74
123	0xf5	-11
124	0x19	25
125	0x08	8
126	0xc6	-58
127	0xc9	-55
128	0x46	70
129	0x5f	95
130	0x1b	27
131	0x28	40
132	0x90	-112
133	0x72	114
134	0xe8	-24
135	0x46	70
136	0x81	-127
137	0x1c	28
138	0x59	89
139	0xfe	-2
140	0xa7	-89
141	0x94	-108
142	0xd8	-40
143	0x19	25
144	0x4d	77
145	0x78	120
146	0x92	-110
147	0x51	81
148	0x51	81
149	0xd2	-46
150	0xb2	-78
151	0x43	67
152	0x05	5
153	0xa3	-93
154	0xf1	-15
155	0xf1	-15
156	0xda	-38
157	0x37	55
158	0xa0	-96
159	0xd2	-46
160	0x34	52
161	0x02	2
162	0x39	57
163	0x12	18
164	0xb9	-71
165	0xf7	-9
166	0xf0	-16
167	0x24	36
168	0x40	64
169	0xc6	-58
170	0x0d	13
171	0xb1	-79
172	0xea	-22
173	0x40	64
174	0x32	50
175	0x09	9
176	0xab	-85
177	0x40	64
178	0x22	34
179	0x1e	30
180	0xfd	-3
181	0x09	9
182	0x28	40
183	0x28	40
184	0x7f	127
185	0xf9	-7
186	0xfb	-5
187	0x1b	27
188	0xf0	-16
189	0xb1	-79
190	0x37	55
191	0x39	57
192	0x96	-106
193	0x39	57
194	0xa0	-96
195	0xe1	-31
196	0x08	8
197	0x63	99
198	0xc6	-58
199	0x2a	42
200	0x40	64
201	0xd3	-45
202	0x3f	63
203	0xc2	-62
204	0xa9	-87
205	0xd7	-41
206	0x73	115
207	0xd9	-39
208	0x33	51
209	0x69	105
210	0x41	65
211	0x33	51
212	0x17	23
213	0x45	69
214	0x7f	127
215	0x59	89
216	0x1b	27
217	0xb7	-73
218	0xe1	-31
219	0x24	36
220	0xe7	-25
221	0xdf	-33
222	0xb6	-74
223	0xf1	-15
224	0xa8	-88
225	0xb5	-75
226	0x8e	-114
227	0xa5	-91
228	0x38	56
229	0xac	-84
230	0x51	81
231	0x1e	30
232	0xdc	-36
233	0xd1	-47
234	0xd4	-44
235	0x34	52
236	0x5a	90
237	0x58	88
238	0x1a	26
239	0x2c	44
240	0xfc	-4
241	0x73	115
242	0xc1	-63
243	0xd5	-43
244	0x81	-127
245	0xad	-83
246	0x22	34
247	0x0c	12
248	0x69	105
249	0x4f	79
250	0x13	19
251	0xe4	-28
252	0xa4	-92
253	0x6f	111
254	0x1e	30
255	0x43	67

model_2/backbone.dark2.1.cv1.conv/separable_conv2d/depthwise f4 [1, 1, 1, 32]
0	0x3d063225	0.032762665
1	0x3ee0c9ff	0.4390411
2	0x3e105d13	0.14098005
3	0x3e94b5a4	0.2904483
4	0xbd987237	-0.0744366
5	0x3e913373	0.28359565
6	0x3ea89556	0.32926434
7	0xbe94d8ef	-0.29071757
8	0x3e35b20d	0.17743702
9	0xbd6809ad	-0.056649853
10	0xbe0d1219	-0.13776435
11	0x3e9653bb	0.29360756
12	0xbd3bd496	-0.045857035
13	0x3eafbc2a	0.34323245
14	0x3eadd63e	0.33952516
15	0xbe486ea2	-0.19573453
16	0x3e2fc0da	0.17163411
17	0x3cd04759	0.025424646
18	0x3e251360	0.16120672
19	0x3cc5d7b2	0.024150703
20	0xbea21311	-0.31655172
21	0x3dc6e58b	0.097117506
22	0xbe09ea07	-0.1346818
23	0x3e7289cb	0.23685376
24	0xbebe8f5c	-0.3721875
25	0x3f031a02	0.5121156
26	0x3e77871c	0.24172634
27	0xbe462609	-0.19350447
28	0x3e5bb667	0.214563
29	0xbe94c21d	-0.29054347
30	0x3da4d578	0.080485284
31	0xbe46c8cc	-0.19412535

model_2/backbone.dark2.1.cv1.conv/separable_conv2d f4 [16, 1, 1, 32]
0	0x3fae59f1	1.3621198
1	0xbf347d64	-0.7050383
2	0xbdbea027	-0.093078904
3	0x4015e3ea	2.3420358
4	0xbf29916d	-0.6623753
5	0x3fa8eda2	1.319752
6	0xbf1e54c9	-0.6184812
7	0x4029e9f6	2.6549048
8	0x401b8a0e	2.4303012
9	0xbfc0ae26	-1.5053146
10	0xbfc6f374	-1.5543046
11	0x3f04e1e2	0.5190717
12	0x3f7a3eea	0.9775225
13	0x3f83f6c7	1.0309685
14	0xbf8dcc43	-1.1077961
15	0x3f204854	0.62610364
16	0xbee4cd3e	-0.44687837
17	0x4018fc28	2.3903904
18	0x4013ebdc	2.3112707
19	0x4016f1ac	2.3585005
20	0x4006fd11	2.109196
21	0x3fa03150	1.2515049
22	0x403ddd72	2.966641
23	0xc0343ffe	-2.8164058
24	0xbf15e396	-0.58550394
25	0xbd299766	-0.04140415
26	0xc032591a	-2.7866883
27	0xbfc17cfd	-1.5116268
28	0x3f57ae62	0.8425046
29	0xbfdccdba	-1.7250283
30	0x3f009ba4	0.5023749
31	0x4032954d	2.7903626
32	0xc0082be2	-2.1276784
33	0x3ee48a6d	0.4463686
34	0xbe8925b3	-0.26786575
35	0x400de3ff	2.2170408
36	0xbff25a1a	-1.8933747
37	0xbf03c019	-0.5146499
38	0xc0348ded	-2.8211625
39	0xbfbc0328	-1.4688463
40	0xbdd3adf9	-0.10335917
41	0x400aed1d	2.1707222
42	0x401ea8f6	2.4790626
43	0xc0358ef8	-2.8368511
44	0xbfb82810	-1.4387226
45	0xc064072c	-3.5629377
46	0x3f910151	1.1328527
47	0x3fd70c48	1.6800623
48	0x400d0330	2.2033195
49	0xbfba2a8c	-1.4544234
50	0x3f7b6355	0.98198444
51	0x40062848	2.0962086
52	0xc02470d5	-2.5693867
53	0xc020a55a	-2.5100923
54	0x3fe4a750	1.786356
55	0x3fca0053	1.5781349
56	0x3fdf0b34	1.7425294
57	0xbdb8388d	-0.08995161
58	0xbf1d4612	-0.61435044
59	0x3fa4f9a8	1.2888689
60	0xbf92f929	-1.1482288
61	0xbcd40bbe	-0.025884505
62	0x3fea04b8	1.828269
63	0x3f8295d7	1.0201977
64	0x3e8b014f	0.27149436
65	0x3da34aca	0.07973249
66	0xbe69bc84	-0.22825819
67	0x3f81f074	1.0151505
68	0x3f04e54d	0.51912385
69	0xbfb10ff6	-1.3832996
70	0x3e67bd76	0.22630867
71	0xbee9aeb5	-0.45641103
72	0x3f7e6029	0.9936548
73	0x3d962aa5	0.073323525
74	0x3d02634c	0.031832978
75	0x3f8d29ff	1.1028441
76	0xbf73d58d	-0.9524773
77	0xbf50f94c	-0.81630397
78	0xbfa5e7a4	-1.2961316
79	0x3eb39eff	0.35082242
80	0x3e534600	0.20632172
81	0x3f041f38	0.51610136
82	0xbf7660c6	-0.96241415
83	0xbf46cab3	-0.77653044
84	0x3f102370	0.56304073
85	0x3dcc761a	0.099834636
86	0x3f2d56fd	0.6771086
87	0xbf8f564b	-1.119821
88	0xbf728eeb	-0.94749326
89	0xbf93baa7	-1.1541337
90	0xbeb99296	-0.3624465
91	0xbc1400b9	-0.009033375
92	0xbe273d6c	-0.16332024
93	0x3fdb9086	1.715348
94	0xbea5ee29	-0.32408264
95	0xbdb8604f	-0.090027444
96	0xbea7969a	-0.32732087
97	0x3d7a90b1	0.061173145
98	0xbebc307d	-0.36755744
99	0xbf82e3aa	-1.0225728
100	0x3f16e77b	0.5894696
101	0x3f7794f0	0.96711636
102	0xbec97f5d	-0.39354983
103	0xbfbdb500	-1.4820862
104	0x3f8aea55	1.0852762
105	0x3eb26249	0.3484061
106	0xbf05e3ed	-0.5230091
107	0x3efd4738	0.49468398
108	0x3f7df235	0.99197704
109	0xbf1fac90	-0.62372684
110	0xbe475af7	-0.19468294
111	0x3dfb13c7	0.122596316
112	0xbedce5e6	-0.4314415
113	0x3f856478	1.0421286
114	0xbf4b8c40	-0.7951088
115	0xbe94332c	-0.2894529
116	0xbf210369	-0.6289583
117	0xbf3a6430	-0.72809124
118	0x3f34366e	0.70395553
119	0xbf3dfead	-0.7421673
120	0x3e75cb15	0.24003251
121	0xbf7258cc	-0.94666743
122	0xbf37af64	-0.71752
123	0x3f684ea0	0.9074497
124	0xbe284c08	-0.16435254
125	0xbe6350fe	-0.22198865
126	0xbf09d5a6	-0.53841627
127	0xbde1a77c	-0.11018273
128	0x3fb981a6	1.449269
129	0xc00e28a6	-2.221231
130	0xbfa34a20	-1.2756996
131	0xbe473875	-0.1945513
132	0x3fd6e4d0	1.6788578
133	0xbfc75770	-1.5573559
134	0xbf67ac25	-0.90497047
135	0x3fc2ca40	1.5217972
136	0x3fdb2ef6	1.7123706
137	0x3fe68c9e	1.8011663
138	0x3fab16bf	1.3366317
139	0x3f8b9f07	1.0907906
140	0xbfee9750	-1.8639927
141	0xbf9bca56	-1.2171123
142	0x3eb177a4	0.3466159
143	0xbf394c17	-0.7238173
144	0xbe26a0b3	-0.1627224
145	0x3f10b03a	0.565189
146	0xbed4166a	-0.4142335
147	0x3f564a85	0.8370746
148	0x3e758335	0.23975833
149	0x3f817cac	1.0116172
150	0xbe379788	-0.17928898
151	0xbf4d7717	-0.8025984
152	0x3f7dd299	0.9914947
153	0x3fc32b31	1.5247556
154	0xbddbb51c	-0.10727903
155	0xbefca996	-0.49348134
156	0xbf02fb5a	-0.5116478
157	0xbfae33a8	-1.3609514
158	0xbf88a52b	-1.0675405
159	0x3ec9c160	0.39405346
160	0x3e887611	0.26652578
161	0x3f194227	0.59866565
162	0x3e8dd9a3	0.27705106
163	0xbeb6765b	-0.35637173
164	0x3e6de116	0.23230395
165	0x3ed894ef	0.42301127
166	0xbf835d1d	-1.0262791
167	0x3f1ad137	0.60475487
168	0xbf6bceee	-0.92112625
169	0x3eb9052a	0.36136752
170	0x3f34e23d	0.7065771
171	0xbf52fc1e	-0.8241595
172	0xbdec1fb2	-0.11529483
173	0xbf3b6f13	-0.7321636
174	0xbf3ae9ea	-0.73013175
175	0xbda9be0e	-0.08288203
176	0x3f55bee6	0.8349441
177	0xbf64991d	-0.8929613
178	0xbe934523	-0.28763685
179	0x3ed0c026	0.40771598
180	0xbf6ac7aa	-0.91710913
181	0x3f187cb4	0.5956528
182	0x3f6d0522	0.9258596
183	0x3f222b29	0.6334711
184	0xbf6b7f73	-0.9199135
185	0xbed649da	-0.4185322
186	0xbf92984f	-1.1452731
187	0xbf3a59fd	-0.7279356
188	0x3d00cdca	0.031446256
189	0xbd00592f	-0.031335052
190	0xbe670bbc	-0.2256307
191	0x3f60b255	0.87772113
192	0xc042b25c	-3.0421362
193	0xbf9911e7	-1.1958588
194	0xbf0a62d6	-0.5405706
195	0x3f6f5823	0.9349386
196	0xbf2cc78b	-0.6749198
197	0x40158873	2.3364532
198	0x3f74bc38	0.955997
199	0x3f328e5a	0.6974846
200	0xc039d9b8	-2.9039135
201	0xbf1640eb	-0.58692807
202	0xbecd5225	-0.40101734
203	0x40358d6c	2.8367567
204	0xbff83045	-1.9389731
205	0xbf38b9b7	-0.7215838
206	0xc0040759	-2.0629485
207	0xbf8068ee	-1.0032022
208	0x400889ab	2.1334026
209	0xbff668d1	-1.9250737
210	0x3f26495a	0.64955676
211	0xbfe07315	-1.753512
212	0xbf9491fb	-1.160705
213	0xbfd071c2	-1.6284716
214	0x3f58437a	0.8447796
215	0xc01ac2ea	-2.4181466
216	0xbd085979	-0.033288453
217	0xbeb6d7db	-0.3571156
218	0x4034d192	2.8252912
219	0xc0109850	-2.2592964
220	0x3ed55c81	0.41672137
221	0xc06ada87	-3.6695879
222	0xbe3e51df	-0.18585919
223	0xbee2d44b	-0.44302592
224	0x3fc8a57a	1.56755
225	0x3ffdbc79	1.9823142
226	0x3f86585d	1.0495716
227	0x3f8d7678	1.1051779
228	0x3f7c8478	0.9863963
229	0xbf037f59	-0.5136619
230	0xbeb692e7	-0.35658953
231	0xbfbbd55f	-1.4674491
232	0xbf22862b	-0.63485974
233	0x3f7cb21f	0.9870929
234	0x3ca8a892	0.020588193
235	0x3fd627d6	1.6730907
236	0xbe32ae9c	-0.1744942
237	0x3f08d73d	0.5345343
238	0xbf11f43d	-0.57013303
239	0xbf0381f3	-0.5137016
240	0x3fe2a17c	1.7705531
241	0xc000a403	-2.0100105
242	0x3fdc4de1	1.7211267
243	0x3f57d6a8	0.84311914
244	0xbe9e2947	-0.30890867
245	0x3faf03c0	1.367302
246	0x3e9cb973	0.30610237
247	0xbff214f5	-1.8912646
248	0xbfd2bdb8	-1.6464148
249	0xbe9e858f	-0.30961272
250	0x3f92f01d	1.1479527
251	0xbfcc618a	-1.5967267
252	0x3ff1fcb5	1.8905245
253	0x3f58eaf9	0.8473354
254	0xbfa6c271	-1.3028089
255	0x3ed53447	0.41641447

model_2/backbone.dark2.1.m.0.cv1.conv/separable_conv2d/depthwise f4 [1, 1, 1, 16]
0	0x3ecb0c6c	0.39657915
1	0x3f09c723	0.53819484
2	0x3f10fc91	0.56635386
3	0x3ed0c797	0.40777275
4	0xbeabbb24	-0.33541214
5	0xbe8d0445	-0.2754232
6	0x3e9f3312	0.3109365
7	0x3ee28dfc	0.4424895
8	0xbe748069	-0.2387711
9	0xbe954113	-0.2915121
10	0xbe958c79	-0.29208735
11	0xbdedf42b	-0.11618837
12	0xbee29e1c	-0.44261253
13	0xbedef278	-0.43544364
14	0x3ef4fc24	0.47848618
15	0xbe523eb8	-0.20531738

model_2/backbone.dark2.1.m.0.cv1.conv/separable_conv2d f4 [16, 1, 1, 16]
0	0x3f31a58c	0.6939323
1	0xc020f84a	-2.5151544
2	0x3fe91097	1.8208188
3	0xbf8faee6	-1.122525
4	0xbef45b42	-0.47725874
5	0xbf7ead46	-0.99483144
6	0x3f376bc7	0.7164883
7	0x3fa90914	1.3205895
8	0x3f068029	0.52539307
9	0x400f87bc	2.2426596
10	0xbf52f26d	-0.8240116
11	0xbfe6e510	-1.8038654
12	0x3f948f54	1.160624
13	0x3f7c1dd6	0.98483026
14	0x3e28edd5	0.16496976
15	0xbf814bad	-1.010122
16	0xbfa5f2d4	-1.296473
17	0xbfac61c9	-1.3467342
18	0x3fb3805c	1.4023547
19	0x3faf11b8	1.3677282
20	0xbe78747d	-0.24263187
21	0x3fa99f9c	1.3251834
22	0x3e9f00ce	0.310553
23	0xbfc9029f	-1.5703925
24	0x3fdc28c7	1.7199944
25	0x3eb7aaad	0.35872403
26	0xbfea5ba6	-1.8309219
27	0xbfab2141	-1.3369523
28	0xbff50bf5	-1.9144274
29	0x3fa44bef	1.2835673
30	0xbf21a5e4	-0.63143754
31	0x3eac4de8	0.33653188
32	0x3f1ea84c	0.6197555
33	0x3fa0909a	1.2544129
34	0xbec551be	-0.38538927
35	0xbf6175bb	-0.8807027
36	0x3f302a07	0.6881413
37	0x3f4f6e9c	0.8102815
38	0xbf6ec988	-0.9327626
39	0xbfec1c48	-1.8446131
40	0xbf86a791	-1.0519887
41	0x3ff207c7	1.8908623
42	0x3fffaa86	1.9973915
43	0xbe03d70f	-0.12875007
44	0xbfaf54b8	-1.3697729
45	0xbef5284f	-0.47882316
46	0x401dc5e5	2.4652035
47	0x3fe36741	1.7765886
48	0xbf5ac5af	-0.8545789
49	0xbf89b1c6	-1.0757377
50	0x3fb7d61c	1.4362216
51	0x3dcbdbc6	0.09954028
52	0x3f57bfe8	0.842772
53	0x3fd3fb31	1.6561033
54	0x3e6932de	0.2277331
55	0xc0057e10	-2.0858192
56	0xc0383d7c	-2.8787527
57	0x3ec78ba9	0.3897374
58	0xbd35becd	-0.044371415
59	0xbfc1b8db	-1.5134538
60	0xbf9aaa2f	-1.2083186
61	0x3e76c4c0	0.24098492
62	0x3e8fdad6	0.28096646
63	0x4008fe70	2.1405296
64	0x401b4e33	2.426648
65	0x3eb2c6fe	0.34917444
66	0xbfb3fcf8	-1.4061575
67	0xbfd2f13c	-1.6479869
68	0x40047ff7	2.0703104
69	0xbe26dbad	-0.16294737
70	0x3ff928a6	1.946553
71	0x3eee9906	0.46601123
72	0x3eb981c0	0.36231804
73	0xbfbeaa34	-1.4895692
74	0x4006a14c	2.1035948
75	0xbe394230	-0.18091655
76	0x3f8556d5	1.0417124
77	0x3febb165	1.8413512
78	0x3ff5cb3c	1.9202647
79	0x3f1315ad	0.5745495
80	0xbf8cad8f	-1.0990466
81	0xbf4a70e8	-0.7907853
82	0x3ef8133b	0.48452172
83	0xbf3a59d8	-0.7279334
84	0x3f519010	0.81860447
85	0xbf325ff1	-0.69677645
86	0xbf8a7985	-1.0818335
87	0x3f6f74ca	0.9353758
88	0x3ed1e66a	0.40996104
89	0x3ee9e076	0.45679063
90	0xbf8b0543	-1.0860981
91	0x3f68fc8e	0.9101037
92	0xbf857957	-1.0427655
93	0xbeaebd5a	-0.3412884
94	0x3f7436b8	0.95395994
95	0xbea6bca4	-0.32565796
96	0xbef31d64	-0.4748336
97	0x3f5e4e56	0.8683828
98	0x4000a286	2.0099196
99	0x400d08d6	2.2036643
100	0x3fea9502	1.8326724
101	0x3fd17a1e	1.6365392
102	0xbe308026	-0.17236385
103	0xbfa82a77	-1.3137959
104	0xbf02a4c8	-0.51032686
105	0x3f1234e3	0.5711195
106	0x40498e71	3.149319
107	0x3f57c043	0.84277743
108	0x3fcbd7e1	1.5925256
109	0xbd8619e1	-0.06547905
110	0xbf961222	-1.1724284
111	0xbf6b0253	-0.9180042
112	0x3e5b4e3b	0.21416561
113	0x3ec8f404	0.3924867
114	0xbebde605	-0.37089553
115	0x3f0dd089	0.55396324
116	0x3f65a929	0.8971124
117	0x3e2894cb	0.1646301
118	0x3f36b670	0.7137213
119	0x3ee0ae49	0.4388297
120	0x3eee9831	0.46600488
121	0xbead6e63	-0.3387328
122	0xbf67051b	-0.90242165
123	0xbf1a9153	-0.60378
124	0xbf08f326	-0.53496015
125	0xbf50d71d	-0.81578237
126	0x3f4426f5	0.76621944
127	0x3f011e4f	0.5043687
128	0x3fa0bfe0	1.2558556
129	0xbf03fd7b	-0.51558656
130	0xbf9b7441	-1.2144853
131	0xc041986e	-3.0249286
132	0xbf90022f	-1.1250666
133	0x4013e1a4	2.310647
134	0x3ef82c2e	0.48471206
135	0x3f96c5a8	1.177907
136	0xbe286059	-0.16443004
137	0x3bc22dba	0.005925861
138	0xbf598c44	-0.84979653
139	0xbfb7f363	-1.4371151
140	0xbea7fbf7	-0.3280942
141	0xbfa69119	-1.301303
142	0xbfe99b5f	-1.825054
143	0x3f481e8a	0.781716
144	0xbf99a5ae	-1.2003686
145	0xbe077374	-0.13227636
146	0x3f53b4a2	0.826975
147	0x3f8c9664	1.0983396
148	0x3fa592d8	1.2935438
149	0xbf2aace6	-0.6667007
150	0xbf0f23fa	-0.5591427
151	0xbf9e501b	-1.2368196
152	0x3f608d3c	0.87715507
153	0x4013bae8	2.3082829
154	0xbfa3228e	-1.274492
155	0xbf034dad	-0.512904
156	0x3fd061f9	1.6279899
157	0x3fc8c259	1.568431
158	0x3db78990	0.08961785
159	0xbfb1850f	-1.3868731
160	0x3f2f69ba	0.685207
161	0x3eee8366	0.46584624
162	0x3d6feb80	0.0585742
163	0xbf2aec7b	-0.6676709
164	0xbfd0957d	-1.629562
165	0x3f9958d0	1.1980228
166	0xbedb0fdb	-0.42785534
167	0xbf6bd400	-0.9212036
168	0x3e3a6912	0.18204144
169	0xbfe443e6	-1.7833221
170	0x3fa4822b	1.2852224
171	0xbf9a9ff1	-1.208006
172	0x3eecd733	0.46257934
173	0x3fe29e86	1.7704628
174	0x4025fe50	2.593647
175	0xbf6b8f7b	-0.9201581
176	0x3db6213b	0.08893057
177	0x3f0811a1	0.531519
178	0x3ea2294b	0.3167213
179	0x3dc839fc	0.09776685
180	0x3f1020cf	0.5630006
181	0xbf6ba6c2	-0.9205133
182	0x3fa3a703	1.2785343
183	0x3fa08c96	1.2542903
184	0xbe6077f3	-0.21920757
185	0xbeef60c4	-0.46753514
186	0xbf9c531c	-1.2212863
187	0xbf99abc2	-1.2005541
188	0x3f637e40	0.8886452
189	0xbf5b181e	-0.85583675
190	0xbf1ffad8	-0.6249213
191	0xbfa10129	-1.2578479
192	0xbe8d98f4	-0.27655756
193	0x3fced03f	1.6157302
194	0xbe53772c	-0.20650929
195	0xbd55ac2e	-0.052166156
196	0xbfce94f2	-1.6139205
197	0xbf273af6	-0.6532434
198	0x3fe12bd0	1.7591496
199	0x3f86a2f3	1.0518478
200	0x3f7d53fa	0.98956263
201	0xbee860fe	-0.453865
202	0x3f12d71d	0.57359487
203	0xbf8e9495	-1.1139094
204	0x3ee1eb6e	0.4412493
205	0x3f8d403c	1.1035228
206	0xbf83251d	-1.0245701
207	0x3f70ef5d	0.9411524
208	0x3d5e2434	0.054233745
209	0x3da74bbf	0.08168744
210	0xbfa7d4eb	-1.3111852
211	0x3ea6a039	0.32544115
212	0x3cc0ac5b	0.023519685
213	0xbd95b43c	-0.073097676
214	0xbe8d6c5d	-0.27621737
215	0xbfb769dd	-1.4329182
216	0xbfd9c696	-1.7013729
217	0x3f49e627	0.7886681
218	0x3f558cd8	0.83418036
219	0x3f9ed8f3	1.2409958
220	0x3fde5fa1	1.7372934
221	0xbefc7d2b	-0.49314246
222	0xbe188601	-0.14894868
223	0x3f5139c5	0.81728774
224	0xbf7f2cae	-0.9967755
225	0xbf9ecd76	-1.2406452
226	0xbf90e8fe	-1.1321104
227	0x3febafc8	1.8413019
228	0x3fd9c08e	1.7011888
229	0xbf9d3278	-1.2281027
230	0xbfc66780	-1.5500336
231	0xbf4bb1c2	-0.7956811
232	0xbf58739f	-0.84551424
233	0xbc271abd	-0.010199246
234	0xbf179c6f	-0.59223074
235	0xbff0ef7c	-1.8823085
236	0xbfc49ee7	-1.5360993
237	0xbf82bc2e	-1.0213678
238	0x3f70a9fc	0.94009376
239	0x3f7f0b80	0.9962692
240	0xbf0ce8e2	-0.5504285
241	0xbf1eaecb	-0.6198546
242	0x3f58c326	0.8467277
243	0x3ed0aded	0.40757695
244	0xbe86c0b8	-0.26318908
245	0x3f0765d2	0.5288974
246	0xbf4c6706	-0.798447
247	0x3f18dc35	0.5971101
248	0xbf6656de	-0.899763
249	0x3f2c4a5d	0.6730097
250	0x3eea94ae	0.4581656
251	0xbf3133f7	-0.6921992
252	0xbf8b45ae	-1.088064
253	0xbe8e959c	-0.27848518
254	0x3f5a7b6a	0.85344565
255	0x3f162eed	0.58665353

model_2/backbone.dark2.1.m.0.cv2.conv/separable_conv2d/depthwise f4 [1, 3, 3, 16]
0	0x3d9a3d68	0.075312436
1	0x3de3465e	0.11097406
2	0xbdec8569	-0.115488835
3	0xbd27ed74	-0.040997937
4	0x3c79995d	0.015234319
5	0x3dfd64da	0.123727515
6	0x3e5d8b46	0.2163516
7	0xbd72bd47	-0.05926254
8	0xbd42c8f7	-0.047554936
9	0xbe01d68f	-0.12679504
10	0xbdb45911	-0.088060506
11	0xbda7de70	-0.081967235
12	0xba40f16f	-0.0007360195
13	0xbe1a01ea	-0.15039793
14	0x3c641e80	0.013923287
15	0xbd331566	-0.04372158
16	0xbdb46d1e	-0.08809875
17	0x3d911dfc	0.07085797
18	0xbde7f19e	-0.11325382
19	0xbe5ff5c0	-0.2187109
20	0xbc8b5e48	-0.01701273
21	0xbdd4e277	-0.10394757
22	0x3d16d36d	0.036822725
23	0xbdb262b2	-0.08710231
24	0xbe4a5964	-0.19760662
25	0xbe22d540	-0.15901661
26	0xbdafde1b	-0.08587285
27	0x3c1c75f6	0.009549608
28	0x3d9bb555	0.07602946
29	0x3e9dc190	0.3081174
30	0x3d10ba34	0.035333827
31	0x3e31d4f3	0.1736639
32	0xbcc9b9a0	-0.024624646
33	0xbd545461	-0.051838282
34	0xbd681644	-0.05666186
35	0xbda710d9	-0.0815751
36	0xbdc33503	-0.095315956
37	0xbbfb9de6	-0.007678735
38	0xbc9fff48	-0.019530907
39	0x3e5600be	0.2089872
40	0xbd803592	-0.06260218
41	0x3d687890	0.056755602
42	0xbc31edea	-0.010859946
43	0x3c70019b	0.01464882
44	0xbe4f7c48	-0.20262253
45	0x3de18a43	0.110126995
46	0x3d86a2d3	0.06574025
47	0x3dbfcaef	0.093648784
48	0x3e8df852	0.27728516
49	0xbcb9e13f	-0.022690414
50	0xbe1a26f8	-0.15053928
51	0xbe2d6d8a	-0.16936317
52	0x3e869364	0.26284325
53	0x3e319041	0.17340185
54	0xbdee38d7	-0.11631935
55	0x3c7f597b	0.015585299
56	0xbd649a16	-0.05581101
57	0x3e28a25a	0.16468182
58	0xbe10f609	-0.14156355
59	0xbcc1db88	-0.023664251
60	0xbd755a7a	-0.05990074
61	0x3e126357	0.14295708
62	0xbe68963f	-0.22713564
63	0x3df958c3	0.12175133
64	0x3e41c58a	0.18923011
65	0x3dec2c35	0.11531869
66	0x3e8ddc39	0.2770708
67	0xbce8ed14	-0.02843336
68	0x3d7691e4	0.060197726
69	0x3e80b9c1	0.2514172
70	0xbdae787e	-0.08519076
71	0xbd5ac3aa	-0.053409256
72	0xba87aa94	-0.0010350519
73	0x3ddee999	0.10884399
74	0xbe29a3ee	-0.1656644
75	0xbe53c228	-0.20679533
76	0xbdc9a0f2	-0.09845151
77	0x3e690b60	0.22758245
78	0x3ef95290	0.48695803
79	0xbd2446d3	-0.040106606
80	0xbd87dd99	-0.06634063
81	0xbe51d1c3	-0.20490174
82	0xbe5521cc	-0.20813674
83	0x3e04423e	0.12915894
84	0xbea9e326	-0.33181113
85	0xbd9a55f6	-0.07535927
86	0x3e73f3fe	0.23823544
87	0xbd00e288	-0.031466037
88	0xbd992201	-0.07477189
89	0xbe764aa6	-0.24051914
90	0x3e933e47	0.2875845
91	0x3e311e01	0.17296602
92	0x3d8ea32d	0.06964717
93	0x3d82b4dd	0.06382153
94	0xbd04b272	-0.03239674
95	0xbda1dc79	-0.0790338
96	0x3de8557f	0.11344432
97	0x3dd06255	0.10175005
98	0x3885fdb1	6.389188e-05
99	0x3e4186dd	0.18899103
100	0x3c9b2d18	0.0189424
101	0xbc10ee4e	-0.008845879
102	0xbeccf05a	-0.40027124
103	0xbd65494c	-0.055978104
104	0xbe658a8b	-0.22416131
105	0x3dca2ec0	0.09872198
106	0xbd5cadc1	-0.053876642
107	0xbdffc83b	-0.12489363
108	0x3e03c0d4	0.12866527
109	0xbda1ace8	-0.078943074
110	0xbd8ebb99	-0.06969375
111	0x3dd16dd9	0.1022603
112	0x3e5be4a1	0.21473934
113	0x3d89517d	0.06704996
114	0xbe470a48	-0.19437516
115	0x3e14e53f	0.14540575
116	0x3d0d6dc5	0.034528513
117	0x3d2cf802	0.042228706
118	0xbe9840f3	-0.29737052
119	0x3defeeb5	0.11715452
120	0x3d36241b	0.044468027
121	0x3e3904d5	0.1806825
122	0xbd943943	-0.07237484
123	0xbd143f30	-0.036193073
124	0x3ec94315	0.39308992
125	0x3d0819af	0.03322762
126	0xbd39e4f4	-0.045384362
127	0x3daf048e	0.085457906
128	0x3cf4d2ee	0.029885735
129	0xbdbe5886	-0.09294228
130	0x3e114ce2	0.14189485
131	0x3e3f56b9	0.18685426
132	0xbe91c7cf	-0.28472754
133	0xbe8e8c10	-0.27841234
134	0x3eb4e05d	0.35327426
135	0xbd830e5f	-0.063992254
136	0x3cd1bdc3	0.02560318
137	0x3e3970a3	0.18109374
138	0x3d96f1f8	0.073703706
139	0x3befb8e3	0.0073157414
140	0xbbd551be	-0.0065099886
141	0x3d9b3f50	0.07580435
142	0xbddba9de	-0.10725759
143	0x3d960ee0	0.07327056

model_2/backbone.dark2.1.m.0.cv2.conv/separable_conv2d f4 [16, 1, 1, 16]
0	0xbf047295	-0.5173734
1	0xbe2749fa	-0.16336814
2	0xbf6f4eb9	-0.93479496
3	0x3f79077f	0.97277063
4	0x3f688479	0.9082714
5	0x3f737b61	0.95110136
6	0xbf32814e	-0.69728553
7	0xbf9f5224	-1.2446942
8	0xbf5d0f7f	-0.8635177
9	0x3f71caa6	0.9444984
10	0xbf040b5d	-0.5157984
11	0xbea97b8d	-0.33102074
12	0xbf9f7897	-1.2458676
13	0x3f236e91	0.63840586
14	0xbfa90cf3	-1.3207077
15	0x3f596a3b	0.8492772
16	0x3fa1a95f	1.2629813
17	0x3f306f6b	0.6892001
18	0xbf77a642	-0.96738064
19	0xbfb79c5c	-1.4344592
20	0xbf892786	-1.0715187
21	0xbfb7cfba	-1.4360268
22	0xbf48d06d	-0.7844303
23	0x3f18f559	0.5974937
24	0xbe2bb471	-0.16768052
25	0xbf88c400	-1.0684814
26	0xbdebd28c	-0.11514768
27	0xbfbdcc11	-1.4827901
28	0x3f49225f	0.7856807
29	0xbf9efe9e	-1.2421453
30	0xbfa6f8b4	-1.3044648
31	0xbf972dde	-1.1810873
32	0x3fcf1ed3	1.6181282
33	0xbf9c83f5	-1.222777
34	0xbf6e4dd2	-0.93087494
35	0x3ed5401d	0.41650477
36	0xbe88298b	-0.26594195
37	0xbb9ce44a	-0.0047879564
38	0xbf5dd3fb	-0.8665158
39	0xbf35a8c3	-0.70960635
40	0x4006d8d0	2.1069832
41	0x3ed983b3	0.4248329
42	0x3fc2aa6a	1.5208256
43	0x3fc801fe	1.5625608
44	0xbf6230c2	-0.8835565
45	0x3fb35c4f	1.4012545
46	0x3eae13dc	0.33999527
47	0xbf17198f	-0.59023374
48	0x3efcc24d	0.4936699
49	0x3e84a698	0.2590835
50	0xbe80d2f0	-0.25160933
51	0xbfa212fa	-1.2662041
52	0xbc923612	-0.017848048
53	0xbe8c1ec2	-0.27367216
54	0xbed23a7e	-0.4106025
55	0x3ee20b97	0.44149467
56	0x3ed676e4	0.4188758
57	0xbf2d1e0e	-0.67623985
58	0xbec63552	-0.38712555
59	0xbf620250	-0.8828478
60	0xbf6f82de	-0.9355906
61	0xbfa3bf27	-1.279271
62	0x3eb95b4f	0.36202475
63	0x3eec2e18	0.46128917
64	0x3fc48632	1.5353453
65	0xbff8d687	-1.9440469
66	0x400a0421	2.156502
67	0x3e060c8a	0.13090721
68	0x3faeeaca	1.3665402
69	0x3f114036	0.56738603
70	0x3f87398a	1.0564435
71	0x3e28bdbe	0.16478631
72	0x3fbbaa59	1.4661361
73	0xc013e38e	-2.3107638
74	0xbfc567cf	-1.5422305
75	0x3f9f744b	1.2457365
76	0x3dae96ed	0.085248806
77	0x3fe026e2	1.7511866
78	0x3f95be5e	1.169872
79	0xc01e4b63	-2.4733512
80	0x3ebec27c	0.37257755
81	0xbe79053e	-0.24318406
82	0xbfb85f34	-1.4404054
83	0xbf553956	-0.8329061
84	0x3fc226a2	1.516804
85	0x3fc74743	1.5568622
86	0x4020c79b	2.512183
87	0x3f78399d	0.9696291
88	0x3c02ddaf	0.007987424
89	0x40085131	2.1299555
90	0x3eb38c92	0.35068184
91	0x3d8007be	0.06251477
92	0xbf9417a6	-1.1569717
93	0x3f465e55	0.7748769
94	0x3f9c1a6d	1.2195565
95	0xbfee68ad	-1.8625695
96	0xbf3d5d41	-0.7397042
97	0xbfe1476b	-1.759992
98	0xbf750c6e	-0.9572209
99	0xbf765349	-0.96220833
100	0x3e0534cf	0.13008426
101	0xbfad3ab2	-1.3533537
102	0xbf07bdcf	-0.53024
103	0xbf8f8943	-1.1213764
104	0x3f831eaa	1.0243733
105	0xbf9e0b7e	-1.2347257
106	0x3fbf8bed	1.4964577
107	0xbfbeb4b3	-1.4898895
108	0xbe9be3c7	-0.30447218
109	0x3f0f33e2	0.5593854
110	0x3f557344	0.83379006
111	0x3dfd6cd2	0.123742715
112	0x3e015141	0.12628652
113	0xbea7cca4	-0.32773316
114	0x3fa1f9fd	1.2654415
115	0x3fb0e978	1.3821249
116	0xbe945b0d	-0.28975716
117	0x3fc38e41	1.5277787
118	0xbbd65651	-0.0065410514
119	0x3ed10b46	0.40828913
120	0xbf0da534	-0.55330205
121	0xbf110bd5	-0.5665868
122	0xbe9233e7	-0.28555223
123	0xbe3b1866	-0.18271026
124	0xbfcaad30	-1.5834103
125	0xbe5a7cb3	-0.21336631
126	0xbe15dfb5	-0.14636119
127	0x3f12e0ca	0.5737425
128	0x3f747f17	0.95506424
129	0x3f09e61e	0.53866756
130	0x3d571c87	0.05251744
131	0x3eb510e4	0.3536445
132	0xbf934b96	-1.1507442
133	0x3f108b52	0.56462586
134	0xbf3801ac	-0.7187755
135	0xbf28ca1f	-0.6593341
136	0xbe67617d	-0.22595783
137	0x3f3594c7	0.7093014
138	0x3ed8a632	0.42314297
139	0x3e5352f1	0.20637108
140	0xbf539a84	-0.8265765
141	0x3d3557e5	0.044273276
142	0xbda63ad5	-0.0811669
143	0x3e9fc1ab	0.31202444
144	0xbf76c4f4	-0.96394277
145	0xbd732690	-0.059362948
146	0xbfa6fabb	-1.3045267
147	0xbe547204	-0.20746619
148	0x3fce8be0	1.6136436
149	0x3f70f0b4	0.94117284
150	0x3fe94efa	1.8227227
151	0x3fc7a6aa	1.5597737
152	0xbf64535a	-0.89189684
153	0xbe55a62a	-0.20864168
154	0x3f94cf43	1.1625751
155	0xbfdf0d82	-1.7425997
156	0x3b69e49d	0.0035689243
157	0x3e2ad7ca	0.1668388
158	0x3f97f438	1.1871405
159	0xbf9e0ce2	-1.2347682
160	0xbf8224e0	-1.0167503
161	0xc02fe2a4	-2.748208
162	0x3f95178a	1.1647809
163	0xbe75525a	-0.23957196
164	0x3f99422e	1.1973321
165	0x3f9fed12	1.2494223
166	0xbfa117ca	-1.2585385
167	0x3f77b182	0.9675523
168	0x3f836f07	1.0268258
169	0xbfb2eed0	-1.397913
170	0xbec7785b	-0.3895901
171	0xbf08ba8c	-0.5340965
172	0xbd1aa711	-0.037756983
173	0xbe3e4900	-0.18582535
174	0xbff0eaa0	-1.8821602
175	0x3eb15623	0.3463603
176	0xbf101c8f	-0.56293577
177	0xbf901e5c	-1.1259265
178	0xbf0fad6d	-0.56124
179	0xbf5bc003	-0.8583986
180	0x3fa66d8d	1.3002182
181	0x401df7ef	2.4682577
182	0xbff17121	-1.8862649
183	0x400c6344	2.1935587
184	0x3f131019	0.5744644
185	0x3f84e084	1.0381017
186	0x3e5a2810	0.21304345
187	0xbf04260b	-0.5162055
188	0xbed28c79	-0.41122797
189	0xbf6fdadd	-0.93693334
190	0x3df76d46	0.12081389
191	0x3f90128c	1.125566
192	0xbf682eba	-0.906963
193	0x3f94b8cd	1.1618897
194	0xbfb793e9	-1.4342014
195	0x3fc75ee7	1.5575837
196	0xbf579dad	-0.8422497
197	0x3fd622ba	1.6729348
198	0xc033d7f4	-2.8100557
199	0xc009df8b	-2.154269
200	0x3f4f19ce	0.8089875
201	0x3f8dcc26	1.1077926
202	0xbd63ef46	-0.05564811
203	0xbf8967fa	-1.0734856
204	0x3e691d1d	0.22765012
205	0xbfc4399b	-1.533008
206	0xbec026dc	-0.37529647
207	0x3f9a5ca3	1.205952
208	0x3efe2b45	0.49642387
209	0x3dd9133b	0.10599371
210	0x3f6098fc	0.87733436
211	0xbf7dbdf7	-0.9911799
212	0x3f790e49	0.9728742
213	0x3f1086be	0.564556
214	0x3ee28e5a	0.4424923
215	0xbe6f9ba8	-0.23399222
216	0xbf23226b	-0.6372439
217	0xbf8f7f2d	-1.1210686
218	0x3fa99489	1.3248454
219	0xbf64bad2	-0.89347565
220	0xbf14b99f	-0.58095735
221	0xbeb4bf5c	-0.35302246
222	0xbfa22467	-1.2667359
223	0x3eb286e1	0.3486853
224	0xbf65a886	-0.8971027
225	0x3f2f6146	0.685078
226	0x3cf9e940	0.03050673
227	0x3fa123ef	1.2589091
228	0x3f6dc58f	0.92879575
229	0x3f1e2093	0.61768454
230	0xbf361714	-0.71128964
231	0x3e633484	0.22188002
232	0x3fe050da	1.7524674
233	0x3f881bf7	1.0633534
234	0xbfd38a9b	-1.6526674
235	0xbf001f08	-0.5004735
236	0x3f226d3b	0.6344792
237	0x3fd92299	1.6963683
238	0xbfb7f512	-1.4371665
239	0x3fc82c83	1.5638584
240	0x3e572ed9	0.21013965
241	0x3f2579d2	0.6463901
242	0x3fefe327	1.8741196
243	0xbf7692a6	-0.9631752
244	0xbf2bae0b	-0.67062443
245	0xbf659772	-0.8968421
246	0xbf80d28d	-1.0064255
247	0x3f7b115f	0.9807338
248	0x4005cc3a	2.09059
249	0x3e6bbbd7	0.23020874
250	0xbf2d95ee	-0.678069
251	0x3ff90c50	1.9456882
252	0xbeec60b8	-0.4616754
253	0xbeef9425	-0.46792713
254	0xbe8e5e9d	-0.2780656
255	0x3fbae7a6	1.4601943

model_2/backbone.dark2.1.cv2.conv/separable_conv2d/depthwise f4 [1, 1, 1, 32]
0	0xbe43500c	-0.19073504
1	0xbe498d1e	-0.19682738
2	0xbe2ea65d	-0.1705565
3	0xbe2bf6c8	-0.16793358
4	0xbed59577	-0.41715595
5	0xbe7675f8	-0.24068439
6	0x3e3fdf67	0.18737565
7	0x3d97d011	0.074127324
8	0xbd1fbf6b	-0.03900091
9	0x3ee9011c	0.4550866
10	0xbe6b128a	-0.22956291
11	0xbe0c2a85	-0.13688095
12	0x3ebb409d	0.36572734
13	0xbdf754d9	-0.1207673
14	0xbeb2bddc	-0.34910476
15	0xbe6fa259	-0.23401774
16	0xbe38af33	-0.18035583
17	0x3e7c1c0b	0.24620073
18	0x3e766daa	0.24065271
19	0x3eb59080	0.35461807
20	0x3e4ae573	0.1981409
21	0xbe9446ca	-0.28960258
22	0xbcadb466	-0.021204185
23	0x3e69d60a	0.22835556
24	0xbef7fe76	-0.48436326
25	0x3eafbf5c	0.34325683
26	0x3eae77d4	0.34075797
27	0xbe1889a7	-0.1489626
28	0x3dbde477	0.09272092
29	0x3e943aff	0.2895126
30	0xbed1cdbb	-0.40977272
31	0xbdea8bca	-0.11452444

model_2/backbone.dark2.1.cv2.conv/separable_conv2d f4 [16]
0	0x00000000	0.0
1	0x00000000	0.0
2	0x00000000	0.0
3	0x00000000	0.0
4	0x00000000	0.0
5	0x00000000	0.0
6	0x00000000	0.0
7	0x00000000	0.0
8	0x00000000	0.0
9	0x00000000	0.0
10	0x00000000	0.0
11	0x00000000	0.0
12	0x00000000	0.0
13	0x00000000	0.0
14	0x00000000	0.0
15	0x00000000	0.0
