deploy/best_epoch_weights.onnx (onnx, 648376 bytes, 177 tensors)

model_2/yolo_head_P5/separable_conv2d/ReadVariableOp_1:0 f4 [24, 64, 1, 1]
-0.056261316 -0.06263685 0.024406888 0.17598525 0.20972264 0.14026122 0.07421324 0.08322501
0.13218369 0.08167016 -0.21102773 -0.15308173 0.23165397 0.18568473 -0.18618682 -0.0027207667
-0.25170532 0.009242188 0.3845885 -0.2331167 -0.2432891 0.03806757 -0.106471285 -0.14569114
-0.15583307 0.22415335 -0.22214045 -0.21626385 -0.10551158 0.003792379 0.26715177 0.16771291
-0.28621858 -0.09518879 0.19940074 0.097380064 0.15555914 0.14505652 0.2644084 -0.23008735
0.15805441 0.41271046 -0.15164909 0.19701779 -0.17906635 0.04404001 -0.38736466 -0.18519521
0.28434855 -0.023804711 -0.13542728 0.020071538 0.014559841 0.3168513 -0.25739205 0.23042963
0.024200253 -0.08667384 0.15191227 0.11400457 0.28222254 -0.23657773 0.112429336 0.13945465
-0.065590985 -0.11175054 0.21106516 -0.060508866 0.07139699 0.2892447 -0.097122274 0.25309086
0.20020145 0.012874092 0.18879351 0.013324899 0.13159071 0.12808117 0.09379244 0.22215436
0.17544352 -0.23151417 0.2317866 0.103793874 -0.047340438 -0.16455087 0.058153957 0.16270916
-0.3059755 0.10907482 0.19895019 0.08883658 0.25731927 -0.10974004 0.09559717 0.2098968
-0.17936797 0.17911255 -0.03134083 -0.331834 -0.16619723 0.06915145 -0.12803051 0.17066507
-0.006105037 0.09009726 -0.04885495 -0.19344373 -0.034260556 0.19847602 0.15596852 0.19075254
-6.5683445e-05 -0.33687875 0.011949536 0.06316648 -0.15499619 -0.27414954 -0.243012 -0.222491
-0.12079028 0.18764079 0.17615733 -0.14691678 0.13204102 0.24201128 -0.2683833 -0.053301405
0.25874 -0.13872463 -0.12000236 0.0013629396 -0.22428039 -0.21352947 0.045596372 0.054064006
-0.106590904 -0.21261 0.14441748 0.12317405 0.2599019 -0.029239273 0.06674981 -0.07382024
-0.040668752 0.14818814 0.14492954 0.15172112 0.20089498 -0.123569846 0.221887 0.19624865
0.047412656 0.1510134 0.003163774 0.06456852 0.1428585 -0.21068268 0.05545436 -0.16285947
-0.020440854 -0.1430323 0.009559849 0.076518096 0.21671696 0.26337147 0.0064443173 0.008211055
-0.13476586 0.07182383 0.044519823 -0.095319666 0.28460482 -0.11928487 0.056402728 0.22013086
0.26066205 0.06668002 -0.124450155 -0.14758863 0.21356924 0.09632367 0.04532055 -0.24183622
0.11256138 -0.03472564 0.011325417 0.09678596 -0.005362132 0.14313975 0.13996877 -0.087078415
0.23697843 0.008647282 0.02071875 0.2307078 0.2674754 -0.06791208 0.22579421 -0.08864147
-0.13206902 -0.008807722 -0.1392286 0.020295376 0.35962757 -0.21410587 -0.19706677 0.015827218
-0.06602804 -0.22645786 0.19774072 -0.16892248 -0.09333587 -0.22985995 0.15237059 0.21897273
0.17173168 0.40090826 -0.011754217 0.029232698 -0.1717347 0.21693836 0.039479405 0.1938612
-0.16606468 -0.18766119 -0.03692267 -0.2267924 -0.04359842 0.078860454 0.07008326 -0.07936395
-0.14093728 -0.0240383 -0.02777108 -0.006104505 0.2800306 -0.20395064 0.09230553 0.02964366
0.02524952 -0.13219786 0.07338055 0.046177503 -0.013999221 0.18426196 0.1372065 -0.22346891
0.026123956 0.10707066 0.014667596 0.264595 0.017712964 0.103680894 -0.20943098 0.04143846
00000000: 4472 66bd c047 80bd f4f0 c73c 7a35 343e
00000010: 88c1 563e a3a0 0f3e 1cfd 973d e071 aa3d
00000020: 295b 073e af42 a73d a717 58be 75c1 1cbe
00000030: b336 6d3e 2324 3e3e c2a7 3ebe e44e 32bb
00000040: 85df 80be 8c6c 173c c9e8 c43e 25b6 6ebe
00000050: c720 79be beec 1b3d 9e0d dabd 0f30 15be
00000060: b492 1fbe 7588 653e c978 63be 4574 5dbe
00000070: 7516 d8bd 9089 783b 1ec8 883e efbc 2b3e
00000080: 3e8b 92be 57f2 c2bd b52f 4c3e 336f c73d
00000090: e54a 1f3e b289 143e 8a60 873e 059c 6bbe
000000a0: 04d9 213e c94e d33e e649 1bbe 08bf 493e
000000b0: 2b5d 37be 4c63 343d a954 c6be d0a3 3dbe
000000c0: 2296 913e 1902 c3bc 73ad 0abe 116d a43c
000000d0: 668c 6e3c 553a a23e e4c8 83be bff5 6b3e
000000e0: 9c3f c63c 0e82 b1bd e48e 1b3e 3a7b e93d
000000f0: 797f 903e 6f41 72be 5a41 e63d 33cd 0e3e
00000100: 9154 86bd 78dd e4bd 7721 583e 25d8 77bd
00000110: 9638 923d e217 943e 0be8 c6bd 2095 813e
00000120: 9c01 4d3e dbed 523c 1653 413e ad50 5a3c
00000130: b7bf 063e b627 033e 4016 c03d 6f7c 633e
00000140: 77a7 333e 0d12 6dbe 7759 6d3e e291 d43d
00000150: 0ce8 41bd 0680 28be d832 6e3d 3b9d 263e
00000160: d2a8 9cbe 9f62 df3d 99b9 4b3e f4ef b53d
00000170: 5abf 833e 63bf e0bd 73c8 c33d 30ef 563e
00000180: 3dac 37be 4869 373e 3e5f 00bd 25e6 a9be
00000190: 9b2f 2abe 479f 8d3d 6e1a 03be d3c2 2e3e
000001a0: c30c c8bb ea84 b83d 211c 48bd 1d16 46be
000001b0: cc54 0cbd 4c3d 4b3e 36b6 1f3e a254 433e
000001c0: 88bf 89b8 5f7b acbe fdc7 433c 6d5d 813d
000001d0: 52b7 1ebe 545d 8cbe 23d8 78be aed4 63be
000001e0: e560 f7bd e824 403e 9662 343e 5a71 16be
000001f0: c335 073e ced1 773e 8969 89be 9352 5abd
00000200: 9279 843e d40d 0ebe ccc3 f5bd aaa4 b23a
00000210: c2a9 65be 78a7 5abe 43c3 3a3d 3872 5d3d
00000220: 554c dabd 70b6 59be 2de2 133e ad42 fc3d
00000230: dd11 853e 3387 efbc 20b4 883d 112f 97bd
00000240: 4794 26bd a2be 173e 6968 143e c85c 1b3e
00000250: 6ab7 4d3e 3012 fdbd 5936 633e 68f5 483e
00000260: c633 423d 42a3 1a3e 5257 4f3b 803c 843d
00000270: 8049 123e 33bd 57be 1c24 633d a2c4 26be
00000280: 9473 a7bc 0f77 12be eaa0 1c3c 85b5 9c3d
00000290: 0deb 5d3e a0d8 863e da2a d33b a987 063c
000002a0: 1000 0abe 5f18 933d 6b5a 363d f536 c3bd
000002b0: b9b7 913e a04b f4bd 8c06 673d fc69 613e
000002c0: 7f75 853e 898f 883d b9df febd 7921 17be
000002d0: e5b1 5a3e 5845 c53d 0ba2 393d eaa3 77be
000002e0: 9586 e63d 793c 0ebd 3e8e 393c b837 c63d
000002f0: d3b4 afbb 3a93 123e f953 0f3e 2b56 b2bd
00000300: 79aa 723e 54ad 0d3c 5eba a93c aa3e 6c3e
00000310: 89f2 883e 7d15 8bbd 9936 673e a989 b5bd
00000320: 1a3d 07be 434e 10bc f191 0ebe 7d42 a63c
00000330: 1b21 b83e 923e 5bbe dfcb 49be 15a8 813c
00000340: b639 87bd 92e4 67be 8b7c 4a3e 04fa 2cbe
00000350: e026 bfbd 6860 6bbe 0907 1c3e 633a 603e
00000360: 6eda 2f3e d943 cd3e c294 40bc 6979 ef3c
00000370: 39db 2fbe 1725 5e3e 28b5 213d 8d83 463e
00000380: dc0c 2abe 412a 40be 3a3c 17bd 443c 68be
00000390: 4294 32bd 9781 a13d d087 8f3d 9189 a2bd
000003a0: dd51 10be f8eb c4bc 2d80 e3bc 4d08 c8bb
000003b0: 2c60 8f3e 70d8 50be af0a bd3d 43d7 f23c
000003c0: 15d8 ce3c e05e 07be 8b48 963d 9f24 3d3d
000003d0: fd5c 65bc 2baf 3c3e dc7f 0c3e 09d5 64be
000003e0: e801 d63c dd47 db3d 5b50 703c ff78 873e
000003f0: c71a 913c a656 d43d 1375 56be 60bb 293d

model_2/yolo_head_P5/BiasAdd/ReadVariableOp:0 f4 [24]
0.016619787 -0.061671145 -0.38391426 -0.10250765 -5.3361473 -0.21357222 -0.25004664 -0.66554314
0.026088418 0.00090881553 -0.40307462 -0.42654097 -5.4015284 0.36289617 -0.48073998 -0.7507818
-0.006287143 -0.017533967 -0.8261913 -0.6038655 -5.5122347 0.37375996 -0.4362677 -0.5312515
00000000: 3826 883c e29a 7cbd 6990 c4be 88ef d1bd
00000010: b8c1 aac0 adb2 5abe 1d06 80be 0961 2abf
00000020: 61b7 d53c 943d 6e3a cc5f cebe 9463 dabe
00000030: 52d9 acc0 87cd b93e 8d23 f6be 3c33 40bf
00000040: 6104 cebb 65a3 8fbc 4681 53bf ee96 1abf
00000050: 3a64 b0c0 775d bf3e 7b5e dfbe 1900 08bf

model_2/yolo_head_P4/separable_conv2d/ReadVariableOp_1:0 f4 [24, 64, 1, 1]
-0.1498694 -0.07208911 0.19189176 -0.017190665 -0.22190233 -0.22656359 -0.13514194 0.00047624094
-0.108840175 -0.034444563 -0.043610763 0.17428112 0.14479326 0.17480452 -0.12990496 0.13784547
-0.13611925 0.058650892 0.22869325 -0.041748106 -0.26351383 0.20571905 -0.036630403 0.19115706
-0.07633237 -0.45285505 -0.075974755 0.13868836 0.23130438 0.00040009318 -0.20345 0.21484521
0.20704584 -0.04792043 0.25798872 0.071055844 0.08252555 0.032493215 -0.14342207 -0.11557238
-0.052926205 0.15745547 0.11756897 0.0054981406 -0.11823445 -0.10773273 0.18535551 0.10467109
-0.08918214 -0.21940601 -0.032740045 0.16639578 -0.17526025 0.1498583 0.13286301 -0.18604997
0.02489525 -0.44367406 -0.17672427 0.16825554 -0.14525747 -0.038693115 0.0055691013 0.25460777
0.0065733977 0.080334365 -0.056936033 0.13911615 0.07132459 -0.06582905 0.11830945 -0.018413937
-0.26073772 -0.12920548 -0.11983937 -0.022152036 0.14020914 -0.3967557 -0.018978434 -0.20420994
-0.03917379 -0.3611039 0.20569867 0.059397373 0.09997177 -0.17113048 -0.35073704 0.14512366
0.16964868 -0.06443911 0.080751926 0.07815768 -0.110770725 -0.13815805 0.11837743 -0.050771154
-0.14143279 -0.11522735 0.22827923 0.13670674 0.1737956 -0.072074935 -0.16620874 -0.002102843
0.22566366 -0.27737427 0.0024316304 -0.16056797 -0.093170404 0.27965364 0.07394234 0.1965999
-0.011198467 0.38475665 0.16696063 0.13508879 -0.029877273 0.21453568 -0.11395703 0.075767264
0.17781572 0.051269967 -0.067115836 -0.23843536 0.033851642 -0.002569114 -0.20029981 0.059071753
-0.34563297 0.13960321 0.093098335 0.043689884 -0.31443322 -0.16899413 0.13082072 -0.061927553
0.08762163 0.13485608 0.051182322 0.25614864 -0.0045515196 -0.038236536 0.026018996 -0.09755396
-0.06876212 -0.090628244 0.011547173 -0.098205656 -0.02743627 0.09620442 -0.12624551 0.07066146
-0.121174484 0.024886865 0.07104837 0.06122566 -0.101050235 -0.037516948 -0.24151783 -0.012270747
0.013172934 0.14812542 -0.075835034 -0.0383971 -0.13660108 -0.069651686 -0.13465843 -0.2646983
0.20669918 -0.15710527 0.06480177 0.25517336 -0.15814586 -0.18498813 -0.06568092 0.108676955
0.009154688 -0.09049138 0.14411762 0.19871563 0.21397418 -0.036034867 -0.12759313 0.15647484
0.027674811 -0.01507192 0.13906266 0.11096745 0.25365216 0.5813532 0.16957441 -0.11851573
-0.06372664 -0.045321073 0.028044492 0.06295016 -0.100438 -0.03644128 0.06401412 0.04283161
0.04374977 0.14075646 0.24185537 -0.0630792 -0.00094584125 0.06292851 0.12524211 -0.012349819
-0.107464746 -0.025844047 0.23003453 0.050468918 0.117225766 -0.15890756 0.04846971 -0.03422683
0.14457789 0.012167004 -0.023794198 -0.10705229 0.06878528 -0.23056789 -0.18700935 -0.39088887
0.22191104 -0.19891125 0.070692845 -0.008503607 -0.20267543 0.12825882 -0.16759436 -0.37174207
-0.08073116 0.066027634 0.005972609 -0.15682913 -0.07644669 0.04233238 -0.009512431 0.1928715
-0.0024145716 -0.058341872 0.07047014 0.13514334 -0.2466497 0.08690931 0.004771098 -0.10139513
0.0030327304 0.05254037 0.14529596 0.21590182 -0.030248286 -0.0064179003 -0.10956377 0.20892912
00000000: 5d77 19be 75a3 93bd 467f 443e 70d3 8cbc
00000010: 5d3a 63be 4900 68be a662 0abe faaf f939
00000020: 99e7 debd be15 0dbd 33a1 32bd c076 323e
00000030: af44 143e f5ff 323e ce05 05be 5d27 0d3e
00000040: d862 0bbe eb3b 703d 902e 6a3e 1000 2bbd
00000050: 49eb 86be 04a8 523e c309 16bd adbe 433e
00000060: 2554 9cbd 9edc e7be a798 9bbd 5204 0e3e
00000070: 0edb 6c3e 99c3 d139 3255 50be 6200 5c3e
00000080: d303 543e 3648 44bd 1917 843e ba85 913d
00000090: 2803 a93d 9b17 053d 3cdd 12be 36b1 ecbd
000000a0: 26c9 58bd 023c 213e 00c8 f03d bf29 b43b
000000b0: e724 f2bd faa2 dcbd d6cd 3d3e cc5d d63d
000000c0: 20a5 b6bd f8ab 60be 6d1a 06bd a863 2a3e
000000d0: 6c77 33be 7474 193e 3e0d 083e e283 3ebe
000000e0: 20f1 cb3c 3f29 e3be 35f7 34be 2e4b 2c3e
000000f0: 60be 14be ac7c 1ebd 027d b63b f35b 823e
00000100: a865 d73b 5886 a43d c235 69bd 7774 0e3e
00000110: a012 923d 62d1 86bd 3a4c f23d d3d8 96bc
00000120: 6a7f 85be 714e 04be 586e f5bd 3078 b5bc
00000130: fc92 0f3e 9023 cbbe a978 9bbc 691c 51be
00000140: b274 20bd 9ce2 b8be aca2 523e a94a 733d
00000150: 00be cc3d d43c 2fbe ce93 b3be 4c9b 143e
00000160: 62b8 2d3e a7f8 83bd 4461 a53d 2211 a03d
00000170: c3db e2bd 4e79 0dbe de6f f23d 6af5 4fbd
00000180: c2d3 10be 51fc ebbd 08c2 693e dafc 0b3e
00000190: 79f7 313e 069c 93bd a032 2abe dacf 09bb
000001a0: 6014 673e 0004 8ebe fd5b 1f3b ee6b 24be
000001b0: 20d0 bebd c32e 8f3e 156f 973d 7c51 493e
000001c0: c679 37bc d3fe c43e baf7 2a3e b754 0a3e
000001d0: 2fc1 f4bc 3eaf 5b3e 4e62 e9bd de2b 9b3d
000001e0: 5315 363e 7500 523d 0774 89bd 6628 74be
000001f0: 05a8 0a3d 955e 28bb 651b 4dbe 39f5 713d
00000200: cef6 b0be 25f4 0e3e 57aa be3d 2af4 323d
00000210: 64fd a0be cc0c 2dbe def5 053e bfa7 7dbd
00000220: f872 b33d b617 0a3e 8ea4 513d ea25 833e
00000230: ea24 95bb ea9d 1cbd ca25 d53c 5fca c7bd
00000240: 28d3 8cbd 4d9b b9bd 5b30 3d3c 0c20 c9bd
00000250: 07c2 e0bc d306 c53d 8146 01be f5b6 903d
00000260: 542a f8bd 8adf cb3c cf81 913d c2c7 7a3d
00000270: 6df3 cebd 5fab 19bd 7350 77be 3e0b 49bc
00000280: 4ad3 573c 31ae 173e 664f 9bbd 4746 1dbd
00000290: 27e1 0bbe 8ba5 8ebd e6e3 09be 8986 87be
000002a0: f3a8 533e 34e0 20be cab6 843d 15a6 823e
000002b0: fdf0 21be 876d 3dbe b883 86bd 0692 de3d
000002c0: 8bfd 153c 8b53 b9bd 9293 133e 1c7c 4b3e
000002d0: 0c1c 5b3e 4c99 13bd c6a7 02be f13a 203e
000002e0: 49b6 e23c 37f0 76bc 7166 0e3e e742 e33d
000002f0: b2de 813e 90d3 143f eaa4 2d3e 60b8 f2bd
00000300: 1d83 82bd 97a2 39bd 90bd e53c 03ec 803d
00000310: 70b2 cdbd 7443 15bd d619 833d 3370 2f3d
00000320: f532 333d 7622 103e efa8 773e ab2f 81bd
00000330: 55f2 77ba aae0 803d 783f 003e e556 4abc
00000340: 7a16 dcbd e5b6 d3bc 2c8e 6b3e 7fb8 4e3d
00000350: 1014 f03d aab8 22be 2d88 463d 6f31 0cbd
00000360: 3a0c 143e 1d58 473c 0dec c2bc 3b3e dbbd
00000370: 4cdf 8c3d fd19 6cbe 617f 3fbe 9622 c8be
00000380: a63c 633e 64af 4bbe 69c7 903d b652 0bbc
00000390: 268a 4fbe 4856 033e db9d 2bbe fa54 bebe
000003a0: 6156 a5bd 7f39 873d e0b5 c33b d197 20be
000003b0: 1590 9cbd b864 2d3d 07da 1bbc 1b80 453e
000003c0: ca3d 1ebb e3f7 6ebd a652 903d 0463 0a3e
000003d0: bd91 7cbe 82fd b13d df56 9c3b 40a8 cfbd
000003e0: c6c0 463b 9234 573d 77c8 143e 5e15 5d3e
000003f0: 41cb f7bc 404d d2bb f862 e0bd 84f1 553e

model_2/yolo_head_P4/BiasAdd/ReadVariableOp:0 f4 [24]
-0.08917179 -0.14204256 0.20420878 -0.45513457 -3.0170166 -0.18506403 -0.10522831 -0.27499497
0.0039009633 0.049748965 -0.33570054 -0.2921103 -2.9255233 -0.17078717 -0.028781815 -0.20906323
0.050581906 -0.03301097 -0.19970822 -0.5072899 -3.137113 0.115989864 -0.13523367 -0.3599869
00000000: b39f b6bd 9b73 11be 1b1c 513e 6607 e9be
00000010: cd16 41c0 6d81 3dbe f181 d7bd 24cc 8cbe
00000020: 4ea7 7f3b 92c5 4b3d f1e0 abbe 7b8f 95be
00000030: c63b 3bc0 d5e2 2ebe d7c7 ebbc ac14 56be
00000040: f92e 4f3d 8336 07bd 5080 4cbe c0dd 01bf
00000050: 76c6 48c0 188c ed3d b27a 0abe 3450 b8be

model_2/yolo_head_P3/separable_conv2d/ReadVariableOp_1:0 f4 [24, 64, 1, 1]
-0.28523067 -0.21860935 -0.009027096 -0.18858063 -0.08528941 -0.24409388 -0.08173962 0.18371584
0.13946977 -0.0184283 0.15801011 -0.14087087 -0.27657315 -0.16746074 -0.030514298 0.19969963
0.1294872 -0.18994114 -0.28600597 -0.0044276067 0.20837617 0.18887748 -0.018611986 0.19135723
-0.035444807 -0.05612851 -0.25899443 -0.25386044 -0.21105081 0.028975891 0.2049062 -0.19920546
0.10440763 -0.14797613 0.28781468 0.013594965 -0.16265391 -0.14308259 -0.22342455 -0.18392663
0.10887022 0.099362 0.023392795 -0.17615569 -0.091363706 0.09653228 -0.12584338 -0.14271787
0.15293929 -0.21275003 0.011745399 -0.13329363 -0.26887986 -0.12889707 -0.026765833 0.16655008
-0.42652005 -0.08981891 0.25098258 -0.046748694 0.20193586 -0.18565878 -0.30811372 -0.10189617
0.028883792 0.07332031 0.14019671 0.08130849 0.013023489 0.17308153 0.02290114 0.16415082
-0.15315081 -0.19179152 0.0014807242 0.13887106 -0.35191926 0.18207645 -0.11267362 0.18717435
0.06219195 0.016537508 -0.0769164 0.15106484 -0.12573348 0.19083704 0.19841754 -0.09023285
0.040772114 -0.076441124 -0.02604654 0.14951208 -0.13652061 -0.16712716 -0.14878432 0.25803238
0.047637984 -0.26598895 0.055265192 -0.11276532 0.32515192 0.11985382 0.07470542 0.07887008
0.20891228 -0.0055648796 -0.16958947 0.01346017 0.2938576 0.43876126 -0.06942622 0.02593866
-0.15449774 0.06674546 -0.20475024 -0.21433946 -0.22143331 -0.16788223 0.4228939 -0.12491292
-0.03365736 -0.06401776 0.43134272 0.08364409 0.022272803 0.11349528 -0.08205911 -0.072288446
0.23788475 0.36491972 -0.014929705 0.13629632 0.1649626 0.08991147 -0.118234016 -0.007301154
0.0572159 -0.25214395 0.12365335 0.21520436 -0.23383397 -0.013483786 -0.21898082 -0.16865298
0.37224782 0.20352855 0.065232635 0.15931192 -0.09474796 -0.1413263 -0.1504382 -0.19851317
0.13507377 0.045140065 -0.062351204 0.006175089 0.24976882 0.110384986 0.20865612 -0.21722555
0.2031022 0.039735224 0.13178696 -0.1698025 0.1397934 0.039097082 0.1278379 -0.49192286
0.16891856 -0.06661047 0.16015351 0.19026403 0.19189592 -0.05358262 -0.07504505 -0.049870234
-0.13302834 0.38314253 -0.22134551 -0.16900045 -0.15583853 0.18291005 0.017974375 -0.25465518
0.038214598 0.050061982 -0.084385015 0.004484176 -0.092739664 -0.010749652 0.21377645 0.07836528
-0.27694377 -0.2747201 -0.11643971 0.2204804 0.0713663 -0.33291346 -0.066401355 -0.2027249
-0.06766792 0.048739422 -0.13160023 0.09748101 -0.15153019 -0.056756645 -0.11370148 -0.18717985
0.095969155 -0.25539547 -0.0047558066 -0.18228371 -0.15927695 0.2657761 0.07789141 -0.036058877
0.3059141 0.23381479 -0.02368237 0.087939955 0.22698142 0.12642983 0.17022301 0.2308962
-0.07153566 -0.23988698 -0.20346591 -0.049275305 0.009949751 -0.08270087 -0.011001891 -0.06260579
-0.22596243 -0.23514977 -0.084999226 -0.094633296 -0.08461802 -0.046840753 0.112874314 -0.071857944
-0.24173404 0.18889119 0.19367252 0.08220202 0.07173615 0.0055356687 0.052256413 -0.14336012
0.019009331 -0.25419322 0.08511793 0.0019022841 0.1953901 0.061152402 -0.1380271 0.028193105
00000000: c109 92be 21db 5fbe 63e6 13bc 481b 41be
00000010: 37ac aebd bff3 79be 1a67 a7bd 0120 3c3e
00000020: 2ad1 0e3e f2f6 96bc 67cd 213e 7440 10be
00000030: ff9a 8dbe d47a 2bbe 1ff9 f9bc 0f7e 4c3e
00000040: 4b98 043e ee7f 42be 606f 92be 7515 91bb
00000050: 9060 553e 1969 413e 2a78 98bc 26f3 433e
00000060: 932e 11bd 02e7 65bd eb9a 84be fff9 81be
00000070: b41d 58be d95e ed3c eed2 513e 84fc 4bbe
00000080: abd3 d53d 0e87 17be 725c 933e 6bbd 5e3c
00000090: bf8e 26be 3e84 12be 68c9 64be 4357 3cbe
000000a0: 5af7 de3d 4e7e cb3d 3fa2 bf3c 2862 34be
000000b0: e51c bbbd b7b2 c53d 16dd 00be a224 12be
000000c0: 1e9c 1c3e 25db 59be c66f 403c 207e 08be
000000d0: 9faa 89be 98fd 03be 0544 dbbc 1b8c 2a3e
000000e0: d660 dabe faf2 b7bd ca80 803e 8f7b 3fbd
000000f0: 46c8 4e3e 561d 3ebe 15c1 9dbe f0ae d0bd
00000100: b49d ec3c f528 963d ba8f 0f3e 1185 a63d
00000110: 7960 553c 493c 313e 2c9b bb3c 2717 283e
00000120: 91d3 1cbe ff64 44be dc14 c23a 3734 0e3e
00000130: c32e b4be 4072 3a3e 6dc1 e6bd a2aa 3f3e
00000140: fcbc 7e3d ab79 873c 5886 9dbd beb0 1a3e
00000150: 47c0 00be c96a 433e f82d 4b3e 00cc b8bd
00000160: a900 273d 2a8d 9cbd 8e5f d5bc b219 193e
00000170: 0fcc 0bbe 6223 2bbe eb5a 18be d21c 843e
00000180: 0c20 433d b42f 88be c15d 623d 81f1 e6bd
00000190: 507a a63e eb75 f53d 28ff 983d a386 a13d
000001a0: 1aed 553e 9859 b6bb dda8 2dbe 0b88 5c3c
000001b0: 8174 963e 51a5 e03e 562f 8ebd 507d d43c
000001c0: a834 1ebe d8b1 883d 0caa 51be ce7b 5bbe
000001d0: 6abf 62be 52e9 2bbe 8d85 d83e 58d2 ffbd
000001e0: 4ddc 09bd be1b 83bd f4d8 dc3e 984d ab3d
000001f0: 7475 b63c 3770 e83d 9b0e a8bd f70b 94bd
00000200: 0f98 733e c2d6 ba3e b99b 74bc 4391 0b3e
00000210: f5eb 283e 8123 b83d ad24 f2bd 853e efbb
00000220: 385b 6a3d 0319 81be f83d fd3d 885e 5c3e
00000230: 2c72 6fbe 19eb 5cbc 823c 60be 5eb3 2cbe
00000240: 4497 be3e ca69 503e b098 853d aa22 233e
00000250: 380b c2bd d7b7 10be 790c 1abe 0947 4bbe
00000260: c750 0a3e cae4 383d fa63 7fbd 6758 ca3b
00000270: 66c3 7f3e 8611 e23d f3a9 553e 6070 5ebe
00000280: 06fa 4f3e 67c1 223d 29f3 063e b5e0 2dbe
00000290: 0026 0f3e 4324 203d f0e7 023e 50dd fbbe
000002a0: fdf8 2c3e 126b 88bd 48ff 233e 93d4 423e
000002b0: 5d80 443e 7379 5bbd 38b1 99bd bb44 4cbd
000002c0: 9538 08be 422b c43e 66a8 62be 740e 2dbe
000002d0: 2394 1fbe c64c 3b3e ff3e 933c 2a62 82be
000002e0: e986 1c3d cb0d 4d3d 0dd2 acbd ffef 923b
000002f0: 4bee bdbd 4f1f 30bc 37e8 5a3e fa7d a03d
00000300: 93cb 8dbe 1da8 8cbe f177 eebd 9dc5 613e
00000310: 7f28 923d a273 aabe 6ffd 87bd 1e97 4fbe
00000320: 7a95 8abd fda2 473d 36c2 06be 20a4 c73d
00000330: bb2a 1bbe a879 68bd 52dc e8bd 13ac 3fbe
00000340: 7a8b c43d 32c3 82be 99d6 9bbb 95a8 3abe
00000350: 7f19 23be ce13 883e 8885 9f3d 79b2 13bd
00000360: c6a0 9c3e 256d 6f3e 8801 c2bc dd19 b43d
00000370: d16d 683e d276 013e f14e 2e3e 0e70 6c3e
00000380: 4a81 92bd efa4 75be 5e59 50be e7d4 49bd
00000390: 4804 233c 135f a9bd 4741 34bc 7737 80bd
000003a0: b262 67be 1acb 70be 1314 aebd 1acf c1bd
000003b0: 364c adbd 17dc 3fbd a62a e73d 422a 93bd
000003c0: 2189 77be b16c 413e 1752 463e 8859 a83d
000003d0: 67ea 923d 8e64 b53b d20a 563d ffcc 12be
000003e0: 75b9 9b3c 9d25 82be 4f52 ae3d 1056 f93a
000003f0: 5814 483e f17a 7a3d fa56 0dbe 3af5 e63c

model_2/yolo_head_P3/BiasAdd/ReadVariableOp:0 f4 [24]
-0.022692662 -0.040473606 0.23434903 -0.22101432 -2.3314557 -0.33203396 0.0589453 -0.09205946
-0.08205169 0.019004228 0.24628384 -0.29453364 -2.5227783 -0.2467023 -0.07034799 -0.05358465
-0.112451814 -0.0027438526 -0.15282612 -0.24203557 -2.5267365 -0.21276847 -0.08000524 -0.06393182
00000000: f6e5 b9bc a7c7 25bd 31f9 6f3e 9451 62be
00000010: 9236 15c0 5b00 aabe a070 713d ac89 bcbd
00000020: b70a a8bd c1ae 9b3c d531 7c3e 1dcd 96be
00000030: 3375 21c0 879f 7cbe 9b12 90bd 947b 5bbd
00000040: 234d e6bd 35d2 33bb 737e 1cbe 2cd8 77be
00000050: 0db6 21c0 fadf 59be cad9 a3bd b0ee 82bd

model_2/separable_conv2d_1/separable_conv2d/ReadVariableOp_1:0 f4 [12, 3, 1, 1]
-0.0442075 0.063801385 -0.24505068 -0.3553119 0.4717264 0.1618724 -0.5135255 0.22616984
-0.56318325 -0.43954173 0.4147607 -0.2612483 -0.43329874 0.12429829 -0.41347834 0.26724356
0.19755197 0.3966525 0.43565908 0.6360316 -0.22681405 -0.82899517 0.025484264 -0.5894701
-0.28388533 0.5449235 -0.057815835 0.49302414 0.47251776 -0.38053784 0.21801428 0.7238215
0.36680737 0.3917111 0.58155286 0.60494334
00000000: ec12 35bd 4daa 823d 91ee 7abe 71eb b5be
00000010: 1f86 f13e e1c1 253e 6876 03bf 1199 673e
00000020: c72c 10bf 9d0b e1be 845b d43e 56c2 85be
00000030: 55d9 ddbe 1a90 fe3d 6fb3 d3be 26d4 883e
00000040: 104b 4a3e 0916 cb3e b50e df3e f8d2 223f
00000050: f141 68be 0739 54bf 60c4 d03c 83e7 16bf
00000060: 6b59 91be 1b80 0b3f 4cd0 6cbd a96d fc3e
00000070: d9ed f13e dbd5 c2be 233f 5f3e 5e4c 393f
00000080: 2dce bb3e 5b8e c83e a6e0 143f 91dd 1a3f

model_2/separable_conv2d_1/BiasAdd/ReadVariableOp:0 f4 [12]
0.12507947 0.08326963 -0.034631662 0.11235797 -0.054209404 0.2755263 0.11483394 0.051409762
0.13608626 -0.0020845938 0.18567103 0.42308825
00000000: d514 003e 4589 aa3d eed9 0dbd ef1b e63d
00000010: ae0a 5ebd c811 8d3e 0f2e eb3d 0b93 523d
00000020: 325a 0b3e ae9d 08bb 8c20 3e3e 069f d83e

const_fold_opt__1139 f4 [64, 1, 1, 1]
0.08351946 0.36712992 0.23737325 0.09761204 0.18419285 0.30881026 0.17906035 -0.7799234
0.24229832 -0.3278729 0.67075324 0.21484077 0.44516218 -0.23543654 0.16441111 0.80662537
-0.07450123 0.36228904 0.46215537 -0.045298234 0.38279667 0.66509473 -0.5426823 -0.21095426
-0.5551202 0.584892 0.66060007 -0.79067343 0.44741353 -0.28344327 0.40697733 0.09241817
0.6432978 -1.0017266 0.25974303 0.4277916 0.17376915 0.3022366 0.37986866 -0.18833792
-0.4494281 -1.0301225 -0.2962433 -0.1817298 0.24211253 0.54785794 -0.904603 -0.3548028
-0.21680917 0.55058634 0.42849615 -0.58401823 -0.42107275 -0.619312 0.23549883 -0.27764374
-0.012490077 0.43894297 -0.46695474 -0.34914762 -0.6797728 0.47389442 -0.56292254 0.10712641
00000000: 400c ab3d 74f8 bb3e f911 733e d2e8 c73d
00000010: 0d9d 3c3e 611c 9e3e 995b 373e 0fa9 47bf
00000020: 0d1d 783e f5de a7be 7cb6 2b3f 38ff 5b3e
00000030: 4cec e33e 4716 71be 635b 283e 007f 4e3f
00000040: 1a94 98bd f37d b93e a19f ec3e a48a 39bd
00000050: edfd c33e a643 2a3f 3aed 0abf 6504 58be
00000060: 5c1c 0ebf 7bbb 153f 161d 293f 9369 4abf
00000070: 6313 e53e 7a1f 91be 555f d03e bd45 bd3d
00000080: 2aaf 243f 9438 80bf 0afd 843e 8007 db3e
00000090: 8af0 313e c1be 9a3e 257e c23e a8db 40be
000000a0: 711b e6be 0edb 83bf 34ad 97be 6017 3abe
000000b0: 59ec 773e 6b40 0c3f 1094 67bf b6a8 b5be
000000c0: 3903 5ebe 3af3 0c3f d963 db3e 3882 15bf
000000d0: d996 d7be 3b8b 1ebf 9b26 713e 5227 8ebe
000000e0: 2ea3 4cbc 22bd e03e b114 efbe 7ac3 b2be
000000f0: 9705 2ebf 4aa2 f23e b11b 10bf 1765 db3d

const_fold_opt__1138 f4 [64, 1, 1, 1]
-0.49759296 0.6755931 0.51309323 0.20838156 0.4691827 0.021695308 0.6107769 0.12575333
-0.71197134 1.483922 0.12579043 0.02084316 -0.25694564 -0.43586236 -0.16914004 0.3859522
0.15016589 0.4979433 -0.16081645 -0.09605111 -0.79297364 -0.17648558 -0.6223376 0.17489982
-0.46077034 -1.2126019 -5.5499648e-05 -0.47710845 0.053960722 0.44960138 -0.012806038 -0.65737444
0.17214005 0.002519202 0.21807097 0.99718076 0.019405644 0.2513456 -0.008582433 -0.6075666
0.010372466 0.7750501 -1.7994264 -0.5686101 -0.8124412 0.9571779 -1.0588816 -0.64452916
-0.86017877 0.61894953 -0.28733292 0.096564986 -0.3792382 0.69991726 -0.32181725 -0.617361
-0.8210581 0.86646 0.18307373 0.084569365 -0.6326577 1.1332493 0.032300267 0.3066882
00000000: 81c4 febe abf3 2c3f 145a 033f fa61 553e
00000010: b738 f03e 5cba b13c e05b 1c3f 7bc5 003e
00000020: c143 36bf 28f1 bd3f 35cf 003e 46bf aa3c
00000030: 618e 83be 5a29 dfbe 0c33 2dbe 879b c53e
00000040: 16c5 193e 6df2 fe3e 11ad 24be 72b6 c4bd
00000050: 5200 4bbf a3b8 34be 8451 1fbf f018 333e
00000060: 17ea ebbe 8a36 9bbf 4bc8 68b8 8f47 f4be
00000070: eb05 5d3d 2732 e63e 6bd0 51bc b149 28bf
00000080: 7b45 303e 3219 253b ff4d 5f3e 3d47 7f3f
00000090: 96f8 9e3c 5fb0 803e 559d 0cbc 7c89 1bbf
000000a0: 47f1 293c af69 463f 9b53 e6bf 6e90 11bf
000000b0: 25fc 4fbf 9c09 753f 6f89 87bf ddff 24bf
000000c0: ad34 5cbf 7a73 1e3f 4d1d 93be ddc3 c53d
000000d0: 822b c2be c72d 333f 3bc5 a4be 5f0b 1ebf
000000e0: dd30 52bf 53d0 5d3f ae77 3b3e b432 ad3d
000000f0: dbf5 21bf 500e 913f 494d 043d 3c06 9d3e

const_fold_opt__1137 f4 [64, 1, 1, 1]
-0.22752193 -0.017131906 0.06129316 -0.055566918 0.11895395 0.10564275 0.050420024 0.2781384
-0.13678509 -0.092757605 0.29802158 0.11688559 -0.21683057 0.21196368 -0.14710154 -0.18892744
-0.050807867 -0.09800469 -0.28786808 -0.20398295 -0.027731733 0.18373126 0.1464629 -0.0018001653
0.19795771 -0.16877274 -0.06590118 -0.29285794 -0.23174238 0.017410532 -0.17200352 0.12314503
0.14944921 0.20035912 -0.24517415 0.18182091 0.3288477 0.2587784 0.27698937 0.19097222
-0.21120031 -0.21611612 -0.2470295 0.104174435 0.2416516 0.3829591 0.14815772 0.088061325
-0.047901716 -0.11688207 -0.32878092 -0.0019827313 -0.07320669 0.099200435 0.18654694 -0.17606393
-0.2592668 -0.20609951 -0.23344363 0.27128193 0.12038513 0.100245915 -0.15290819 -0.15972222
00000000: 82fb 68be 3658 8cbc 890e 7b3d 239a 63bd
00000010: 219e f33d 3a5b d83d 3a85 4e3d 2868 8e3e
00000020: 6411 0cbe b3f7 bdbd 4996 983e b661 ef3d
00000030: d508 5ebe 020d 593e c9a1 16be 3276 41be
00000040: e91b 50bd afb6 c8bd 7263 93be e8e0 50be
00000050: a92d e3bc 0c24 3c3e 5ffa 153e 86f3 ebba
00000060: 6db5 4a3e c3d2 2cbe 33f7 86bd 7af1 95be
00000070: e04d 6dbe 88a0 8e3c b121 30be 7633 fc3d
00000080: 3709 193e f12a 4d3e ef0e 7bbe 432f 3a3e
00000090: ba5e a83e 9a7e 843e 8dd1 8d3e 398e 433e
000000a0: e544 58be 8b4d 5dbe 4df5 7cbe 6859 d53d
000000b0: 8473 773e 3713 c43e a8b6 173e 7f59 b43d
000000c0: 9734 44bd de5f efbd f955 a8be b6f0 01bb
000000d0: 64ed 95bd 9929 cb3d 2906 3f3e 1a4a 34be
000000e0: 9ebe 84be c00b 53be d90b 6fbe 77e5 8a3e
000000f0: 7b8c f63d bb4d cd3d f793 1cbe 398e 23be

const_fold_opt__1136 f4 [128, 1, 1, 1]
-0.14974628 -0.25124964 0.069968134 -0.12138012 0.27156836 0.17390038 -0.11467828 -0.0023439897
-0.17618628 0.14040965 0.06901227 -0.12752369 0.14298025 -0.10717684 -0.2541287 0.1196195
-0.07649907 0.097036496 0.02156129 -0.21053533 -0.16688575 -0.0035495711 -0.122499235 0.18308915
-0.23500052 -0.0228203 -0.02513005 -0.06990175 -0.21784115 -0.04773458 -0.0036525864 -0.10834547
0.00067376427 0.1616472 -0.10172849 -0.08669985 0.1353645 -0.1426659 0.17914182 -0.14299512
-0.08148867 -0.12178589 0.0932641 -0.03753664 -0.15609115 0.051985174 -0.11632166 -0.04327898
-0.14870574 0.11198842 -0.3029836 0.17096142 -0.053239174 0.26340273 -0.12810045 0.04722757
0.079794556 -0.25635692 0.052500162 -0.19056341 -0.021363642 -0.165803 -0.097000584 0.19579202
-0.070447885 -0.016898517 -0.11945287 0.09635312 -0.034410924 0.15784104 -0.0020426856 -0.15418991
0.13828157 -0.06881935 -0.0626957 -0.08098344 0.12403605 0.024207152 0.046592273 -0.09128422
-0.14387198 0.0322869 0.021476364 0.051117662 0.073627114 -0.0007159062 -0.12537344 -0.048122145
0.012364714 -0.17568026 0.195307 -0.01715219 0.07587283 0.08651082 0.05648608 -0.06039428
0.10453212 -0.19808747 0.078993045 0.06957626 -0.04056789 0.03594554 0.029337157 0.081134155
0.015073074 -0.14947508 0.11526963 -0.07813232 0.08620601 0.11094565 -0.04627046 -0.092007965
0.19834079 0.011260899 0.1407453 -0.02458268 0.08596402 -0.025011828 0.14744921 -0.022788566
-0.004710791 -0.09729632 -0.1103178 0.0743688 -0.1271274 -0.105372146 0.13856994 -0.0076372
00000000: 1757 19be cba3 80be 744b 8f3d 2496 f8bd
00000010: 020b 8b3e f112 323e 72dc eabd 9f9d 19bb
00000020: 2d6a 34be 8cc7 0f3e 4e56 8d3d 9295 02be
00000030: 6a69 123e 887f dbbd 281d 82be 12fb f43d
00000040: 8bab 9cbd 12bb c63d 4da1 b03c 9396 57be
00000050: 19e4 2abe ec9f 68bb e1e0 fabd b97b 3b3e
00000060: faa3 70be a3f1 babc 89dd cdbc a628 8fbd
00000070: c011 5fbe 5685 43bd 3b60 6fbb 3be4 ddbd
00000080: 8e9f 303a d886 253e 0757 d0bd b18f b1bd
00000090: fe9c 0a3e 0217 12be f470 373e 506d 12be
000000a0: 88e3 a6bd e16a f9bd 4001 bf3d 05c0 19bd
000000b0: 5cd6 1fbe 68ee 543d 0d3a eebd 4d45 31bd
000000c0: 5146 18be 2f5a e53d ab20 9bbe 8310 2f3e
000000d0: 5211 5abd b9dc 863e c42c 03be b271 413d
000000e0: 546b a33d 3741 83be 690a 573d 0e23 43be
000000f0: ce02 afbc 43c8 29be 3ea8 c6bd b47d 483e
00000100: fb46 90bd c26e 8abc b5a3 f4bd c954 c53d
00000110: 78f2 0cbd 15a1 213e 94de 05bb f6e3 1dbe
00000120: af99 0d3e 29f1 8cbd 9a66 80bd a5da a5bd
00000130: 9d06 fe3d 144e c63c 8ad7 3e3d 39f3 babd
00000140: 2d53 13be 453f 043d 33ef af3c c160 513d
00000150: d0c9 963d a7ab 3bba e561 00be ba1b 45bd
00000160: 5f95 4a3c 87e5 33be 8ffe 473e c082 8cbc
00000170: 3763 9b3d 962c b13d f35d 673d fe5f 77bd
00000180: f014 d63d 71d7 4abe 1bc7 a13d 007e 8e3d
00000190: 842a 26bd a13b 133d 7a54 f03c aa29 a63d
000001a0: 0ef5 763c ff0f 19be 7c12 ec3d d603 a0bd
000001b0: c78c b03d 7937 e33d 1886 3dbd ac6e bcbd
000001c0: d919 4b3e a27f 383c 891f 103e 9e61 c9bc
000001d0: e70d b03d 9be5 ccbc edfc 163e 16af babc
000001e0: fb5c 9abb 4b43 c7bd 4cee e1bd ab4e 983d
000001f0: af2d 02be 5acd d7bd 47e5 0d3e 7a41 fabb

const_fold_opt__1135 f4 [32, 1, 1, 1]
0.16105004 0.35567456 -0.4170772 0.3149446 0.36227465 0.41001502 0.13381524 0.21613763
0.24981816 -0.0642384 0.35110044 -0.30301926 -0.21606569 0.3232967 0.3269277 0.35036933
0.2279645 -0.41378093 -0.46450505 0.26034084 -0.067990966 0.28924814 -0.25696716 -0.33039442
0.22250901 -0.23662192 -0.3521415 0.17831776 0.49692628 -0.49006575 -0.36203116 -0.2556982
00000000: 4dea 243e fa1a b63e 258b d5be 6b40 a13e
00000010: 107c b93e 7ded d13e dd06 093e 2f53 5d3e
00000020: 55d0 7f3e 6c8f 83bd 70c3 b33e 5725 9bbe
00000030: 5340 5dbe 2587 a53e 1163 a73e 9c63 b33e
00000040: 876f 693e 18db d3be 9bd3 edbe 654b 853e
00000050: d93e 8bbd 5518 943e 3391 83be 7529 a9be
00000060: 67d9 633e 044d 72be e44b b4be ee98 363e
00000070: 1f6d fe3e e6e9 fabe 265c b9be e0ea 82be

const_fold_opt__1134 f4 [128, 1, 1, 1]
0.07266668 0.01695396 -0.1539488 0.03299687 -0.3775687 -0.13403611 0.09211732 0.017965179
0.2509342 -0.018980742 -0.090818115 0.06341075 -0.23761122 -0.18144192 0.17644066 0.12961967
-0.0034116297 0.08980357 0.1125476 -0.13620415 -0.22826155 0.042574666 0.096992746 0.18197358
0.014238422 -0.06352338 0.23974401 -0.05596708 0.21663868 -0.15561846 -0.080294125 0.21426445
0.28088236 0.038316295 0.11196826 0.1625333 -0.15102035 -0.4914689 0.10708947 -0.07545024
-0.036332533 -0.079062425 -0.069267236 -0.04135748 -0.09741724 -0.23548391 -0.1993586 0.048615992
0.24967016 -0.13458855 0.039425522 0.12589367 -0.40911123 0.25235936 0.28445804 0.15561056
-0.03220561 -0.022827633 -0.16292578 0.32215813 -0.19095905 -0.1183801 -0.31081825 -0.10687356
0.13198814 -0.033570573 -0.01714268 0.050507393 -0.04898907 0.020255215 -0.037753236 -0.018505638
0.14690928 -0.17761634 -0.025615133 -0.046698105 0.04783833 -0.008948353 0.010183745 -0.02020537
0.07448419 -0.014871643 -0.05648154 -0.10210787 0.11469672 -0.18502747 -0.066430904 0.14164668
-0.021413237 -0.1305627 -0.032135215 -0.13216944 -0.0588642 0.071492605 0.041231234 -0.054254927
0.03755569 -0.061146256 -0.031863086 0.111074165 0.02135188 -0.18301329 -0.018386707 -0.115773365
0.030398052 -0.09487796 0.03017988 0.059767127 -0.037179016 0.06215931 -0.12763378 -0.009193473
0.025473705 0.15369716 0.027540257 -0.018380541 -0.13114844 0.007222323 -0.0048871236 -0.007491006
0.1224834 0.0014071612 0.05096112 -0.015068547 0.01802534 0.022319103 -0.03125072 -0.0879591
00000000: 45d2 943d 08e3 8a3c c1a4 1dbe ba27 073d
00000010: af50 c1be c340 09be 01a8 bc3d b62b 933c
00000020: 737a 803e 807d 9bbc d9fe b9bd 7fdd 813d
00000030: 5b50 73be e9cb 39be dcac 343e 05bb 043e
00000040: a695 5fbb efea b73d 5b7f e63d 1a79 0bbe
00000050: 65bd 69be c662 2e3d 22a4 c63d 4857 3a3e
00000060: 4548 693c 8c18 82bd 747f 753e bd3d 65bd
00000070: 88d6 5d3e 725a 1fbe 3f71 a4bd 2468 5b3e
00000080: d0cf 8f3e 8cf1 1c3d 9d4f e53d 216f 263e
00000090: 14a5 1abe d0a1 fbbe b951 db3d a885 9abd
000000a0: 6cd1 14bd 7beb a1bd fbdb 8dbd 7666 29bd
000000b0: b182 c7bd b222 71be a924 4cbe 9021 473d
000000c0: 89a9 7f3e 95d1 09be a87c 213d 45ea 003e
000000d0: 0777 d1be 3f35 813e 7ca4 913e 6058 1f3e
000000e0: 08ea 03bd 0401 bbbc 04d6 26be e9f1 a43e
000000f0: c58a 43be 4471 f2bd 9223 9fbe 86e0 dabd
00000100: e627 073e 4c81 09bd ce6e 8cbc d7e0 4e3d
00000110: c3a8 48bd 44ee a53c 23a3 1abd 2399 97bc
00000120: 636f 163e 0fe1 35be d4d6 d1bc 8346 3fbd
00000130: 20f2 433d 1d9c 12bc b9d9 263c bb85 a5bc
00000140: 2b8b 983d 31a8 73bc 3059 67bd ee1d d1bd
00000150: 1de6 ea3d d777 3dbe ed0c 88bd d40b 113e
00000160: d06a afbc 3ab2 05be 37a0 03bd 6d57 07be
00000170: 961b 71bd b76a 923d 15e2 283d 6a3a 5ebd
00000180: ffd3 193d 7f74 7abd de82 02bd da7a e33d
00000190: 23ea ae3c d667 3bbe b89f 96bc 961a edbd
000001a0: 5605 f93c 604f c2bd cc3b f73c 60ce 743d
000001b0: 0649 18bd c39a 7e3d 6eb2 02be 38a0 16bc
000001c0: 3bae d03c ca62 1d3e 1b9c e13c ca92 96bc
000001d0: c74b 06be 3da9 ec3b 2a24 a0bb 1d77 f5bb
000001e0: 94d8 fa3d 7f70 b83a 9bbc 503d 11e2 76bc
000001f0: e1a9 933c 8dd6 b63c c100 00bd e723 b4bd

const_fold_opt__1133 f4 [64, 1, 1, 1]
-0.27094612 0.18526916 0.23322774 0.18997943 0.3868298 -0.014161197 -0.139248 -0.1935379
-0.22019942 0.12738134 0.112671435 -0.25480857 -0.17677185 -0.104289964 -0.2048262 -0.10568487
0.32143578 0.07594064 -0.10955809 -0.22348109 -0.050156 -0.11463547 -0.22764926 0.17932007
0.08009986 0.064636625 0.15121724 -0.38175392 0.036615353 -0.1157095 0.124220684 -0.20839986
-0.044690855 0.2522733 -0.012319681 0.11263767 0.031865023 0.20143302 0.22956216 0.34178466
0.22231168 -0.35610178 -0.2865399 -0.09317133 0.24804266 0.31469068 0.23391736 -0.047291674
0.2735452 -0.21880704 0.23057494 -0.11782339 -0.004398562 -0.21408266 0.0894999 -0.16183643
0.041906018 -0.31003028 -0.056475673 0.10257208 -0.11223716 0.029511048 -0.14642815 -0.06767514
00000000: 73b9 8abe 33b7 3d3e 41d3 6e3e f889 423e
00000010: 8e0e c63e 5d04 68bc 0797 0ebe cd2e 46be
00000020: f57b 61be 4170 023e 48c0 e63d 4576 82be
00000030: ae03 35be fa95 d5bd f6bd 51be 4f71 d8bd
00000040: 3b93 a43e c486 9b3d fe5f e0bd 3ad8 64be
00000050: 6170 4dbd 00c6 eabd e31c 69be ae9f 373e
00000060: 650b a43d 3560 843d b1d8 1a3e 4075 c3be
00000070: fbf9 153d 1af9 ecbd 6a67 fe3d c666 55be
00000080: c20d 37bd f729 813e 7dd8 49bc 94ae e63d
00000090: e684 023d 7544 4e3e 5812 6b3e 66fe ae3e
000000a0: aca5 633e f952 b6be 5cb5 92be 9cd0 bebd
000000b0: e5fe 7d3e 231f a13e 0888 6f3e eab4 41bd
000000c0: 1e0e 8c3e f40e 60be d61b 6c3e 644d f1bd
000000d0: d021 90bb 7c38 5bbe b94b b73d 73b8 25be
000000e0: a5a5 2b3d 4abc 9ebe 0953 67bd 5011 d23d
000000f0: 99dc e5bd 27c1 f13c 43f1 15be 4499 8abd

const_fold_opt__1132 f4 [32, 1, 3, 3]
0.109730996 -0.09575244 0.044295482 -0.007923861 -0.18577752 0.09277922 -0.026728196 -0.046831205
0.15311828 -0.096047066 -0.07716848 -0.010125057 -0.09878278 -0.07961814 0.1583155 -0.08214889
-0.08133003 0.066220775 -0.073827446 -0.21739687 -0.1462689 -0.040871184 0.022670714 -0.29961208
-0.05528347 0.018489758 -0.006452857 -0.13824368 -0.027929876 -0.1351215 -0.028918676 -0.060085047
-0.11868734 -0.0529426 0.20588553 0.14138317 -0.009056634 0.087623276 0.051771387 0.1128914
0.135049 -0.06561961 -0.019798804 -0.11218943 -0.16730505 -0.01828992 0.01974172 0.15664417
-0.04551468 -0.10606639 0.33708155 -0.08549202 -0.12465274 -0.013911931 -0.06656749 -0.09774842
-0.07613155 -0.072082035 -0.06478762 0.061228096 -0.0028543086 0.101463206 0.24708046 0.057397474
0.0855081 0.06686457 -0.022187138 0.054792557 -0.019920165 -0.04232926 -0.07584729 -0.01904205
0.006621959 0.10955048 0.066120654 0.07928844 0.038834006 -0.16930045 -0.106881395 0.088159785
0.08715497 0.020786496 -0.056348044 0.038803957 -0.07914149 -0.0011888958 0.08690478 -0.012772546
0.061882094 0.27421108 0.04417135 -0.007880938 0.09926747 -0.07843421 -0.13054013 0.07465832
-0.032468185 0.033884052 -0.029720496 0.017141448 0.23676892 0.12138196 -0.10132114 0.18438058
0.004875044 -0.05368253 0.005942723 -0.11149632 0.054014552 -0.05378662 -0.18309154 0.093405254
0.036489803 -0.022357713 0.019442258 0.3260868 0.21292992 0.0059244097 0.030025983 0.047759414
-0.044042878 0.11330666 0.34250104 0.012131893 0.057878178 0.12557717 0.09633776 -0.04972013
-0.059388503 -0.02241159 0.04655884 0.20224755 -0.08531582 0.024054805 0.21389984 0.059242614
-0.012828543 -0.01972782 0.25748065 0.23936361 -0.06967494 0.07281318 -0.15569119 -0.15236205
-0.13867673 -0.10087982 -0.09171145 0.20486939 -0.12515281 0.04079317 0.08142603 -0.039716173
-0.05495162 0.013531607 0.06099612 0.17151971 -0.061668918 -0.07092786 0.09534921 -0.12732774
-0.053422615 -0.11928222 0.0378213 0.019502047 0.12617964 -0.016548518 0.086358085 0.0040654745
0.14876705 0.12432752 -0.15107827 0.14912006 -0.060774203 -0.16307391 0.017131833 -0.11419673
-0.30330026 -0.042789098 -0.009307413 0.08877971 -0.058125228 0.0016591857 -0.034499135 -0.28760043
-0.10375481 -0.028264783 0.020192841 0.070841774 0.19625278 -0.115478136 0.029191589 0.15131985
-0.19221267 0.06570604 0.23540953 -0.059410926 -0.058132615 0.05519915 0.1725016 -0.08716021
-0.025736066 0.1260782 0.08355278 0.13388968 -0.045400057 0.010147268 0.11787854 0.14590338
-0.002197221 -0.1500208 0.17495811 0.14727746 -0.11636075 0.08355304 -0.0017707825 -0.078131124
0.033682454 -0.013497317 -0.10201962 -0.005915215 0.16102973 -0.21166746 -0.034628388 0.23122613
0.044679992 -0.095201425 -0.05271632 -0.14350498 -0.04026592 -0.06260787 -0.14780064 -0.04321151
0.04535096 0.0064283144 0.014567574 0.014771859 0.098941274 -0.13618043 -0.15709303 0.19585797
-0.055783153 -0.13727707 -0.029991047 -0.104836665 -0.027365198 0.00476856 -0.059707966 0.13272668
0.19682747 -0.10845414 0.04945935 0.0030821061 0.12800649 -0.0052218656 0.15483725 0.24599622
00000000: a5ba e03d db19 c4bd 2e6f 353d 15d3 01bc
00000010: 763c 3ebe 0803 be3d 17f5 dabc 14d2 3fbd
00000020: 0acb 1c3e 53b4 c4bd 820a 9ebd 91e3 25bc
00000030: a04e cabd d60e a3bd 751d 223e ad3d a8bd
00000040: 5c90 a6bd c29e 873d d832 97bd 499d 5ebe
00000050: 84c7 15be 8b68 27bd efb7 b93c c166 99be
00000060: eb70 62bd d577 973c 7d72 d3bb c08f 0dbe
00000070: 32cd e4bc 4a5d 0abe dce6 ecbc bd1b 76bd
00000080: 5912 f3bd 57da 58bd a8d3 523e c0c6 103e
00000090: 4762 14bc d573 b33d 3c0e 543d 9b33 e73d
000000a0: 494a 0a3e 9363 86bd 1a31 a2bc 92c3 e5bd
000000b0: 0452 2bbe bed4 95bc 63b9 a13c 5467 203e
000000c0: 9a6d 3abd 5639 d9bd f495 ac3e 7116 afbd
000000d0: f049 ffbd deee 63bc 8954 88bd 5330 c8bd
000000e0: dcea 9bbd bf9f 93bd 5faf 84bd 50ca 7a3d
000000f0: 5a0f 3bbb f1cb cf3d a902 7d3e 9d19 6b3d
00000100: df1e af3d 4bf0 883d cdc1 b5bc 296e 603d
00000110: 9d2f a3bc 7261 2dbd d355 9bbd 13fe 9bbc
00000120: 05fd d83b 015c e03d 446a 873d fa61 a23d
00000130: 6810 1f3d 195d 2dbe a2e4 dabd 1e8d b43d
00000140: 4e7e b23d 7148 aa3c 35cd 66bd e6f0 1e3d
00000150: ef14 a2bd b9d4 9bba 22fb b13d f143 51bc
00000160: 1478 7d3d 6565 8c3e 04ed 343d 0d1f 01bc
00000170: be4c cb3d 1da2 a0bd 50ac 05be 76e6 983d
00000180: 5cfd 04bd 01ca 0a3d 6678 f3bc 396c 8c3c
00000190: 8d73 723e 1b97 f83d 7581 cfbd 43ce 3c3e
000001a0: d5be 9f3b 36e2 5bbd 2cbb c23b 2f58 e4bd
000001b0: 5d3e 5d3d 5c4f 5cbd 597c 3bbe 414b bf3d
000001c0: 5576 153d 8627 b7bc 5f45 9f3c d9f4 a63e
000001d0: 4d0a 5a3e 8d21 c23b 0df9 f53c 609f 433d
000001e0: 4e66 34bd 520d e83d 4c5c af3e d9c4 463c
000001f0: ab11 6d3d 4d97 003e bb4c c53d 56a7 4bbd
00000200: 5c41 73bd 8398 b7bc 7bb4 3e3d fb19 4f3e
00000210: 10ba aebd 950e c53c 8f08 5b3e 62a8 723d
00000220: cf2e 52bc 3d9c a1bc 81d4 833e bc1b 753e
00000230: bcb1 8ebd 141f 953d 836d 1fbe cc04 1cbe
00000240: 4601 0ebe 149a cebd 36d3 bbbd 48c9 513e
00000250: 0f28 00be bd16 273d b1c2 a63d 6dad 22bd
00000260: f314 61bd acb3 5d3c 11d7 793d dda2 2f3e
00000270: 8c98 7cbd a042 91bd 7246 c33d 3462 02be
00000280: acd1 5abd 3d4a f4bd 82ea 1a3d c2c2 9f3c
00000290: 3c35 013e c290 87bc 82dc b03d ac37 853b
000002a0: 6456 183e 6d9f fe3d 43b4 1abe eeb2 183e
000002b0: 5fee 78bd d9fc 26be 0f58 8c3c fadf e9bd
000002c0: 2c4a 9bbe 9f43 2fbd 1f7e 18bc 23d2 b53d
000002d0: b814 6ebd 0979 d93a f74e 0dbd 5d40 93be
000002e0: 677d d4bd 8c8b e7bc 756b a53c 7e15 913d
000002f0: 7df6 483e cd7f ecbd 3323 ef3c 97f3 1a3e
00000300: 66d3 44be e390 863d 320f 713e df58 73bd
00000310: 771c 6ebd 8118 623d 42a4 303e 0d81 b2bd
00000320: 71d4 d2bc a51a 013e b81d ab3d 601a 093e
00000330: 69f5 39bd ba40 263c 4e6a f13d b267 153e
00000340: 40ff 0fbb 0d9f 19be 3828 333e e7cf 163e
00000350: 8b4e eebd db1d ab3d 9a19 e8ba 3603 a0bd
00000360: 9df6 093d da23 5dbc aaef d0bd 6bd4 c1bb
00000370: fae4 243e 5bbf 58be 7fd6 0dbd 8bc6 6c3e
00000380: 5e02 373d f7f8 c2bd 11ed 57bd f8f2 12be
00000390: e1ed 24bd 8e38 80bd 0d59 17be 8dfe 30bd
000003a0: eec1 393d 9ca4 d23b d5ac 6e3c ab05 723c
000003b0: b9a1 ca3d e272 0bbe ffdc 20be fe8e 483e
000003c0: e07c 64bd 5c92 0cbe c9af f5bc 9bb4 d6bd
000003d0: fb2c e0bc 9541 9c3b 5790 74bd 81e9 073e
000003e0: 248d 493e 341d debd e395 4a3d 29fd 493b
000003f0: 2214 033e 2f1c abbb a88d 1e3e 6fe6 7b3e

const_fold_opt__1131 f4 [64, 1, 1, 1]
-0.011737457 0.2602351 -0.047104105 -0.28100643 -0.12590969 0.32083377 -0.007020924 -0.054944884
0.22620152 0.20865598 0.12466795 0.31155893 0.2944494 0.054534893 0.27187222 0.039603047
0.13496336 0.3842491 -0.05643071 0.28416404 0.2305302 0.24383521 0.13932472 -0.238889
-0.23360611 -0.22809297 0.036481686 -0.17320786 -0.07501938 0.23245482 0.21486497 0.04776477
0.07769924 0.05869138 0.064395204 0.25073528 0.13582058 -0.07219832 0.03355926 0.12987453
0.04453308 0.17770617 -0.30243176 -0.082097895 -0.095892996 -0.10325037 -0.16680263 0.20958419
0.035962064 0.1743196 -0.021882549 0.17864501 -0.05853452 -0.14976642 0.0842415 0.2710071
-0.12746538 0.25406253 0.25429392 -0.060351446 -0.3209108 -0.13809505 -0.19840486 0.07672763
00000000: 764e 40bc 893d 853e 3cf0 40bd 13e0 8fbe
00000010: 78ee 00be 5344 a43e c70f e6bb e30d 61bd
00000020: 5fa1 673e eaa9 553e e951 ff3d a784 9f3e
00000030: 12c2 963e fb5f 5f3d d632 8b3e ce36 223d
00000040: d633 0a3e 4cbc c43e e323 67bd f37d 913e
00000050: 1c10 6c3e f0af 793e 24ab 0e3e 519f 74be
00000060: 7136 6fbe 3491 69be d26d 153d 675d 31be
00000070: c3a3 99bd a308 6e3e 9005 5c3e fea4 433d
00000080: c720 9f3d 5f66 703d a2e1 833d 6060 803e
00000090: 8d14 0b3e b6dc 93bd 6f75 093d d4fd 043e
000000a0: 5268 363d 9bf8 353e 56d8 9abe f122 a8bd
000000b0: 8c63 c4bd ee74 d3bd 4fce 2abe 3d9d 563e
000000c0: f54c 133d d680 323e 0843 b3bc b8ee 363e
000000d0: e5c1 6fbd 5e5c 19be cf86 ac3d 71c1 8a3e
000000e0: 4986 02be 7c14 823e d032 823e 1433 77bd
000000f0: 6c4e a4be ca68 0dbe a52a 4bbe 6023 9d3d

const_fold_opt__1130 f4 [64, 1, 1, 1]
0.30228493 -0.13775927 0.25113115 0.18785974 -0.086181425 -0.1244283 -0.13855962 0.12762368
0.16042566 0.24423113 0.1447156 0.23782434 0.31320438 -0.2122512 0.14450899 -0.3335013
-0.008799427 0.10646769 0.19037163 0.008101438 0.006024246 0.30333176 -0.116986476 0.09101845
-0.20821382 -0.25031137 -0.12256108 0.11048971 -0.111697495 0.24864906 0.19885972 -0.14456356
-0.030871367 -0.2198567 -0.114558876 0.17330277 0.216127 -0.13606094 0.11897743 0.17184527
-0.2029506 -0.30466756 0.2998451 0.1803779 -0.1866523 -0.26744613 -0.16090536 -0.11482006
0.24784933 0.15304387 0.14490284 -0.16674912 -0.07212548 -0.03598632 0.21793953 -0.14322393
0.20944819 -0.20586619 -0.066073604 -0.1513179 0.060829666 0.008335052 0.063493006 -0.23397271
00000000: 17c5 9a3e c410 0dbe 4394 803e 4e5e 403e
00000010: e37f b0bd 44d4 febd 93e2 0dbe c8af 023e
00000020: a046 243e ba17 7a3e 5430 143e 3988 733e
00000030: 535c a03e 6158 59be 2afa 133e afc0 aabe
00000040: 792b 10bc bb0b da3d c8f0 423e e5bb 043c
00000050: 0a67 c53b 4d4e 9b3e 9b96 efbd e267 ba3d
00000060: 0136 55be d028 80be 4e01 fbbd 6e48 e23d
00000070: a8c1 e4bd dc9d 7e3e e2a1 4b3e 7808 14be
00000080: f3e5 fcbc 1d22 61be d89d eabd 4876 313e
00000090: 6550 5d3e 8f53 0bbe 70aa f33d 35f8 2f3e
000000a0: 48d2 4fbe 63fd 9bbe 4c85 993e fcb4 383e
000000b0: c821 3fbe b3ee 88be 60c4 24be c826 ebbd
000000c0: 37cc 7d3e 88b7 1c3e 6961 143e 48c0 2abe
000000d0: 86b6 93bd 6466 13bd 8a2b 5f3e 4ba9 12be
000000e0: 9679 563e 96ce 52be 9951 87bd 14f3 1abe
000000f0: 8728 793d be8f 083c 9f08 823d 8b96 6fbe

const_fold_opt__1129 f4 [96, 1, 1, 1]
-0.09566444 -0.05304725 -0.14691038 0.21735229 0.16473009 0.20038842 0.18138869 0.07681347
0.07422971 -0.1546256 0.25247073 -0.26185834 0.2707454 0.09534743 -0.26051673 0.07482879
0.11892429 -0.015774844 -0.12924384 0.045433585 -0.220348 0.3000165 0.13112879 -0.06666465
-0.2526878 0.11847064 0.13183305 0.13980068 0.15073147 -0.23981573 0.10901682 0.08579991
0.17883606 -0.1606871 0.07416199 0.10308771 -0.14036418 0.014687047 0.09614176 0.2572969
0.13146448 0.17863844 0.02027685 -0.14697412 0.028602576 -0.13261077 -0.12065685 0.012509826
0.20634179 0.08853003 -0.0020107487 0.0124527635 -0.12787645 -0.07660414 0.14341667 -0.1970922
-0.044380177 -0.03193012 -0.08602725 0.055219725 -0.032360192 0.17635371 0.1265248 -0.05104981
-0.1313727 0.08404564 0.11529085 0.010567788 -0.02140329 0.051718473 0.09426786 0.2140995
-0.066888936 0.069131896 0.15686153 -0.04880391 -0.0937926 0.05202678 0.18767512 0.08367516
0.025705764 0.09457274 -0.015041688 0.118611835 0.013058752 0.2199739 -0.14592852 -0.0021626824
-0.048874557 -0.07618871 0.105168596 -0.14012222 -0.11218457 -0.11402927 -0.13505444 0.14479296
00000000: b8eb c3bd 1348 59bd ad6f 16be 9991 5e3e
00000010: 01af 283e 9f32 4d3e f5bd 393e 6150 9d3d
00000020: bf05 983d 2c56 1ebe d843 813e 4c12 86be
00000030: 249f 8a3e 8345 c33d 7362 85be d63f 993d
00000040: 948e f33d 3f3a 81bc 7f58 04be 9118 3a3d
00000050: e8a2 61be c39b 993e a046 063e 7a87 88bd
00000060: 4c60 81be bca0 f23d 3eff 063e e927 0f3e
00000070: 5a59 1a3e 4192 75be 3644 df3d ddb7 af3d
00000080: cd20 373e 298b 24be 3ee2 973d a61f d33d
00000090: a1bb 0fbe f1a1 703c f9e5 c43d 6bbc 833e
000000a0: a09e 063e ffec 363e a31b a63c 6280 16be
000000b0: f34f ea3c 1ecb 07be f01a f7bd 03f6 4c3c
000000c0: 434b 533e 3b4f b53d c4c6 03bb ad06 4c3c
000000d0: 0bf2 02be a2e2 9cbd d2db 123e 8ad2 49be
000000e0: fdc7 35bd 28c9 02bd 0e2f b0bd 142e 623d
000000f0: 1f8c 04bd 1196 343e b88f 013e 9b19 51bd
00000100: 9186 06be 1f20 ac3d 9c1d ec3d 8424 2d3c
00000110: f455 afbc c0d6 533d 820f c13d e63c 5b3e
00000120: 11fd 88bd 0695 8d3d 4fa0 203e 9ce6 47bd
00000130: 5616 c0bd 081a 553d e82d 403e e25d ab3d
00000140: e594 d23c 5aaf c13d 6a71 76bc c3ea f23d
00000150: 60f4 553c d740 613e 496e 15be cabb 0dbb
00000160: b030 48bd d408 9cbd a262 d73d 337c 0fbe
00000170: 06c1 e5bd 2e88 e9bd b64b 0abe 9b44 143e

const_fold_opt__1128 f4 [32, 1, 1, 1]
0.028226322 0.4471258 0.14539374 0.29671937 -0.08301997 0.28469935 0.34161958 -0.30542335
0.18974084 -0.04275049 -0.14500512 0.30084243 -0.034545947 0.3592877 0.3362513 -0.1957768
0.1970275 0.009149877 0.19044667 0.052183714 -0.32556155 0.11894724 -0.14001526 0.24232478
-0.3802611 0.50232303 0.25253788 -0.20644884 0.22624938 -0.30853286 0.1236689 -0.20467634
00000000: e33a e73c aced e43e 19e2 143e 9aeb 973e
00000010: 6006 aabd 1dc4 913e c3e8 ae3e 7360 9cbe
00000020: 6c4b 423e 231b 2fbd 397c 14be 0508 9a3e
00000030: 0d80 0dbd 8ff4 b73e 2129 ac3e b779 48be
00000040: 94c1 493e 5ee9 153c 7404 433e 97be 553d
00000050: 01b0 a6be 9c9a f33d 2960 0fbe fd23 783e
00000060: 95b1 c2be 3e98 003f a54c 813e 5367 53be
00000070: ebad 673e 05f8 9dbe 1f46 fd3d ad96 51be
