deploy/best_epoch_weights.onnx (onnx, 648301 bytes, 177 tensors)

model_2/yolo_head_P5/separable_conv2d/ReadVariableOp_1:0 f4 [24, 64, 1, 1]
00000000: 2dab 5cbd ebe6 bfbd 7a7d c53c e519 3b3e
00000010: d600 573e 0258 153e 6d33 953d 8221 5a3d
00000020: f8a5 fe3d a12d 253d 7c77 20be 335f 33be
00000030: 5a02 823e 7eda 333e 654c 52be 3916 85bc
00000040: 2df0 82be 1c61 003c 7bdd cd3e 84bc 6fbe
00000050: 4c0a 80be ac31 c93c 77e0 d5bd 8cc5 2bbe
00000060: 2c9e 22be cd88 7c3e 7dce 5dbe 4772 2ebe
00000070: 257d edbd 0a9b 4d3c 4771 943e b0f4 303e
00000080: 28da 81be 699a bdbd 4706 583e 64cc c23d
00000090: 5bab 1f3e ee82 1c3e 7f97 853e 0eb7 54be
000000a0: 6e20 163e d1c3 c53e 5ec7 5bbe 498f 383e
000000b0: 6ebe 36be 382d 8e3c 6395 c2be 05ba 4fbe
000000c0: 8798 903e 499d b83b 8594 b0bd ca28 85bb
000000d0: b726 933c 6179 a43e ceb4 83be 76c7 6a3e
000000e0: b504 cc3c 75c3 d7bd ea39 f13d a7c0 aa3d
000000f0: 3b4e 9d3e 5bf2 7dbe 3095 f93d 222d 073e
00000100: 3232 85bd 7ca4 0fbe 3200 543e 4402 65bd
00000110: 1f89 883d 035e 923e e685 ecbd 3e89 413e
00000120: 666a 563e 955d dd3c 926f 473e cbeb 9f3b
00000130: 72d0 e73d f93e 1e3e 9c95 ce3d 99fd 243e
00000140: 6b6d 333e 1e5a 7cbe 03d9 403e 207c da3d
00000150: 3708 2abd 3943 19be d1b4 413d 19b5 303e
00000160: cef2 9cbe 862f 063e 3833 543e 89f6 d13c
00000170: 262d 853e 67ff 02be b3df ef3d 62b2 5c3e
00000180: 1898 0cbe d6b9 073e f8c6 d8bc b51a c0be
00000190: e884 3dbe 97bf 443d 997a e9bd 7283 393e
000001a0: 74a6 ab3c 09a7 6d3d 4594 96bd 043d 42be
000001b0: bd3f 33bd 3e82 4a3e 9f4f 193e fe37 3b3e
000001c0: b784 623b ff58 afbe 364f 68bb cb4c aa3d
000001d0: e9d9 0abe 0caf 8fbe ffde 7bbe ea40 67be
000001e0: 2ca3 febd 5d91 3a3e 964f 133e 2b0a 18be
000001f0: a2b5 113e 7243 743e 6c31 66be 7262 31bd
00000200: bca4 893e 5323 cebd 150f c6bd 2118 043c
00000210: 6d8e 6abe 6427 78be e00f 5a3d ea48 fd3c
00000220: 1ee5 a3bd e36a 56be c6cd 3d3e e6ce 1f3e
00000230: 4666 5f3e 3c8c 21bd f3a0 8d3d 934c 06bd
00000240: 8f84 3abd 0799 fe3d c327 d03d 51c1 183e
00000250: 9fc3 323e 91de d1bd eb2f 393e b361 713e
00000260: 46bb 303d 664d 2e3e 6469 e53c 476e fa3c
00000270: 4813 a33d 9694 49be 1e66 a23c 3fd4 2dbe
00000280: 4f59 78bc d406 56bd 8f81 8fbc aeab df3d
00000290: 5a84 603e 988d 8c3e 03af afbc d46f 9f3c
000002a0: 13ba 8cbd 0fb0 583d f010 583d 4046 c0bd
000002b0: 9cf7 8c3e eb45 d3bd 8b8a 5c3d cec8 3b3e
000002c0: dc53 8f3e 5149 be3c 2a2a 12be 2906 06be
000002d0: 0ef7 4f3e 913b bb3d d93d af3d 1ccd 62be
000002e0: ebb5 ea3d bd2f 00bd eee4 d3bb 42fa b93d
000002f0: 8fb5 34bc 460f f03d add9 e23d 68ce 9ebd
00000300: 8a52 6e3e 4b5a 14bb cf06 6f3d b15e 723e
00000310: 8b4d 843e 4779 87bd f0b5 803e 0dd3 95bd
00000320: 5930 e3bd 6120 0fbd e990 eabd 4636 6a3d
00000330: 763f d63e f873 46be e2e8 4dbe 3e7c 743c
00000340: 035d 7ebd 104a 3dbe d3b6 403e 6ac8 30be
00000350: 4095 82bd a621 36be 0aba 193e 623e 3d3e
00000360: 1ce0 2e3e 8cf3 e03e d72d 623c ffd8 903c
00000370: 4bd5 42be d7e1 4e3e bdd7 e93c 16e8 4e3e
00000380: 0361 32be 0949 0fbe 646c 09bd c99b 62be
00000390: 88e9 38bd 4462 423d 3afe b03d 249f c0bd
000003a0: 9bd1 0abe 7c50 c83b 9166 e6bb 9f07 593d
000003b0: 3cac 9d3e 6d38 2fbe 995f 413d 3143 1a3d
000003c0: 4541 6f3c e163 b6bd 49d5 5a3d b5b7 8f3d
000003d0: 2d83 45bd 87e2 2c3e d84c fb3d 7741 67be
000003e0: d357 d13c bea3 d93d 913f 15bc b49a 723e
000003f0: 802f fe3b 309d 043d 188e 3dbe 1802 1c3d
-0.053874183 -0.09370216 0.024107683 0.18271597 0.20996413 0.14584354 0.07285199 0.05325461
0.12434 0.04032672 -0.1567058 -0.17516784 0.2539242 0.17563817 -0.20536955 -0.016245948
-0.25573865 0.007835653 0.4020804 -0.23411757 -0.25007856 0.024559818 -0.10443204 -0.16774577
-0.1588065 0.2466156 -0.216608 -0.17035781 -0.11596135 0.012549171 0.28992674 0.17280841
-0.25361753 -0.09257967 0.21096145 0.09511641 0.1559271 0.1528432 0.26092145 -0.20772955
0.14660808 0.3862596 -0.21462771 0.18023409 -0.1784608 0.017355546 -0.38004598 -0.20285805
0.2824137 0.005633984 -0.08622078 -0.0040637003 0.017962797 0.32123855 -0.2572388 0.22927651
0.024904588 -0.10535327 0.11778624 0.08337527 0.30723748 -0.24799483 0.121866584 0.1320081
-0.065037146 -0.1402759 0.207032 -0.055910364 0.06666779 0.2858735 -0.115489766 0.1890001
0.20939025 0.027022162 0.19476154 0.0048804036 0.11319055 0.1545371 0.100871295 0.16112365
0.17522208 -0.24643752 0.18832783 0.10668206 -0.04151174 -0.1496705 0.04729158 0.17256583
-0.30653995 0.13104066 0.20722663 0.025630252 0.26011008 -0.12792741 0.11712589 0.21552423
-0.13729894 0.13254485 -0.026462063 -0.37520376 -0.18507731 0.048034277 -0.11400337 0.18116549
0.020953394 0.058020625 -0.07352499 -0.18968588 -0.043761957 0.19776246 0.1497178 0.18283078
0.0034563967 -0.34247586 -0.0035447604 0.08315428 -0.13559689 -0.28063238 -0.24596785 -0.22583356
-0.12433466 0.18219514 0.14385828 -0.14847629 0.14229444 0.23853853 -0.2247979 -0.043306775
0.26883495 -0.10065331 -0.096708454 0.008062393 -0.22905894 -0.24233776 0.053237796 0.030918557
-0.08002685 -0.20939212 0.18535528 0.15606269 0.21816358 -0.03944038 0.06915464 -0.03278787
-0.045536574 0.124315314 0.10163834 0.14917494 0.17457436 -0.10247529 0.18084686 0.23572426
0.043147348 0.17021713 0.028004356 0.030570162 0.07962662 -0.19685587 0.019824084 -0.16975497
-0.015158012 -0.052252606 -0.017517833 0.10921417 0.21925488 0.27451777 -0.021445757 0.019462503
-0.06871428 0.052902278 0.052750528 -0.09388399 0.2753266 -0.1031607 0.053843062 0.1833832
0.27993667 0.02322832 -0.14273897 -0.13088287 0.20309088 0.09142221 0.085567184 -0.22148556
0.11460479 -0.031295527 -0.0064664995 0.09080936 -0.011029615 0.11721663 0.110766746 -0.077542126
0.23273674 -0.0022636827 0.058356103 0.23668934 0.2584041 -0.06614929 0.25138807 -0.07315645
-0.11093206 -0.03494299 -0.11453421 0.057180665 0.41845292 -0.19380176 -0.20108369 0.0149222
-0.06210042 -0.18485284 0.18819742 -0.17263952 -0.063761234 -0.17786273 0.15012375 0.18480828
0.17077678 0.43935812 0.013804874 0.017681597 -0.19026677 0.20203339 0.028545255 0.20205721
-0.1741982 -0.13992704 -0.033550635 -0.2212974 -0.045144588 0.047456995 0.0864224 -0.09405354
-0.1355652 0.00611311 -0.00703127 0.052985784 0.30795467 -0.17111368 0.04721031 0.037661735
0.014602964 -0.08905769 0.05342606 0.07017461 -0.048220802 0.16883288 0.12270516 -0.22583567
0.025554573 0.106269345 -0.009109394 0.23691827 0.0077571273 0.03237647 -0.18511236 0.038087934

model_2/yolo_head_P5/BiasAdd/ReadVariableOp:0 f4 [24]
00000000: d757 003d ae75 0abd 83ae c6be 56f6 07be
00000010: 8783 adc0 3bb5 4fbe 11a9 8abe 55e0 31bf
00000020: b488 3e3d 6f20 053d 5cc0 e3be f3a7 dabe
00000030: 2dce afc0 c2c5 c43e a9f1 02bf b290 4cbf
00000040: 1d77 75bb 679b bebc 4af0 5ebf 43e8 1bbf
00000050: d1dc b3c0 f9ea c73e 542f f0be 14d6 11bf
0.03133377 -0.033803634 -0.38805017 -0.13277563 -5.4223056 -0.20283978 -0.27082112 -0.6948293
0.04651709 0.032501634 -0.44482696 -0.4270626 -5.493918 0.38432127 -0.51149994 -0.7990829
-0.003745503 -0.023267461 -0.870854 -0.6090128 -5.620705 0.39046457 -0.46911108 -0.5696728

model_2/yolo_head_P4/separable_conv2d/ReadVariableOp_1:0 f4 [24, 64, 1, 1]
00000000: 31e4 27be 5425 98bd 3646 3a3e 73ef 01bc
00000010: 36dd 75be 33fb 66be c612 fcbd 5589 31ba
00000020: f8b0 c6bd c5c9 27bd b865 1ebd 456d 323e
00000030: 09f4 003e a7de 2e3e 823e 0abe 8bc3 0e3e
00000040: befb 0abe 69c9 473d 444c 6b3e fb15 44bd
00000050: ca04 83be 6b34 533e d6db f6bc 3445 483e
00000060: 2cf4 73bd bba3 f4be f870 9bbd 76a5 163e
00000070: 3f30 713e 5a3a 59bc f616 51be 59f6 453e
00000080: f015 523e 1063 44bd d780 843e 327d 813d
00000090: e078 a93d cbb6 db3c 94d5 12be 25ea d7bd
000000a0: dfdc 58bd a368 2e3e b46c e63d c18b 90bc
000000b0: 81b2 09be 00b4 d2bd ccff 423e 1b7b e83d
000000c0: e85d 5cbd ea19 55be ccf3 27bd ab36 2f3e
000000d0: 0a9a 34be 6a42 0e3e a7bb 013e 5946 3ebe
000000e0: 0e40 bc3c b697 edbe 0bd3 25be 1dff 2b3e
000000f0: 1d4c 12be 26c9 c7bc 7e4e a53b b17b 853e
00000100: cfe9 14bc 6f73 3f3d 61a1 97bd 2376 fc3d
00000110: be21 573d 441e 8fbd fb45 d93d 3d9c 80bc
00000120: 374b 8abe 9861 14be 4c2d f9bd 8645 b5bc
00000130: 3862 1a3e 3670 dfbe 8141 1ebd bab1 71be
00000140: c716 0dbd 9f2d d0be 9a8b 503e 4d7f 783d
00000150: 4437 9c3d b61d 2ebe 0442 bdbe 7a71 033e
00000160: 9cb7 2f3e 9581 45bd a954 a53d 2f9c af3d
00000170: c1ba e2bd 5d36 fbbd 70fb ef3d 82bf 2cbd
00000180: b244 11be 0c56 ecbd d865 6f3e 6d57 e23d
00000190: 4573 313e f3c4 92bd 0034 2abe af20 84bb
000001a0: bad2 663e a1e2 83be 16ed 313c ccb1 26be
000001b0: 476b aabd 94cb 8c3e 60fc 973d b58e 3f3e
000001c0: bf42 39bc bdaf ce3e 1172 1f3e 7451 003e
000001d0: 891e 11bd 2e6c 5b3e 491a e7bd dfa5 943d
000001e0: 45ba 203e c2f4 a63c 9f72 9dbd b82f 72be
000001f0: af2b 2a3d 53a7 5f3c 1252 4abe 05f5 7d3d
00000200: 2e70 b6be 3f80 f63d 8b33 9f3d 530a fd3c
00000210: 5729 a5be 3585 29be a526 153e da2f 6abd
00000220: 365c b33d 9428 083e 4f8c 5a3d 762b 833e
00000230: 04f3 bf3a b6a1 cabc dd3e a73c c46d acbd
00000240: eba3 7ebd 4d1f 60bd 5405 ac3c 65d5 a7bd
00000250: 425b 01bd 07c2 ca3d 2e91 03be 19b9 893d
00000260: 6834 e0bd 0806 583c b0d4 913d 4f95 453d
00000270: 6c2e c2bd e8be 3ebd d9c4 77be 4035 c83b
00000280: 653d f73b 6024 173e 905a aabd 4664 02bd
00000290: 6798 0bbe fad9 abbd fbdb 09be 1d00 6fbe
000002a0: df03 533e f094 2fbe 4fd1 7a3d 26b9 893e
000002b0: dc07 0bbe 90cc 3bbe aa72 71bd 3941 1b3e
000002c0: 690b ca3b 03c3 c0bd 362c 1b3e 7961 503e
000002d0: f4f6 683e 64bd 00bd b18a e5bd 8f92 283e
000002e0: af0f cf3c 7421 e6ba 0676 053e 865a e03d
000002f0: e31a 843e f3c3 1e3f 408e 313e 74b4 dfbd
00000300: 611a 94bd 77e8 12bd ed33 b93c e0a8 813d
00000310: bfea d2bd 61fe 18bd 6a57 a73d e316 3f3d
00000320: 7d4e 153d a4a3 1d3e 8746 7a3e c49c 7dbd
00000330: 10d8 97bc b4c3 693d 835c ec3d 2c04 8ebc
00000340: 19c3 d7bd 78cf a7bc 38f5 673e cf17 233d
00000350: 30ee f23d 9836 1fbe e7d2 a23c b0a4 08bd
00000360: 67b6 023e fe79 063c 88bf c5bc 407e dabd
00000370: 6cf7 943d d061 70be dc2d 41be 9870 ccbe
00000380: e9c1 633e 34c9 4bbe 79e4 853d 32e8 89bb
00000390: 2951 4dbe 02cd 003e fd72 2bbe c4e5 c4be
000003a0: 3d78 a5bd 60e6 373d cf34 2a3c 4468 24be
000003b0: db81 6fbd cfa6 0a3d 39a6 d9bb 8322 343e
000003c0: 0f54 1dbc c3e8 02bd 6c38 563d bb7d 103e
000003d0: f33a 72be d138 8e3d eb9d e4ba d984 c6bd
000003e0: d2d9 c93b 92bb f23c 57fd 203e 52f0 5b3e
000003f0: 1e32 aebc 42ce 8bbc 9083 dcbd b70a 573e
-0.16395642 -0.07428995 0.18190846 -0.007930624 -0.24010167 -0.22556762 -0.12308268 -0.0006772478
-0.09701723 -0.040963907 -0.038671225 0.17424496 0.12593092 0.17077123 -0.13500407 0.13941781
-0.13572595 0.048776064 0.22978312 -0.047872525 -0.2558959 0.20625465 -0.030134123 0.19557649
-0.059559032 -0.47781166 -0.075899065 0.14711556 0.2355356 -0.013258541 -0.20418915 0.19332255
0.20516181 -0.047946036 0.25879547 0.06322707 0.08275008 0.02682056 -0.14339286 -0.105427064
-0.052945014 0.17032103 0.11251202 -0.017644765 -0.13447 -0.102882385 0.19042891 0.113516055
-0.053800493 -0.20810667 -0.041003987 0.17110698 -0.17636886 0.13892522 0.1266924 -0.18581523
0.022979762 -0.4640481 -0.16193788 0.16796537 -0.14286847 -0.024387907 0.0050447574 0.26070932
-0.009088947 0.046740945 -0.074038275 0.1232722 0.052522413 -0.069881946 0.10609051 -0.0156995
-0.2701051 -0.14490354 -0.12166843 -0.022127878 0.1507653 -0.43640298 -0.03863669 -0.23602954
-0.03444555 -0.40659806 0.20365754 0.06066828 0.076277286 -0.17003521 -0.36964428 0.12836257
0.17159885 -0.048219282 0.08072788 0.085747115 -0.11070777 -0.12266228 0.1171788 -0.042174824
-0.14186361 -0.1153985 0.23378694 0.110518314 0.17329128 -0.07166471 -0.16621399 -0.0040322165
0.22541323 -0.25758842 0.010859748 -0.16278762 -0.08321243 0.27499068 0.074211836 0.18706782
-0.011307417 0.40368453 0.15570857 0.12531072 -0.03542951 0.21427986 -0.1128431 0.072582
0.15696056 0.020380381 -0.07687878 -0.23651016 0.041545566 0.013650733 -0.1975787 0.062001247
-0.3563246 0.1203618 0.07773503 0.030888712 -0.32258102 -0.1655472 0.14565523 -0.05717454
0.08757822 0.1329673 0.053356465 0.25619096 0.0014644568 -0.024735313 0.020415718 -0.08419374
-0.062168043 -0.05471735 0.020998634 -0.08194999 -0.03158117 0.09900289 -0.1284835 0.06724758
-0.10947496 0.013185032 0.07120645 0.048238095 -0.094815105 -0.04656878 -0.24196185 0.0061098635
0.0075451606 0.1475997 -0.08318055 -0.03183391 -0.13632356 -0.08391185 -0.13462822 -0.23339887
0.20606945 -0.17146659 0.06123477 0.2689907 -0.13577217 -0.18339753 -0.058947243 0.15161599
0.006165911 -0.094121955 0.15153584 0.20349683 0.22750455 -0.031430617 -0.11208094 0.16462158
0.025276033 -0.0017557577 0.13033304 0.10954766 0.25801763 0.62017745 0.1733942 -0.109230906
-0.07231594 -0.035866227 0.022607768 0.063310385 -0.102986805 -0.03735197 0.0817097 0.046652686
0.036451805 0.15394455 0.24440967 -0.06191708 -0.018535644 0.057071403 0.11541083 -0.017335974
-0.10535259 -0.020484671 0.22652137 0.039817628 0.11861837 -0.1554817 0.019875957 -0.033360183
0.12764893 0.008207796 -0.02413918 -0.106686115 0.072737545 -0.23474813 -0.1886515 -0.39929652
0.2224194 -0.19900972 0.06537718 -0.004208588 -0.20050491 0.12578204 -0.16743083 -0.38456547
-0.08079574 0.044897437 0.010388567 -0.16055399 -0.05847345 0.033850487 -0.0066421297 0.1759129
-0.009602561 -0.03196026 0.0522999 0.14110462 -0.236553 0.069444306 -0.0017442083 -0.096933074
0.0061599994 0.029630456 0.15721641 0.21478394 -0.021264132 -0.017066125 -0.10767281 0.21000181

model_2/yolo_head_P4/BiasAdd/ReadVariableOp:0 f4 [24]
00000000: 92ea b5bd f0e6 fbbd f027 453e 4167 efbe
00000010: a0ba 3fc0 03bc 44be 28f1 e0bd 856e 91be
00000020: edf6 1cbc 3122 3f3d 7479 a7be 400e a4be
00000030: 936f 3cc0 f484 31be cc37 debc cde6 5cbe
00000040: c9b7 4f3d 9b6a 20bd 7466 5ebe a68e 06bf
00000050: 0120 48c0 e167 f33d 28dc 0cbe b843 bcbe
-0.08882631 -0.12299907 0.19253516 -0.46758464 -2.9957657 -0.19212346 -0.10983497 -0.28404632
-0.009580356 0.046663467 -0.3270985 -0.32042122 -2.94431 -0.17335874 -0.027126215 -0.21572419
0.05071238 -0.039164167 -0.2171877 -0.52561414 -3.1269534 0.11885048 -0.13755858 -0.36770415

model_2/yolo_head_P3/separable_conv2d/ReadVariableOp_1:0 f4 [24, 64, 1, 1]
00000000: d9fe 99be 37ab 67be 2822 09bc c4e5 3fbe
00000010: 0ed3 b5bd 5350 83be 45dd 70bd 56c2 5a3e
00000020: 4b12 023e fcd8 a0bc 1988 213e 48f3 04be
00000030: ffa7 96be bad9 2bbe 4127 eabc 5253 4e3e
00000040: 4bde f53d 927b 3ebe f6ee 90be 272a 3ebb
00000050: 6d0b 543e e453 3e3e 8b9f b4bc e925 443e
00000060: 997d 27bd 5c78 4bbd 17cc 84be d102 82be
00000070: 4873 57be ce3b d53c 8d13 3d3e 24ed 4bbe
00000080: 8ce3 e33d 791d 1dbe 05eb 853e 3200 6d3c
00000090: f64a 2bbe b949 10be fced 66be 37b1 40be
000000a0: d628 ec3d e4b8 c93d 7b86 e13b a633 34be
000000b0: 7618 dfbd ea95 5f3d 3dc5 00be e582 15be
000000c0: 902c 1c3e 5171 53be e2af 2a3c a8c4 12be
000000d0: 9712 8bbe 4a5f 08be 767c bcbb 2c31 443e
000000e0: 4d03 edbe c46b bcbd e487 673e e661 14bd
000000f0: b8ad 4b3e a9b0 42be b5b1 9fbe 5cce cfbd
00000100: 5a3f e63c 5de0 a23d 2e44 1e3e 2bc4 a73d
00000110: 0bc7 0e3c 1cb5 303e eadd 103d 50b5 463e
00000120: 7241 14be f013 33be 349e 053b 052e 153e
00000130: 01c1 bfbe 7754 403e 7216 e0bd 0fb5 3b3e
00000140: d18d a43d 9fcb 8d3c fb6c 98bd 5b67 1b3e
00000150: d0e9 01be f4d8 503e 198e 4e3e fd63 b8bd
00000160: 767d 1a3d 6327 88bd 011f fdbc e6b6 183e
00000170: da8e 04be c3f7 2fbe 65a5 0bbe b93c 843e
00000180: 3c29 643d bd20 81be 2ddc 983d a928 edbd
00000190: 74ea b33e 1ced eb3d 8e97 a03d 679a 973d
000001a0: 34c8 603e 1d92 37bb d8a1 27be 0a19 653c
000001b0: fa00 a03e 8766 ed3e f2e0 8ebd 6bc5 8e3c
000001c0: 8849 1cbe c95f 7d3d 1646 51be 7c9e 57be
000001d0: f717 63be b7b6 1ebe 85db ea3e 3c8c c9bd
000001e0: 5162 e1bc f459 82bd d3dd e23e 34a3 a13d
000001f0: 793a 9e3c db87 ea3d 4323 aabd 3d2b 72bd
00000200: 3086 793e 12a3 c33e fd43 46bc 6b5b 0d3e
00000210: 6966 293e 7d11 eb3d 6a31 d0bd d98a 3d3b
00000220: 6c56 a63d a1fd 84be 1411 ff3d 96f3 483e
00000230: 9fd6 8ebe bbff 71bc 9281 65be 333b 31be
00000240: 47ad ce3e 8729 523e 0f9c 893d b77d 233e
00000250: 3880 bebd 870b e4bd f733 1bbe ef31 4bbe
00000260: 1922 0b3e 6513 e33c 69e4 83bd f5ab c13b
00000270: e447 863e 58e9 c73d 9f2f 793e 5b0c 5ebe
00000280: 749e 493e 7d09 853d d12e 0d3e a951 2fbe
00000290: ee48 073e 8f58 033d 8839 fe3d 54ba fbbe
000002a0: fa07 273e 2b8b 88bd efb6 2e3e 260e 433e
000002b0: f752 343e 7679 9abd 38af 99bd 791d 28bd
000002c0: 878e 05be b110 ca3e 1d6f 60be c030 33be
000002d0: b690 21be 1b4e 493e e788 cc3b 469b 7abe
000002e0: 1274 893c 0297 543d d595 d3bd 0606 fdb9
000002f0: 647b a4bd 88dc c8bb d8eb 643e 2ebb ca3d
00000300: a79d 82be 8b36 8fbe a2f4 0ebe 697d 5e3e
00000310: 0e1c cb3d f678 b0be 7af0 08bd 5698 3bbe
00000320: 6202 02be 2ea7 243d 8618 08be 6c14 cb3d
00000330: 59ce 6ebe 0aa6 5cbd cfa3 d7bd caac 48be
00000340: f8b7 c23d ad3a 83be 07a7 61bc ba2e 40be
00000350: 2911 22be f234 8e3e 0619 983d b82a 17bd
00000360: 2bbe 943e 6a63 833e c0c8 b2bc 55cf b23d
00000370: ba87 5d3e 8b3a 0a3e dcbc 583e 53a1 6a3e
00000380: 9ec3 94bd f52b 8ebe ce09 6cbe c0ce 45bd
00000390: 9205 5bbc 9544 a7bd ebb2 7abc 7dac b7bd
000003a0: 80a9 68be c0e2 70be e7ca 8ebd 5ec7 c2bd
000003b0: 62f7 6bbd f3dc 1bbd eb98 f53d 5708 97bd
000003c0: ed26 74be 8805 4b3e 2828 453e 7ddf b63d
000003d0: 4b81 a13d 8c27 84bc 1e0b af3d 7026 26be
000003e0: 0f02 cd3c f21f 83be 695b 983b 4ba5 1a39
000003f0: 1150 473e f78e bf3d 7607 04be a968 7d3b
-0.30077246 -0.22623907 -0.00836996 -0.18739992 -0.08878146 -0.2564722 -0.05880477 0.21363196
0.1270229 -0.019634716 0.15774573 -0.1298343 -0.29425046 -0.16782275 -0.02858317 0.20148972
0.1200529 -0.18601826 -0.28307313 -0.0029016824 0.20707484 0.18586689 -0.022048732 0.19155087
-0.040891264 -0.04967533 -0.25936958 -0.25392774 -0.2104007 0.026029494 0.1846449 -0.1991468
0.111273855 -0.15343274 0.26155868 0.014465379 -0.16727814 -0.14090623 -0.22551721 -0.18817602
0.11531226 0.09849718 0.0068824864 -0.17597827 -0.108933374 0.05458633 -0.1257524 -0.14600714
0.15251374 -0.20648696 0.01041791 -0.14332831 -0.2716262 -0.133176 -0.0057521416 0.19159383
-0.4629158 -0.09200242 0.22610432 -0.036226176 0.19890487 -0.19012703 -0.31190267 -0.10146782
0.02810638 0.0795295 0.15455696 0.08191713 0.008714448 0.17256588 0.035367884 0.19405103
-0.1447809 -0.17488074 0.0020388486 0.14568336 -0.37451938 0.18782221 -0.10941781 0.18330787
0.08034862 0.017309008 -0.074426614 0.15176146 -0.12686849 0.20395261 0.20171393 -0.09003446
0.037717305 -0.066481374 -0.030898573 0.1491352 -0.12945119 -0.17184357 -0.13637312 0.25827578
0.055703387 -0.2522029 0.0746387 -0.11580021 0.3513981 0.115198344 0.07841407 0.07402497
0.21951371 -0.0028010674 -0.16370332 0.013983021 0.31250745 0.46367285 -0.06976499 0.01742812
-0.15262425 0.061858926 -0.20436892 -0.2105655 -0.2217711 -0.15499388 0.45870605 -0.09841201
-0.027512701 -0.063648134 0.44309863 0.07892457 0.019314991 0.114516936 -0.08307507 -0.059123266
0.24367595 0.3821035 -0.012101171 0.13804404 0.16542973 0.11477945 -0.10165675 0.002892187
0.081219524 -0.25974753 0.12454429 0.1962417 -0.27898118 -0.014770444 -0.22412708 -0.17307739
0.40366575 0.20523654 0.06719219 0.15965925 -0.093017995 -0.11135011 -0.15156542 -0.19843267
0.13587226 0.027719209 -0.0644005 0.0059103915 0.26226723 0.09761304 0.24334572 -0.216844
0.19689351 0.0649595 0.1378739 -0.17120995 0.13211414 0.032066878 0.12413317 -0.49165595
0.16311637 -0.06667169 0.17061971 0.19048366 0.17609774 -0.07542698 -0.075041234 -0.041043732
-0.13042651 0.3946586 -0.21917386 -0.17499065 -0.15777859 0.19658701 0.006241906 -0.24473295
0.01677898 0.051901825 -0.103313126 -0.00048260408 -0.080313474 -0.006129805 0.22355592 0.09898983
-0.25510904 -0.279713 -0.13960508 0.21727528 0.099174604 -0.34467286 -0.03343246 -0.1831983
-0.12696221 0.040198497 -0.13290605 0.099160045 -0.23320903 -0.053869285 -0.10529291 -0.19597164
0.095077455 -0.25630704 -0.013772733 -0.18767825 -0.15826859 0.2777477 0.07426648 -0.036905974
0.29051337 0.25661784 -0.02182424 0.08730952 0.21633807 0.13498895 0.21165794 0.22913103
-0.072638735 -0.27767912 -0.23050615 -0.048292875 -0.013368027 -0.08167378 -0.015301446 -0.089684464
-0.22720909 -0.23523998 -0.06972294 -0.095106825 -0.05760897 -0.03805251 0.119920574 -0.073746376
-0.23842974 0.19826329 0.192536 0.08929346 0.07885989 -0.016132139 0.08547042 -0.162256
0.025025396 -0.2561031 0.004649569 0.00014748161 0.19464137 0.0935344 -0.12893471 0.0038667119

model_2/yolo_head_P3/BiasAdd/ReadVariableOp:0 f4 [24]
00000000: 4db3 6dbc 6890 b8bc 7a43 843e 8166 91be
00000010: 3c6b 14c0 d796 b0be b704 263d eae9 a6bd
00000020: cad2 a8bd 428b d63c fc66 9a3e a767 95be
00000030: 4db0 20c0 3812 8bbe 4bec aabd 89e0 4ebd
00000040: a5cd eabd 0531 f03b ec41 0dbe ad2b 61be
00000050: 62ce 21c0 249d 65be a2b6 c5bd 812c 74bd
-0.014508081 -0.022529796 0.2583273 -0.28398517 -2.319045 -0.34490082 0.04053184 -0.08150084
-0.0824333 0.02618945 0.30156696 -0.29180643 -2.5107605 -0.27162337 -0.083458506 -0.050507102
-0.11465005 0.0073300623 -0.13794678 -0.21989317 -2.5282216 -0.22423226 -0.09653975 -0.059612755

model_2/separable_conv2d_1/separable_conv2d/ReadVariableOp_1:0 f4 [12, 3, 1, 1]
00000000: d507 7bbd 5d5d 143d 8f2d 80be dbcc aabe
00000010: 85ef fa3e 99b0 1a3e cc5f 06bf 79cc 5c3e
00000020: 57bf 12bf 423d e5be 08a8 c63e f38e 7dbe
00000030: 057f d2be c048 103e 97b7 d8be 1332 853e
00000040: 8a74 5e3e 4546 c03e 48c1 d03e efcc 253f
00000050: 2f46 53be a87e 5bbf 1521 bdbc b664 18bf
00000060: ae2e 8bbe 12b4 1a3f 246b c9bd f3d4 fa3e
00000070: 0133 ee3e ac7e c9be 4dc2 6d3e bbba 403f
00000080: ea8a c43e d8fe bb3e d0fb 113f 873f 153f
-0.061286766 0.03622185 -0.25034758 -0.33359417 0.49010864 0.15106429 -0.52489924 0.21562375
-0.5732321 -0.44773299 0.38800073 -0.24761562 -0.41112533 0.14090252 -0.42327568 0.26014766
0.21724144 0.3755361 0.40772462 0.6476583 -0.20632242 -0.8574014 -0.023087064 -0.5952867
-0.2718405 0.60431015 -0.098348886 0.48990592 0.46523288 -0.39354455 0.23218651 0.7528493
0.38387233 0.36717868 0.5702486 0.5830006

model_2/separable_conv2d_1/BiasAdd/ReadVariableOp:0 f4 [12]
00000000: 1591 033e f55c 4c3d 69ef ebbc f56b f13d
00000010: 7b1f 15bd 6ace 8c3e c5da 073e 3a94 3c3d
00000020: 3e7a 083e c50c 2dbb 2a9b 3d3e 36fc d93e
0.12848313 0.04989334 -0.028800683 0.11788169 -0.036406975 0.2750123 0.13267048 0.046039797
0.13327882 -0.0026405316 0.18516222 0.42575234

const_fold_opt__1140 f4 [64, 1, 3, 3]
00000000: 7e07 413d 33e1 b73c a469 a33c a2eb cd3c
00000010: 73b9 1e3d ee31 1b3c 62dd 1c3d ebd5 803c
00000020: 404d 813d f88c c73c 86bd 403d a7e8 383d
00000030: b30d fa3b 3963 cabc 7016 66bc 6dd7 833b
00000040: 8c80 5c3d 3e20 0c3d bf1a 263c effe 9abc
00000050: fc19 c7bc 637f 24bd 5d99 95bc a92b a5bd
00000060: 5428 8dbc f40a 2ebd 453c 393d f342 26bd
00000070: 1617 8e3c 440a 94bd 4d92 0c3d 6e7f 3ebc
00000080: c701 533e 804b 8c3d 10e1 a23c deb8 c13d
00000090: b476 adbb c28d 543d 73c1 c23d 9345 d93c
000000a0: a636 65bb 96d4 1cbc da62 d93c b8c1 95bd
000000b0: d2c8 dcbd 64d6 043d 6dfb 89bc 6e98 9c3d
000000c0: 3f6e 163c c204 533c e1b2 023d 7beb b03d
000000d0: 67b9 503d 0c70 9a3a cdbf 233b 9fa7 8d3c
000000e0: c6b3 9dbc c5fb 2dbb 1a55 54bc ae04 4cbd
000000f0: 9b9f f9bb 3924 b33b 1196 0fbd 1995 143c
00000100: 9626 ddbc 67cd eebd 4dfd bbba e0ac eebc
00000110: a4cb e4bd af7a bdbc 8295 753b b95e 8ebd
00000120: 9d07 d33c f266 27bc f81e b23d 18b9 46bd
00000130: 6456 8cbd b8f3 ac3d a359 42bc 5054 75bc
00000140: 7224 983d aa25 8f3d 9960 cb3a 6d59 863d
00000150: 5d6b 903d 3015 743c 62cd 88bc 424e 363e
00000160: b6d5 903d 35ff 7b3c a585 cf3d 5167 473d
00000170: 75ea 0c3e 67d0 d43c 6b3d 243e 9f3c 77bd
00000180: f8fc 37bd f8eb 823b e7cc 5ebe cb71 4fbc
00000190: 256a c03d bab2 973d 7d5b 1f3d aa8d d23d
000001a0: a907 6dbd 85f5 d93d e1fb 303e 885e 263e
000001b0: e60c d4bc 6047 8b3b 8978 153d c44e e4bc
000001c0: 1d15 ecbc 2489 e13c a187 86bc 5d97 abbc
000001d0: e2d0 6dbd 13ef c63b 0a94 8dbb e285 9cbc
000001e0: 81d1 883c 37b5 c23d 6a87 8d3d 802a 503c
000001f0: 2e88 293e 1d26 d63d ffa6 6b3b 9e61 debb
00000200: 670a c1bc 7996 7cbd 2e10 01bd d905 41bd
00000210: 6c43 d7bc 0b33 2b3d 1883 b63c c67a 7b3c
00000220: a67b 8bbd 8d99 e93c 52d1 c7bc 2e16 63bc
00000230: 4887 083b c28e 233e eb9c 803d 9c57 49bd
00000240: 7d59 303a 261e 6bbc f4f6 86bd 9fe6 46bd
00000250: fa47 b7bd af7b b1bd 8f7d 7cbd f945 51be
00000260: 9201 cebc a736 e43c 0390 643d 2e61 2c3d
00000270: 4184 1e3c 0478 5dbd e7ce e83c 71f3 373d
00000280: ccd9 1fbd 8378 cb3d b5b9 14bd 49fa 0f3d
00000290: 6f78 433c fe7a 853b 8342 cc3d 6319 063d
000002a0: 2c12 55bd 284f fa3c 5468 6bbd a06f b73d
000002b0: 920c da3c a940 9abd 5fe5 093e 8d81 9cbb
000002c0: 96ab 6fbd 9bab 0f3e b798 00bd 363c 57bd
000002d0: 4419 bb3b 4c39 e43d f617 353e 7115 d83b
000002e0: 432a ba3d 9f26 a23d a0ed 2a3d 99ca 1f3d
000002f0: cf85 9c3d 24f9 b5bc 9f1c 7dbd 40d9 3cbd
00000300: 6ce2 dabc bf45 c1bd 6761 1abe e410 c7bb
00000310: 60e6 213e 9567 ce3d 1788 96bd b718 a73c
00000320: 8331 cf3d 2daf 4cbe 00ec a83d e9d5 3a3e
00000330: 0f4c 8abe 4ef2 8e3d a571 e83d c82e 123c
00000340: 15c8 4a3c ca7c 963b f686 73ba d618 8d3d
00000350: 2895 ed3d 19e3 243b d668 643d 80bc 3f3d
00000360: 8501 bebc 25d4 0e3d 6985 97bd 6816 873c
00000370: d89c f2bc 4bbd c1bd ca5e 803c 3c7a 143e
00000380: e4e1 513d 82d5 27bd 117c f8bc a95b 10bd
00000390: c4f9 803c 8510 5c3d f753 133d 4e50 2fbd
000003a0: 8064 9a3c 4a31 fa3c 372b 2b3d 2497 4b3d
000003b0: a106 003d 55b9 4b3d 7fc4 94bc fafc 28be
000003c0: d80d 803d b8df 10bb 9909 40be c94e 833d
000003d0: c8f6 bc3b 5d60 ab3d db61 01be 20d5 823d
000003e0: 2e1e e6bb bc92 87bc 825e e7bd 1103 23be
000003f0: 1237 54bd 1642 0abe 7b96 88bd de15 04be
0.047126286 0.02244625 0.019947834 0.025136773 0.038751077 0.009472353 0.038297065 0.015727004
0.063135624 0.024359211 0.047055744 0.04514375 0.0076310276 -0.024705516 -0.014043435 0.0040234835
0.05383353 0.034210436 0.010138213 -0.01892039 -0.024304383 -0.040160548 -0.018261606 -0.08064968
-0.017231144 -0.042490914 0.045223493 -0.04059119 0.017344993 -0.072285205 0.03431921 -0.011627061
0.20606147 0.06850338 0.019882709 0.09459089 -0.0052936915 0.051893003 0.09509554 0.026522433
-0.00349752 -0.009572169 0.026536394 -0.073123395 -0.10780491 0.03243102 -0.016843522 0.07646261
0.009181558 0.012879552 0.031908873 0.08638664 0.050958063 0.001178266 0.0024986148 0.017291842
-0.019250762 -0.0026547771 -0.012959743 -0.04980915 -0.0076179034 0.0054669646 -0.035055224 0.009068751
-0.026995938 -0.11660271 -0.0014342457 -0.029135168 -0.11171654 -0.02312979 0.0037473147 -0.06951661
0.025760466 -0.010217415 0.08697313 -0.048516363 -0.06852415 0.08444923 -0.011862191 -0.014973715
0.074288264 0.06989606 0.0015516459 0.06560025 0.07051728 0.01489763 -0.016699497 0.1780329
0.07072012 0.01538067 0.101329125 0.048682515 0.13761313 0.02597828 0.16039054 -0.060360547
-0.044918984 0.003995415 -0.21757852 -0.012661408 0.093952455 0.07407136 0.03890561 0.102809265
-0.057868633 0.10642532 0.17283584 0.16246998 -0.025885057 0.004250452 0.036491904 -0.02786959
-0.028818661 0.027531214 -0.016422095 -0.0209462 -0.058060534 0.0060709803 -0.004320626 -0.019106809
0.016701462 0.0950722 0.06910594 0.012705445 0.16555855 0.10456488 0.0035957692 -0.006786539
-0.02356453 -0.06166694 -0.03150957 -0.047124717 -0.026277266 0.041796725 0.022279307 0.015349096
-0.068106934 0.028515602 -0.024391804 -0.0138602685 0.0020832587 0.15972427 0.0627993 -0.049155816
0.0006727202 -0.01435045 -0.06590071 -0.04855978 -0.08949275 -0.08666169 -0.06164318 -0.20436849
-0.025147233 0.027858092 0.055801403 0.042084865 0.0096750865 -0.054069534 0.028418971 0.0449099
-0.039026067 0.09935095 -0.036309917 0.0351508 0.011930569 0.0040734997 0.099736236 0.032739054
-0.052019283 0.030555323 -0.057472542 0.08956838 0.026617322 -0.07531864 0.13466404 -0.004776186
-0.058513246 0.14030306 -0.03139564 -0.052547656 0.005709799 0.11143741 0.17684922 0.006594353
0.09090092 0.07917523 0.041730523 0.03901157 0.076427095 -0.022213526 -0.061794873 -0.046105623
-0.026719294 -0.09437131 -0.15076219 -0.0060750116 0.15810537 0.100783505 -0.07350176 0.020397527
0.101168655 -0.199887 0.082481384 0.18245663 -0.27011153 0.0697981 0.11349801 0.008922286
0.012376805 0.0045925127 -0.0009289825 0.06889503 0.11600715 0.0025159775 0.05576404 0.046810627
-0.023194084 0.034870286 -0.07398493 0.016490176 -0.029615805 -0.09459933 0.015670199 0.14499754
0.051240817 -0.0409751 -0.030332597 -0.035243664 0.015744098 0.05372669 0.035968747 -0.042801194
0.01884675 0.030541081 0.04178926 0.049704686 0.03125632 0.049737293 -0.018160103 -0.16502753
0.062526405 -0.0022106003 -0.18753661 0.064115115 0.0057667233 0.08367989 -0.12634985 0.063883066
-0.0070226407 -0.01654946 -0.11297323 -0.15919138 -0.05181033 -0.13501772 -0.06669327 -0.12898967

const_fold_opt__1139 f4 [64, 1, 1, 1]
00000000: 9ba7 283e b011 2b3e f5cf a63d 5090 6b3e
00000010: b4d1 75bd fc11 d93d 7add 3e3e 2041 8c3e
00000020: c89e 73be 1754 b83d ad9f 333e cf3f c4bd
00000030: cbbd 8fbe bb81 70bd 71b7 8ebe a473 813e
00000040: 35fb 33be 41c8 85bd 3eca 8e3e 5fc4 403e
00000050: d58a fd3c 6a18 7a3e 5af0 1d3e 37c7 e4bd
00000060: fdd0 d2bd d3b2 8a3d 089f fd3d 4f9a 3e3e
00000070: c409 d03d c5c2 e03d ceca c83c ca73 22bd
00000080: ff82 dbbd ebee 8c3e 74b3 6ebe 3d46 83be
00000090: 0ad9 00be 26d3 f93d 07fe 53be 7057 6bbe
000000a0: dbea eb3d 9f03 8dbe 6a76 293e 3537 7f3d
000000b0: 1085 6e3e be7b 06bd 5292 3bbe 8c6a 913d
000000c0: f1da 6cbe 2ba0 2c3c 349b f83d 4ca6 81be
000000d0: da93 f5bd 480b 453e 414b abbc 1c3c 8b3e
000000e0: c407 8ebe cd03 a13e ab1a 55bd 55f8 313e
000000f0: b085 583e 2d50 ae3e e9ce 88be 91bc 49be
0.16470186 0.16705966 0.081451334 0.2300427 -0.06001444 0.10599133 0.18639174 0.27393436
-0.23791039 0.09000414 0.1754138 -0.09582483 -0.28074488 -0.05871747 -0.2787433 0.2528354
-0.17576297 -0.06532336 0.27888674 0.1882491 0.03094999 0.24423376 0.15423718 -0.1117081
-0.102937676 0.06772389 0.123838484 0.18613552 0.10158113 0.10974649 0.024510767 -0.039661206
-0.10718345 0.2752603 -0.23310643 -0.25639525 -0.12582794 0.121984765 -0.20702372 -0.22982574
0.115194045 -0.27541825 0.16549078 0.06230851 0.23292947 -0.032832853 -0.18317536 0.071004
-0.23130395 0.010536234 0.12138978 -0.25322187 -0.11991091 0.19242585 -0.020909907 0.27194297
-0.277403 0.31448212 -0.052027386 0.17379887 0.21144748 0.34045544 -0.2672036 -0.19700839

const_fold_opt__1138 f4 [64, 1, 1, 1]
00000000: 72f0 dd3d 57eb 353e 9905 323e d6d2 95bd
00000010: 9572 8d3e 52a1 bc3e 9043 273e 4a36 9abd
00000020: d477 c13d 161d 90be 3cff 1fbe 8113 8a3e
00000030: cb64 003e b367 ed3d 5255 8b3e a1de 08be
00000040: 209e d9be 98fd 623e 99ab d73d 8724 6f3e
00000050: 98ff 04be 713d 893e 529e ecbd f91f 13be
00000060: 4f3e 4e3e 8cd9 ac3e 47c8 3cbe e0c5 7b3e
00000070: 8f37 83be 1635 15bd 5f7e 183e fc9c 033c
00000080: b396 96bd d7a5 793e 7712 91bd c067 433e
00000090: 8c58 57be 036e 893d 748c 093e df56 2fbe
000000a0: 2d63 e43d 6626 ce3d 5336 6b3d 4410 2bbc
000000b0: 1bc0 4bbd 0ade 69be 634f 1d3e d69f d33c
000000c0: 6fff e13c 3bd3 813e 0dc5 0cbe 027d 823d
000000d0: db03 af3e 16d1 753e 6493 923e 7783 583e
000000e0: 877e 93be cfd2 53be 977e 8ebd d218 c7bd
000000f0: 6797 733e 9cf6 053e 61ab 563d da90 473e
0.10836877 0.17765556 0.17384948 -0.073156044 0.27626482 0.36841828 0.16334367 -0.07529886
0.094466835 -0.2814719 -0.15624708 0.26968005 0.1253845 0.11592045 0.27213532 -0.13366176
-0.42503452 0.22167051 0.105307765 0.23353778 -0.12988126 0.2680469 -0.11553635 -0.14367665
0.20140956 0.33759725 -0.18435775 0.24587202 -0.25628325 -0.03642758 0.14891957 0.008033033
-0.07352962 0.24379669 -0.070836 0.19082546 -0.21029872 0.06710436 0.13432485 -0.17122982
0.11151729 0.10065918 0.057424854 -0.01044089 -0.049743753 -0.22838607 0.15362315 0.025833052
0.02758762 0.2535647 -0.13747044 0.063714996 0.3418263 0.24005541 0.28628075 0.211439
-0.2880747 -0.20685886 -0.06957739 -0.09721531 0.23788224 0.13082355 0.052409533 0.1948885

const_fold_opt__1137 f4 [64, 1, 1, 1]
00000000: f213 b8be 463d 123d b861 6fbe 1edb 2f3e
00000010: 1131 e63d 9359 acbd fe03 e63d 68d0 bdbc
00000020: ec46 22be 5f8a 68bd eadc 7fbe 5f71 b53d
00000030: c335 943e d64c 5a3e d6d0 1dbe cd8e 073e
00000040: ea25 d13d 3cbd 7f3e f44a 49be bb86 7d3e
00000050: 79bc 3c3e 7446 34be b805 4ebe 8e40 c0bd
00000060: a17e 7abd aea0 033d ce8d 18be 4f8d 953d
00000070: b8e2 9c3e e427 213e 74e0 afbd ee12 533e
00000080: 2144 e0bd 5c98 0c3e a016 113e f545 293e
00000090: 309a e63d a36a 8c3e 2565 663d 0a7d b93e
000000a0: 6a27 97bc 7089 4f3d 692a 3cbe af5c 7e3e
000000b0: 8264 583e f197 383e 7537 4cbe 65fe 813e
000000c0: 1eba a7be 201f 37be 5592 03be ea54 0e3e
000000d0: 29df 713e d0a0 08be f327 4fbe 07cb 6d3e
000000e0: e9ba 3a3e c9b4 41be b20d df3c 7bc3 34be
000000f0: ec54 7cbe af4b 0bbe eb27 f63d 79c0 02be
-0.35952717 0.035702966 -0.2337712 0.1717343 0.112398274 -0.084155224 0.1123123 -0.023170665
-0.15847367 -0.056772586 -0.24986616 0.088595144 0.28947267 0.21318373 -0.15411696 0.13238068
0.1021231 0.24974531 -0.19657499 0.24758427 0.18431272 -0.17605 -0.20119369 -0.09387313
-0.06115592 0.032135658 -0.14897844 0.07302343 0.30641723 0.15737873 -0.08587733 0.2061269
-0.109504946 0.13729995 0.14168787 0.16530593 0.11259878 0.27425107 0.056248803 0.3622821
-0.018451411 0.05066818 -0.18375553 0.24840043 0.2113209 0.18026711 -0.1994303 0.253894
-0.32759184 -0.17882967 -0.1284879 0.1389958 0.23620285 -0.13342595 -0.20230083 0.2322198
0.18235363 -0.1891662 0.02722821 -0.17652695 -0.2464177 -0.1360309 0.120193325 -0.12768735

const_fold_opt__1136 f4 [32, 1, 1, 1]
00000000: 7abb 8a3e 622b ab3e 9c51 ac3e 582c 4ebe
00000010: 4828 60be 6262 203e 003c 5b3e 62de 5abe
00000020: f0dd 10be 7cf8 e43e ab51 b13e 344e c3bd
00000030: fccc 93be cebd 6dbe 3e53 763e 6714 9e3e
00000040: 9950 643e c98b 893e ef10 e3bd f6b1 d1bd
00000050: 1df9 503e 0030 973e 8fec 37be 657d 263e
00000060: 40dc 9d3e 444c c43e 1aa2 bd3e 1d98 aa3d
00000070: fb24 8cbe 7be1 47be fd11 cf3e d34f 38be
0.27096158 0.33431536 0.33656013 -0.20134103 -0.21890366 0.1566253 0.21409607 -0.21373895
-0.14147162 0.4472083 0.3463262 -0.095364004 -0.28867328 -0.23216936 0.24055192 0.3087494
0.2229637 0.2686446 -0.11087214 -0.102390215 0.20407529 0.2952881 -0.17961334 0.16258772
0.308321 0.38339436 0.37037736 0.083297946 -0.27371964 -0.19519608 0.4044341 -0.179992

const_fold_opt__1135 f4 [32, 1, 3, 3]
00000000: d137 9abc f484 8b3c f29a 923b 4d46 01bd
00000010: 0f81 843d 307b 1a3d 37bb 5f3c 23b5 323d
00000020: ac26 30bc 016b 663d e7f8 2b3c 2fe2 583d
00000030: f6c7 3fbd f1cb e03d 7829 36be 1ab9 d7bd
00000040: e8f3 7f3c 671e 83bc 70b2 1c3d 0053 eebb
00000050: 1b94 383d 2faf 92bd b874 bc3c 07e0 b6bd
00000060: 5f3c 323d 81e6 fbbb d0ac 38bd f6b4 72bd
00000070: b180 1dbe 2be5 ecbd dcd3 d9bc de7a 2dbb
00000080: 94f8 bcbd 24a0 d5bd a203 b0bd f454 acbd
00000090: 26be 3d3d b036 d63d 8681 693d 1324 073e
000000a0: 30b2 40bc 2554 173e e812 693d df64 d53d
000000b0: 9cad ae3d 6129 b23d 1522 e53d 2eae c63d
000000c0: 6400 d5bc ee7b 273d ac8a fb3c 6cd2 933d
000000d0: 9882 cdbd cc45 363d 5942 983c 6444 013e
000000e0: 6085 d73d abf7 ae3d be80 0a3d c34e f73d
000000f0: b0d3 10be be3b b5bc f57e 0ebe e94c 363d
00000100: 9e8a 453d d303 ba3d a0aa cd3d 212d ba3d
00000110: 1c01 0b3e ea16 fd3d 4d0b 243e e758 173e
00000120: 170f 9c3d e580 50bc 89e0 a63d 5049 89bd
00000130: f2ef 8bbd cba5 12be eb33 35bd f90c 27bd
00000140: 3081 85bd dcc9 193d c88f bf3c 3a67 0c3d
00000150: a4b8 863e b59d 1bbe 90b2 843e 58b6 ab3d
00000160: 2ce5 44bd 7d3b d53d eec4 85bd a6ad 27bd
00000170: f3e8 a3bd 31c3 4dbd c8db 983c 6a5c 52bd
00000180: 6cf8 16bb 35f7 ebbd de71 7a3c b5d1 d23a
00000190: 5bb3 1cbe b46b a3bc 3cfb d6bc e021 293b
000001a0: 539f b1ba de91 1abd 3994 88be 55a9 e1bd
000001b0: 41ae 6cbd 9b5a 123d cbca bbbd 6033 02bd
000001c0: 55fa aa3d 7188 043e 100e b63c 8770 533c
000001d0: 5d54 e3bb 1a9d b83d cb0a 46bd f837 8e3d
000001e0: bb04 15bc fb35 853d 4891 8c3d 0a07 a73d
000001f0: 64d3 7d3d d818 5b3d 9f6a 5dbd 374e 1fbd
00000200: f10c b5bd 5e09 033d 47eb 9c3d 3a1e d03d
00000210: fe51 8f3c b184 ccbd cb25 0f3d 2756 40bd
00000220: a328 e5bc 2ddb a6bd 27a3 143e 3e88 36bc
00000230: 5cad 213e a813 5fbc e3bc cd3c 8e2a 8f3c
00000240: d118 4abc 5815 03be 2037 b0bd bf40 02be
00000250: 6e92 513d 1f6c 00bd c650 a2bb 5ff5 ec3b
00000260: ee50 88bd 1eb0 563b 40bf 2d3d 716d bb3c
00000270: 3106 37bd 959c 013b 3a87 52bd 6388 83bd
00000280: 7b65 83bd b090 b3bd d540 de3c 6c40 4ebd
00000290: 45ec 14bb 6d45 1a3e ea19 cb3d a8c3 f33d
000002a0: c390 bd3c 0792 983d f41b 243d 14f2 b33d
000002b0: afdc 16bd 4da1 033e 069d 7cbd d000 86bd
000002c0: d267 abbd 2674 81bd 85a5 02be 22c7 d3bd
000002d0: 1b0e bbbd 8f2a 82bd 7719 05be fcac bcbd
000002e0: 3663 e9bd ac53 2abe 99d9 14be b0ae 4ebd
000002f0: 7703 20be 3cdf 9e3d a65e 19be 88d6 763d
00000300: 3edc f43d e1c1 e7bd 0efb a83d 5f32 db3d
00000310: 8d50 6d3b c624 233e 8ee2 e8bd a610 cebd
00000320: 15e3 0ebe 5a04 893d 82dd cd3d 0ebc c63d
00000330: 9902 833c a87f 3e3c a9a2 cfbc 1aef aabc
00000340: a38b 08bd 1614 b3bc 2dc2 f9bb 55b4 1fbd
00000350: 040a 4abd 0e59 86bd 0759 94bd 98fa dbbd
00000360: 4bc6 57bb 8feb 01bd 7ea8 6fbb 1112 95bd
00000370: 1be1 6abc f1a0 c0bd 32b0 61bd 5257 d7bd
00000380: a3af 99bd 71ed b43d e4dc d33d 44bd 9e3d
00000390: cac2 9f3d 9750 183e 9aa5 3c3e b7ba f73d
000003a0: a7e1 7c3e 0dcd 653e cee8 fb3d f327 2dbd
000003b0: 3bf7 ef3d 5c35 0b3d 76d5 103d 6fa3 933d
000003c0: ee4b f53b 1abe 9a3a 24c5 db3d 433e 4abd
000003d0: 861b d0bd dcc5 1ebd 181f 98bd fe8d 8b3d
000003e0: 6074 04be 0477 af3a ff7c a1bd 5eb0 51bb
000003f0: 0d57 13bd 16eb 43bd 8829 e1bd da8d 94bd
-0.018825443 0.01703117 0.0044740373 -0.031561185 0.064699285 0.037715137 0.013655475 0.043629777
-0.010751408 0.05625439 0.010496355 0.05295008 -0.046821557 0.10976399 -0.17789257 -0.10533352
0.015622117 -0.016005708 0.03825611 -0.007273078 0.04506312 -0.0716232 0.023004875 -0.089294486
0.043514606 -0.0076873903 -0.04508668 -0.05925461 -0.15381123 -0.11567148 -0.02659028 -0.002647094
-0.092271 -0.10430935 -0.08594443 -0.08414641 0.046323918 0.104596496 0.05700829 0.13197355
-0.011761233 0.14778192 0.056902796 0.1041963 0.08529207 0.08699299 0.11188141 0.09701191
-0.026001163 0.040889673 0.030705772 0.07217869 -0.100346744 0.044500157 0.018586325 0.12623745
0.10523486 0.08543333 0.033814184 0.120755695 -0.14143252 -0.022123214 -0.13915618 0.04450694
0.0482279 0.09082761 0.1004231 0.09090639 0.13574642 0.12357886 0.16019936 0.14780007
0.07620066 -0.012726043 0.081482954 -0.067034364 -0.06832875 -0.14321057 -0.044238966 -0.040783856
-0.06518781 0.037546024 0.02338399 0.034278132 0.26312745 -0.15196879 0.25917482 0.08384389
-0.048070118 0.10411737 -0.06531702 -0.04093709 -0.08003416 -0.050234977 0.018659487 -0.051357664
-0.0023036255 -0.115217604 0.015285937 0.0016084226 -0.15302794 -0.019948818 -0.026242845 0.0025807545
-0.0013551511 -0.037736766 -0.26675585 -0.11018626 -0.05778337 0.03573094 -0.09169539 -0.031787276
0.08348528 0.12942673 0.022223502 0.012905247 -0.006937547 0.0901434 -0.048350137 0.06944269
-0.009095366 0.065044366 0.06863648 0.081556395 0.061969176 0.05349049 -0.05405676 -0.03889295
-0.08840359 0.031991355 0.07662063 0.10162015 0.017495152 -0.099862464 0.03494815 -0.04695716
-0.027973479 -0.08147273 0.14515363 -0.011140881 0.15788788 -0.013615526 0.025114482 0.017476346
-0.012335018 -0.1280111 -0.08604264 -0.12720011 0.051165037 -0.031353112 -0.0049534766 0.007231399
-0.06656061 0.0032758783 0.04241872 0.022879334 -0.04468364 0.0019777168 -0.051398493 -0.06422498
-0.0641584 -0.08767831 0.027130524 -0.050354406 -0.0022723835 0.15065546 0.09917052 0.11902553
0.023140317 0.074497275 0.04006572 0.08786407 -0.036831554 0.128545 -0.061673187 -0.06543124
-0.083694115 -0.06320982 -0.12758453 -0.10340716 -0.0913355 -0.06355774 -0.12997995 -0.09212682
-0.11395876 -0.16633481 -0.14536132 -0.050459564 -0.15626322 0.07757422 -0.14977512 0.060263187
0.1195607 -0.11316276 0.0825101 0.10702967 0.0036211342 0.15931997 -0.11371337 -0.10061769
-0.13953812 0.06690283 0.10052015 0.09703837 0.01599245 0.011627115 -0.025346117 -0.020865966
-0.033336293 -0.021860164 -0.0076220245 -0.038990337 -0.049325958 -0.065599546 -0.07243543 -0.10741156
-0.0032924588 -0.031718787 -0.0036568935 -0.072788365 -0.014335896 -0.09405697 -0.055099674 -0.10514702
-0.07504203 0.08834351 0.10344866 0.07750943 0.07800825 0.14874493 0.18422547 0.1209616
0.24695455 0.22441502 0.12300263 -0.042274427 0.11717077 0.033986434 0.035359822 0.07208907
0.007485858 0.0011805922 0.10730961 -0.049375784 -0.101615 -0.038762912 -0.07427806 0.06814192
-0.12935019 0.001338691 -0.07885169 -0.0031995992 -0.03597169 -0.047831617 -0.109942496 -0.072536185

const_fold_opt__1134 f4 [16, 1, 3, 3]
00000000: ee70 5e3d eedb 10be a236 95bc 488f 993e
00000010: cd1d 5e3e 7e37 96bd a1a3 5d3d 0a0b 9f3e
00000020: 2bfb 5b3d 9a35 a83d e647 b83d fbd6 a4bd
00000030: 37e0 95bc 5c71 373e f6af 87be 5612 133e
00000040: 9331 a13d f5e8 02be 1ed4 b1bd 8f71 18be
00000050: 49b7 9fbd 321d 34be 55f6 983e c75c 44be
00000060: 4d13 16bc b056 65be 9f35 3c3e 55fe 96bd
00000070: a89f 67be 4b73 8dbd 93ee 2bbe 4b2c cebd
00000080: 1005 093e 0875 493e dd8d 213e 3c42 613e
00000090: cf05 24bc bc1c 7cbc 7366 90bd 9d4f 8f3e
000000a0: 287f 0e3e 2bf4 babe e6cb d93c d3a3 ff3c
000000b0: 2230 9cbe 8bf9 ab3d ce47 7cbd 4b1e ae3c
000000c0: 5996 5e3e b1c4 963e cd6a b0bd 478a ca3c
000000d0: fea8 bd3c 42ba a9be 9b9b 663e eb4d 5f3d
000000e0: 4fd7 c6bc 86ac fcbd 746b d4bd b141 a43e
000000f0: e688 c9be db3b 9cbe f817 b93e 54bd 0fbd
00000100: ba97 e2bd 20e5 423e 434b c83b 78a8 ebbc
00000110: bb4e 33bd 6d57 22bd 2292 123e 6c60 f4bc
00000120: b7b0 99ba 82ac 59be 1490 99bd 1837 d2bd
00000130: 91cd 66bd 1bc6 8bbd bd7c 59be c42f 373d
00000140: a5e6 f33c 9276 c0bd 7d05 49be 3f64 b13c
00000150: 9ac7 423e f618 983d ee5b 6bbe daae 463d
00000160: 8e32 3b3e 4358 803e 63f8 71bd 9291 0dbe
00000170: cfc8 8e3b dec4 19be 035c 2abe 1f8e 973e
00000180: 67de 353c fbe0 f8bd 5d22 ce3d d287 92bd
00000190: dc69 8a3c 3f8a ee3c 2d32 aabc 3b09 5bbe
000001a0: 662c 433e f2b4 e0bd c2ef a5bd 7f86 0b3d
000001b0: cfa6 28ba e1e9 c63d 77cc 71be 493d c8bd
000001c0: a582 f8bd 2e69 15bd 2415 143e 2089 e23e
000001d0: dda1 8cbb 798b 29be 6e95 933e 8f6a fb3d
000001e0: 0c0b 503e 421a 753e bd0b 133d b8a9 f4bc
000001f0: 58f3 623d 74a2 923d 8097 a33c e46e d53c
00000200: 930e ac3d 57d8 87be 6efd f73e 1ded 9e3b
00000210: a41b 87bd 1441 babb b376 dcbd e63e 9abd
00000220: 9988 173e 1d6f 013e 1d95 df3d df51 2fbd
00000230: f019 c2bd 0421 f53d c7f8 153e 3104 fc3d
0.054306917 -0.14146397 -0.018214528 0.29992127 0.21691056 -0.07334803 0.054111127 0.3106311
0.05370633 0.08213349 0.089980885 -0.08048817 -0.01829539 0.17914337 -0.26501435 0.14362463
0.07870784 -0.12784179 -0.08683036 -0.14887069 -0.07798631 -0.17589262 0.29875436 -0.19176017
-0.009159875 -0.2239635 0.1837983 -0.07372729 -0.22619498 -0.06906756 -0.16790228 -0.10067042
0.13380837 0.1967355 0.15776773 0.21997923 -0.0100111505 -0.01538771 -0.07050791 0.27990428
0.13915694 -0.3651441 0.026586484 0.031206047 -0.30505472 0.08397206 -0.061591916 0.02125468
0.2173704 0.2944694 -0.08614121 0.024724139 0.02315187 -0.33149916 0.22520296 0.054517668
-0.024272589 -0.12337594 -0.103720576 0.3208137 -0.39362258 -0.30514416 0.361511 -0.035092667
-0.11064096 0.19032717 0.0061124875 -0.028766856 -0.043776255 -0.039634157 0.14313558 -0.029831134
-0.0011725639 -0.21257213 -0.07498184 -0.102644145 -0.056348387 -0.06824895 -0.2123899 0.044723287
0.029773066 -0.093976155 -0.19631 0.021654246 0.19021454 0.07426636 -0.22984287 0.048506595
0.18281004 0.25067338 -0.05907477 -0.13825062 0.0043574343 -0.15016505 -0.16636662 0.29600617
0.011100388 -0.121522866 0.10065148 -0.07154812 0.01689618 0.029118655 -0.020775879 -0.2139024
0.19059905 -0.109720126 -0.08102371 0.034063812 -0.0006433548 0.097125776 -0.23613153 -0.09777314
-0.121342935 -0.03647726 0.1446119 0.44245243 -0.0042917565 -0.16557111 0.28824943 0.12276184
0.20316714 0.23935798 0.035899866 -0.029866084 0.055407852 0.07159892 0.019969702 0.026053853
0.08401217 -0.26532242 0.4843554 0.0048500434 -0.06597069 -0.0056840274 -0.107648276 -0.07531528
0.14798202 0.12640043 0.10917113 -0.042802688 -0.094776034 0.11969188 0.14645682 0.12305487

const_fold_opt__1133 f4 [32, 1, 3, 3]
00000000: 2a9c 903a f8d6 243b f66a cb3c 49fb 7d3b
00000010: f529 653c 0e1e d23d e83e d0bc 243b 283e
00000020: d52c 643d 1b5a c9bd 11bf 00bc b0df 2fbd
00000030: d219 3bbd 45f0 bf3c b4d4 633b d309 a4bc
00000040: be7b 28bd b010 7cbd 22a1 883d e7be c83d
00000050: f503 213e c760 973d cb9c fcbd ac2c adbd
00000060: 4d03 4b3d 5434 63be 1f4a 0cbe 7f13 8abc
00000070: 6802 bbbc f17b 043e 4985 5b3c 146d 813d
00000080: 8274 0b3d bea2 f33c cd43 e6bd 5adc 40bc
00000090: cdb2 81bd 1d56 cbbd 4e2e 9cbd dc73 b4bd
000000a0: 9ed2 ccbd 0479 7fbd 64ae 9cbd 8179 5ebd
000000b0: fdd5 10bd 704f 38bd 31b9 5b3d e4a7 a1bd
000000c0: 9a4a 90bd ce96 ba3d 453e 6cbd f455 e23d
000000d0: 3baf 443e c7b1 1c3d c73f 79bd 53fc 46bd
000000e0: b904 35be e44d 7bbc 3a74 033e 9ab3 66bd
000000f0: 6bfd 9c3d 80b3 d43d 7014 f83c 81b4 553c
00000100: bfba a7bd 4327 b13c 7ee2 bf3c 1d66 533e
00000110: 0404 4abb 2752 2a3e b20c 593e e657 b63d
00000120: b34a 633c 4f30 8c3d 1c52 603d 7fa8 1abc
00000130: d63b 82bd 2a0a 21be 7145 083d 6492 f33c
00000140: e31b d53c 43b0 2ebe 56fd 63bd 3689 20be
00000150: bed8 26bd a425 8a3e 127e 21bd 85fc cc3b
00000160: c103 0b3e bd91 f2ba e455 993d 7af3 993e
00000170: 3bb7 f03d e0fa f83c f65c 043e 2471 be3d
00000180: 0948 36bd c790 b13d 4c0c 13bd c827 ddbd
00000190: 7cc1 5aba 8a48 e1bd d469 0dbe b346 8cbd
000001a0: 15df efbd b215 ae3d 7216 8f3d 2a95 93ba
000001b0: c85f e83d 1b47 753e 1ce7 b13d f8bd 46bd
000001c0: c6ae 413d 59ac 06be 88b9 fcbd 968d 383e
000001d0: 9d6b 09be b37f e7bd b1d0 72bd 0aa7 a7bd
000001e0: 0bee a5bd 2b70 85bd 9194 42be 5ed9 b7bd
000001f0: d8ce c73c 67bc 18be 0816 883c 2171 2e3e
00000200: d2bc ad3d 98b7 d2bb 4230 b0bd 5325 863d
00000210: 123d 4fbd 1bf8 a1bd ecb4 893b c66e 3e3d
00000220: 136b a43c 7e7a 6dbb 03c2 68bd 28b2 e4bd
00000230: aef4 3abd bf10 ed3c 4319 043e 42d0 043e
00000240: 728d bb3d 9ddf 19bd e34c eb3d f9c3 d53d
00000250: 0f11 573e c9fc 4d3e b8f1 f4bc 8960 8dbc
00000260: 32dd 1fbe 4533 d5bd 240f e7bd 7d1a 19be
00000270: 294d cbbd 2387 473d 3cb2 00be 5888 6dbc
00000280: 798f 183d 6e66 053d bfe1 3d3d 06fa 93bc
00000290: f7b3 a5bd 637c 073e a911 3cbe d7e8 1d3e
000002a0: 4d91 933d f89b 41be 7e15 bc3c 0966 213e
000002b0: 5038 80bc ddfd 1d3e 820e e33d 25f1 89bc
000002c0: cd2e 923d 8710 52be b091 88be 84dc 85be
000002d0: b277 8cbd c1d7 78bc e60b b3bd a363 5e3b
000002e0: a2b2 af3d 4dac 23bd 9ede f5bd 7662 99bd
000002f0: 502c 11be c0fd b73d e3e0 fb3d 7966 fd3d
00000300: eb5c d23d 7eb0 bd3d 2047 2b3e d129 973d
00000310: 7593 df3d 51cb 233e 02ed da3c 2b4c d53c
00000320: 3a94 d8bd ae3e 1b3d 80ab 1c3e a8b6 2fbe
00000330: 24bf b6bd eb29 2c3d f0ae f4bd a4b3 9e3d
00000340: 2094 8fbd 9a8d c03c 308b 433e f313 e3bd
00000350: 5b9e ee3d 5bee c03c e37e c4bd 8020 11be
00000360: 9db4 b3bb 51e2 86bc 9b5b 48bd 7918 603e
00000370: a4f0 5aba 91da 5abb d95a ab3c 6108 73bd
00000380: f8d1 93bd b63f 18be ccff cb3b f5ac 94bd
00000390: 4d22 76bc 2650 c03d 4850 963d e164 ecbd
000003a0: 9795 88bc be76 a3bd f41d 78bd 9464 42bd
000003b0: ebf7 31bd 40fa f0bc 187d c4bd 904e ef3c
000003c0: 14bf 14bd 26d8 50be 840f 6fbd 32c5 eabb
000003d0: d35f 8ebd 8981 5bbd b336 e8bc 1787 c0bd
000003e0: bd57 1abe 03d4 2cbd 8edf 0dbe cdfc acbd
000003f0: c8ec 6bbd c668 7f3c 2deb 1d3d 5c71 1b3d
0.0011032869 0.0025152545 0.024831276 0.0038754514 0.013987054 0.10259639 -0.025420621 0.1642881
0.055706818 -0.098316394 -0.007858054 -0.042937934 -0.04567892 0.02343 0.0034764232 -0.020024216
-0.041133635 -0.061539352 0.06671359 0.09802037 0.15724166 0.07391506 -0.123345934 -0.08455786
0.049563695 -0.2218793 -0.1370015 -0.016855 -0.022828296 0.12937905 0.013398477 0.06319633
0.034046657 0.029740687 -0.11243401 -0.011771286 -0.06332932 -0.09928534 -0.076260194 -0.08811161
-0.100011095 -0.06237127 -0.0765045 -0.054315094 -0.035360325 -0.044997633 0.05364341 -0.07893351
-0.07045479 0.09110795 -0.057676572 0.110515505 0.1920747 0.03825548 -0.06085184 -0.04858048
-0.17677583 -0.015338395 0.12837306 -0.056323625 0.07665523 0.103857994 0.030283183 0.013043524
-0.08189916 0.021625167 0.02342343 0.20644422 -0.0030825147 0.16632901 0.21196249 0.08903484
0.01387279 0.06845152 0.054765806 -0.009439587 -0.06359069 -0.15726534 0.03326935 0.02973289
0.026014274 -0.17059426 -0.05566152 -0.15677342 -0.040734045 0.26981843 -0.03942687 0.0062556886
0.13575651 -0.0018506568 0.074870855 0.3006857 0.117536984 0.030393064 0.12926087 0.092989236
-0.04450229 0.08670192 -0.0359004 -0.10798603 -0.00083448715 -0.11000164 -0.13809901 -0.06849422
-0.117124714 0.08500232 0.06986703 -0.0011259664 0.11346394 0.23952906 0.08686659 -0.048521012
0.047285818 -0.13151683 -0.12340075 0.18022761 -0.13419957 -0.113036536 -0.059281055 -0.08186157
-0.08102044 -0.06515535 -0.19001986 -0.089770064 0.024390623 -0.1491562 0.016612068 0.17035343
0.0848328 -0.0064305775 -0.086029544 0.06550088 -0.05059535 -0.079086505 0.004202476 0.04649236
0.020070588 -0.003623634 -0.05682565 -0.11166793 -0.0456435 0.02893865 0.12900262 0.12970069
0.09157838 -0.03756677 0.11489274 0.104377694 0.21002601 0.20115961 -0.029900417 -0.017257946
-0.15611723 -0.104101695 -0.11282185 -0.1495151 -0.099268265 0.04871286 -0.12567991 -0.014497839
0.0372462 0.032568388 0.046357866 -0.018063556 -0.08090966 0.13231044 -0.18366112 0.15420853
0.07205448 -0.18907154 0.022959467 0.1576158 -0.015651852 0.15428872 0.110867515 -0.01683862
0.07137833 -0.20514117 -0.2667365 -0.26144803 -0.068587676 -0.0151881585 -0.08742504 0.00339339
0.085789934 -0.03995924 -0.120053515 -0.07489483 -0.1417706 0.08983946 0.12298753 0.12373061
0.10271629 0.09262179 0.16726351 0.07381023 0.10916797 0.15995528 0.026724342 0.026037296
-0.10575147 0.037901573 0.15299797 -0.17159522 -0.08923176 0.042032164 -0.11947429 0.077491075
-0.070106745 0.02350502 0.19096065 -0.110877894 0.11651298 0.023551157 -0.09594514 -0.14172554
-0.0054841773 -0.016465338 -0.048915487 0.21884336 -0.0008351898 -0.0033394436 0.020917343 -0.059334163
-0.07217783 -0.14868054 0.0062255617 -0.072595514 -0.015022826 0.09390287 0.07339531 -0.115426786
-0.016672892 -0.07981633 -0.06057544 -0.0474592 -0.043449324 -0.029416203 -0.09594172 0.029212266
-0.03631504 -0.20394954 -0.058364406 -0.007164621 -0.06951871 -0.05359033 -0.028346395 -0.09400766
-0.15072532 -0.042194378 -0.1385481 -0.084466554 -0.05759886 0.015588945 0.03855436 0.037949905
