deploy/model.onnx (onnx, 699835 bytes, 183 tensors)

model_3/yolo_head_P5/separable_conv2d/ReadVariableOp_1:0 f4 [24, 64, 1, 1]
00000000: 2dab 5cbd ebe6 bfbd 7a7d c53c e519 3b3e
00000010: d600 573e 0258 153e 6d33 953d 8221 5a3d
00000020: f8a5 fe3d a12d 253d 7c77 20be 335f 33be
00000030: 5a02 823e 7eda 333e 654c 52be 3916 85bc
00000040: 2df0 82be 1c61 003c 7bdd cd3e 84bc 6fbe
00000050: 4c0a 80be ac31 c93c 77e0 d5bd 8cc5 2bbe
00000060: 2c9e 22be cd88 7c3e 7dce 5dbe 4772 2ebe
00000070: 257d edbd 0a9b 4d3c 4771 943e b0f4 303e
00000080: 28da 81be 699a bdbd 4706 583e 64cc c23d
00000090: 5bab 1f3e ee82 1c3e 7f97 853e 0eb7 54be
000000a0: 6e20 163e d1c3 c53e 5ec7 5bbe 498f 383e
000000b0: 6ebe 36be 382d 8e3c 6395 c2be 05ba 4fbe
000000c0: 8798 903e 499d b83b 8594 b0bd ca28 85bb
000000d0: b726 933c 6179 a43e ceb4 83be 76c7 6a3e
000000e0: b504 cc3c 75c3 d7bd ea39 f13d a7c0 aa3d
000000f0: 3b4e 9d3e 5bf2 7dbe 3095 f93d 222d 073e
00000100: 3232 85bd 7ca4 0fbe 3200 543e 4402 65bd
00000110: 1f89 883d 035e 923e e685 ecbd 3e89 413e
00000120: 666a 563e 955d dd3c 926f 473e cbeb 9f3b
00000130: 72d0 e73d f93e 1e3e 9c95 ce3d 99fd 243e
00000140: 6b6d 333e 1e5a 7cbe 03d9 403e 207c da3d
00000150: 3708 2abd 3943 19be d1b4 413d 19b5 303e
00000160: cef2 9cbe 862f 063e 3833 543e 89f6 d13c
00000170: 262d 853e 67ff 02be b3df ef3d 62b2 5c3e
00000180: 1898 0cbe d6b9 073e f8c6 d8bc b51a c0be
00000190: e884 3dbe 97bf 443d 997a e9bd 7283 393e
000001a0: 74a6 ab3c 09a7 6d3d 4594 96bd 043d 42be
000001b0: bd3f 33bd 3e82 4a3e 9f4f 193e fe37 3b3e
000001c0: b784 623b ff58 afbe 364f 68bb cb4c aa3d
000001d0: e9d9 0abe 0caf 8fbe ffde 7bbe ea40 67be
000001e0: 2ca3 febd 5d91 3a3e 964f 133e 2b0a 18be
000001f0: a2b5 113e 7243 743e 6c31 66be 7262 31bd
00000200: bca4 893e 5323 cebd 150f c6bd 2118 043c
00000210: 6d8e 6abe 6427 78be e00f 5a3d ea48 fd3c
00000220: 1ee5 a3bd e36a 56be c6cd 3d3e e6ce 1f3e
00000230: 4666 5f3e 3c8c 21bd f3a0 8d3d 934c 06bd
00000240: 8f84 3abd 0799 fe3d c327 d03d 51c1 183e
00000250: 9fc3 323e 91de d1bd eb2f 393e b361 713e
00000260: 46bb 303d 664d 2e3e 6469 e53c 476e fa3c
00000270: 4813 a33d 9694 49be 1e66 a23c 3fd4 2dbe
00000280: 4f59 78bc d406 56bd 8f81 8fbc aeab df3d
00000290: 5a84 603e 988d 8c3e 03af afbc d46f 9f3c
000002a0: 13ba 8cbd 0fb0 583d f010 583d 4046 c0bd
000002b0: 9cf7 8c3e eb45 d3bd 8b8a 5c3d cec8 3b3e
000002c0: dc53 8f3e 5149 be3c 2a2a 12be 2906 06be
000002d0: 0ef7 4f3e 913b bb3d d93d af3d 1ccd 62be
000002e0: ebb5 ea3d bd2f 00bd eee4 d3bb 42fa b93d
000002f0: 8fb5 34bc 460f f03d add9 e23d 68ce 9ebd
00000300: 8a52 6e3e 4b5a 14bb cf06 6f3d b15e 723e
00000310: 8b4d 843e 4779 87bd f0b5 803e 0dd3 95bd
00000320: 5930 e3bd 6120 0fbd e990 eabd 4636 6a3d
00000330: 763f d63e f873 46be e2e8 4dbe 3e7c 743c
00000340: 035d 7ebd 104a 3dbe d3b6 403e 6ac8 30be
00000350: 4095 82bd a621 36be 0aba 193e 623e 3d3e
00000360: 1ce0 2e3e 8cf3 e03e d72d 623c ffd8 903c
00000370: 4bd5 42be d7e1 4e3e bdd7 e93c 16e8 4e3e
00000380: 0361 32be 0949 0fbe 646c 09bd c99b 62be
00000390: 88e9 38bd 4462 423d 3afe b03d 249f c0bd
000003a0: 9bd1 0abe 7c50 c83b 9166 e6bb 9f07 593d
000003b0: 3cac 9d3e 6d38 2fbe 995f 413d 3143 1a3d
000003c0: 4541 6f3c e163 b6bd 49d5 5a3d b5b7 8f3d
000003d0: 2d83 45bd 87e2 2c3e d84c fb3d 7741 67be
000003e0: d357 d13c bea3 d93d 913f 15bc b49a 723e
000003f0: 802f fe3b 309d 043d 188e 3dbe 1802 1c3d
-0.053874183 -0.09370216 0.024107683 0.18271597 0.20996413 0.14584354 0.07285199 0.05325461
0.12434 0.04032672 -0.1567058 -0.17516784 0.2539242 0.17563817 -0.20536955 -0.016245948
-0.25573865 0.007835653 0.4020804 -0.23411757 -0.25007856 0.024559818 -0.10443204 -0.16774577
-0.1588065 0.2466156 -0.216608 -0.17035781 -0.11596135 0.012549171 0.28992674 0.17280841
-0.25361753 -0.09257967 0.21096145 0.09511641 0.1559271 0.1528432 0.26092145 -0.20772955
0.14660808 0.3862596 -0.21462771 0.18023409 -0.1784608 0.017355546 -0.38004598 -0.20285805
0.2824137 0.005633984 -0.08622078 -0.0040637003 0.017962797 0.32123855 -0.2572388 0.22927651
0.024904588 -0.10535327 0.11778624 0.08337527 0.30723748 -0.24799483 0.121866584 0.1320081
-0.065037146 -0.1402759 0.207032 -0.055910364 0.06666779 0.2858735 -0.115489766 0.1890001
0.20939025 0.027022162 0.19476154 0.0048804036 0.11319055 0.1545371 0.100871295 0.16112365
0.17522208 -0.24643752 0.18832783 0.10668206 -0.04151174 -0.1496705 0.04729158 0.17256583
-0.30653995 0.13104066 0.20722663 0.025630252 0.26011008 -0.12792741 0.11712589 0.21552423
-0.13729894 0.13254485 -0.026462063 -0.37520376 -0.18507731 0.048034277 -0.11400337 0.18116549
0.020953394 0.058020625 -0.07352499 -0.18968588 -0.043761957 0.19776246 0.1497178 0.18283078
0.0034563967 -0.34247586 -0.0035447604 0.08315428 -0.13559689 -0.28063238 -0.24596785 -0.22583356
-0.12433466 0.18219514 0.14385828 -0.14847629 0.14229444 0.23853853 -0.2247979 -0.043306775
0.26883495 -0.10065331 -0.096708454 0.008062393 -0.22905894 -0.24233776 0.053237796 0.030918557
-0.08002685 -0.20939212 0.18535528 0.15606269 0.21816358 -0.03944038 0.06915464 -0.03278787
-0.045536574 0.124315314 0.10163834 0.14917494 0.17457436 -0.10247529 0.18084686 0.23572426
0.043147348 0.17021713 0.028004356 0.030570162 0.07962662 -0.19685587 0.019824084 -0.16975497
-0.015158012 -0.052252606 -0.017517833 0.10921417 0.21925488 0.27451777 -0.021445757 0.019462503
-0.06871428 0.052902278 0.052750528 -0.09388399 0.2753266 -0.1031607 0.053843062 0.1833832
0.27993667 0.02322832 -0.14273897 -0.13088287 0.20309088 0.09142221 0.085567184 -0.22148556
0.11460479 -0.031295527 -0.0064664995 0.09080936 -0.011029615 0.11721663 0.110766746 -0.077542126
0.23273674 -0.0022636827 0.058356103 0.23668934 0.2584041 -0.06614929 0.25138807 -0.07315645
-0.11093206 -0.03494299 -0.11453421 0.057180665 0.41845292 -0.19380176 -0.20108369 0.0149222
-0.06210042 -0.18485284 0.18819742 -0.17263952 -0.063761234 -0.17786273 0.15012375 0.18480828
0.17077678 0.43935812 0.013804874 0.017681597 -0.19026677 0.20203339 0.028545255 0.20205721
-0.1741982 -0.13992704 -0.033550635 -0.2212974 -0.045144588 0.047456995 0.0864224 -0.09405354
-0.1355652 0.00611311 -0.00703127 0.052985784 0.30795467 -0.17111368 0.04721031 0.037661735
0.014602964 -0.08905769 0.05342606 0.07017461 -0.048220802 0.16883288 0.12270516 -0.22583567
0.025554573 0.106269345 -0.009109394 0.23691827 0.0077571273 0.03237647 -0.18511236 0.038087934

model_3/yolo_head_P5/BiasAdd/ReadVariableOp:0 f4 [24]
00000000: d757 003d ae75 0abd 83ae c6be 56f6 07be
00000010: 8783 adc0 3bb5 4fbe 11a9 8abe 55e0 31bf
00000020: b488 3e3d 6f20 053d 5cc0 e3be f3a7 dabe
00000030: 2dce afc0 c2c5 c43e a9f1 02bf b290 4cbf
00000040: 1d77 75bb 679b bebc 4af0 5ebf 43e8 1bbf
00000050: d1dc b3c0 f9ea c73e 542f f0be 14d6 11bf
0.03133377 -0.033803634 -0.38805017 -0.13277563 -5.4223056 -0.20283978 -0.27082112 -0.6948293
0.04651709 0.032501634 -0.44482696 -0.4270626 -5.493918 0.38432127 -0.51149994 -0.7990829
-0.003745503 -0.023267461 -0.870854 -0.6090128 -5.620705 0.39046457 -0.46911108 -0.5696728

model_3/yolo_head_P4/separable_conv2d/ReadVariableOp_1:0 f4 [24, 64, 1, 1]
00000000: 31e4 27be 5425 98bd 3646 3a3e 73ef 01bc
00000010: 36dd 75be 33fb 66be c612 fcbd 5589 31ba
00000020: f8b0 c6bd c5c9 27bd b865 1ebd 456d 323e
00000030: 09f4 003e a7de 2e3e 823e 0abe 8bc3 0e3e
00000040: befb 0abe 69c9 473d 444c 6b3e fb15 44bd
00000050: ca04 83be 6b34 533e d6db f6bc 3445 483e
00000060: 2cf4 73bd bba3 f4be f870 9bbd 76a5 163e
00000070: 3f30 713e 5a3a 59bc f616 51be 59f6 453e
00000080: f015 523e 1063 44bd d780 843e 327d 813d
00000090: e078 a93d cbb6 db3c 94d5 12be 25ea d7bd
000000a0: dfdc 58bd a368 2e3e b46c e63d c18b 90bc
000000b0: 81b2 09be 00b4 d2bd ccff 423e 1b7b e83d
000000c0: e85d 5cbd ea19 55be ccf3 27bd ab36 2f3e
000000d0: 0a9a 34be 6a42 0e3e a7bb 013e 5946 3ebe
000000e0: 0e40 bc3c b697 edbe 0bd3 25be 1dff 2b3e
000000f0: 1d4c 12be 26c9 c7bc 7e4e a53b b17b 853e
00000100: cfe9 14bc 6f73 3f3d 61a1 97bd 2376 fc3d
00000110: be21 573d 441e 8fbd fb45 d93d 3d9c 80bc
00000120: 374b 8abe 9861 14be 4c2d f9bd 8645 b5bc
00000130: 3862 1a3e 3670 dfbe 8141 1ebd bab1 71be
00000140: c716 0dbd 9f2d d0be 9a8b 503e 4d7f 783d
00000150: 4437 9c3d b61d 2ebe 0442 bdbe 7a71 033e
00000160: 9cb7 2f3e 9581 45bd a954 a53d 2f9c af3d
00000170: c1ba e2bd 5d36 fbbd 70fb ef3d 82bf 2cbd
00000180: b244 11be 0c56 ecbd d865 6f3e 6d57 e23d
00000190: 4573 313e f3c4 92bd 0034 2abe af20 84bb
000001a0: bad2 663e a1e2 83be 16ed 313c ccb1 26be
000001b0: 476b aabd 94cb 8c3e 60fc 973d b58e 3f3e
000001c0: bf42 39bc bdaf ce3e 1172 1f3e 7451 003e
000001d0: 891e 11bd 2e6c 5b3e 491a e7bd dfa5 943d
000001e0: 45ba 203e c2f4 a63c 9f72 9dbd b82f 72be
000001f0: af2b 2a3d 53a7 5f3c 1252 4abe 05f5 7d3d
00000200: 2e70 b6be 3f80 f63d 8b33 9f3d 530a fd3c
00000210: 5729 a5be 3585 29be a526 153e da2f 6abd
00000220: 365c b33d 9428 083e 4f8c 5a3d 762b 833e
00000230: 04f3 bf3a b6a1 cabc dd3e a73c c46d acbd
00000240: eba3 7ebd 4d1f 60bd 5405 ac3c 65d5 a7bd
00000250: 425b 01bd 07c2 ca3d 2e91 03be 19b9 893d
00000260: 6834 e0bd 0806 583c b0d4 913d 4f95 453d
00000270: 6c2e c2bd e8be 3ebd d9c4 77be 4035 c83b
00000280: 653d f73b 6024 173e 905a aabd 4664 02bd
00000290: 6798 0bbe fad9 abbd fbdb 09be 1d00 6fbe
000002a0: df03 533e f094 2fbe 4fd1 7a3d 26b9 893e
000002b0: dc07 0bbe 90cc 3bbe aa72 71bd 3941 1b3e
000002c0: 690b ca3b 03c3 c0bd 362c 1b3e 7961 503e
000002d0: f4f6 683e 64bd 00bd b18a e5bd 8f92 283e
000002e0: af0f cf3c 7421 e6ba 0676 053e 865a e03d
000002f0: e31a 843e f3c3 1e3f 408e 313e 74b4 dfbd
00000300: 611a 94bd 77e8 12bd ed33 b93c e0a8 813d
00000310: bfea d2bd 61fe 18bd 6a57 a73d e316 3f3d
00000320: 7d4e 153d a4a3 1d3e 8746 7a3e c49c 7dbd
00000330: 10d8 97bc b4c3 693d 835c ec3d 2c04 8ebc
00000340: 19c3 d7bd 78cf a7bc 38f5 673e cf17 233d
00000350: 30ee f23d 9836 1fbe e7d2 a23c b0a4 08bd
00000360: 67b6 023e fe79 063c 88bf c5bc 407e dabd
00000370: 6cf7 943d d061 70be dc2d 41be 9870 ccbe
00000380: e9c1 633e 34c9 4bbe 79e4 853d 32e8 89bb
00000390: 2951 4dbe 02cd 003e fd72 2bbe c4e5 c4be
000003a0: 3d78 a5bd 60e6 373d cf34 2a3c 4468 24be
000003b0: db81 6fbd cfa6 0a3d 39a6 d9bb 8322 343e
000003c0: 0f54 1dbc c3e8 02bd 6c38 563d bb7d 103e
000003d0: f33a 72be d138 8e3d eb9d e4ba d984 c6bd
000003e0: d2d9 c93b 92bb f23c 57fd 203e 52f0 5b3e
000003f0: 1e32 aebc 42ce 8bbc 9083 dcbd b70a 573e
-0.16395642 -0.07428995 0.18190846 -0.007930624 -0.24010167 -0.22556762 -0.12308268 -0.0006772478
-0.09701723 -0.040963907 -0.038671225 0.17424496 0.12593092 0.17077123 -0.13500407 0.13941781
-0.13572595 0.048776064 0.22978312 -0.047872525 -0.2558959 0.20625465 -0.030134123 0.19557649
-0.059559032 -0.47781166 -0.075899065 0.14711556 0.2355356 -0.013258541 -0.20418915 0.19332255
0.20516181 -0.047946036 0.25879547 0.06322707 0.08275008 0.02682056 -0.14339286 -0.105427064
-0.052945014 0.17032103 0.11251202 -0.017644765 -0.13447 -0.102882385 0.19042891 0.113516055
-0.053800493 -0.20810667 -0.041003987 0.17110698 -0.17636886 0.13892522 0.1266924 -0.18581523
0.022979762 -0.4640481 -0.16193788 0.16796537 -0.14286847 -0.024387907 0.0050447574 0.26070932
-0.009088947 0.046740945 -0.074038275 0.1232722 0.052522413 -0.069881946 0.10609051 -0.0156995
-0.2701051 -0.14490354 -0.12166843 -0.022127878 0.1507653 -0.43640298 -0.03863669 -0.23602954
-0.03444555 -0.40659806 0.20365754 0.06066828 0.076277286 -0.17003521 -0.36964428 0.12836257
0.17159885 -0.048219282 0.08072788 0.085747115 -0.11070777 -0.12266228 0.1171788 -0.042174824
-0.14186361 -0.1153985 0.23378694 0.110518314 0.17329128 -0.07166471 -0.16621399 -0.0040322165
0.22541323 -0.25758842 0.010859748 -0.16278762 -0.08321243 0.27499068 0.074211836 0.18706782
-0.011307417 0.40368453 0.15570857 0.12531072 -0.03542951 0.21427986 -0.1128431 0.072582
0.15696056 0.020380381 -0.07687878 -0.23651016 0.041545566 0.013650733 -0.1975787 0.062001247
-0.3563246 0.1203618 0.07773503 0.030888712 -0.32258102 -0.1655472 0.14565523 -0.05717454
0.08757822 0.1329673 0.053356465 0.25619096 0.0014644568 -0.024735313 0.020415718 -0.08419374
-0.062168043 -0.05471735 0.020998634 -0.08194999 -0.03158117 0.09900289 -0.1284835 0.06724758
-0.10947496 0.013185032 0.07120645 0.048238095 -0.094815105 -0.04656878 -0.24196185 0.0061098635
0.0075451606 0.1475997 -0.08318055 -0.03183391 -0.13632356 -0.08391185 -0.13462822 -0.23339887
0.20606945 -0.17146659 0.06123477 0.2689907 -0.13577217 -0.18339753 -0.058947243 0.15161599
0.006165911 -0.094121955 0.15153584 0.20349683 0.22750455 -0.031430617 -0.11208094 0.16462158
0.025276033 -0.0017557577 0.13033304 0.10954766 0.25801763 0.62017745 0.1733942 -0.109230906
-0.07231594 -0.035866227 0.022607768 0.063310385 -0.102986805 -0.03735197 0.0817097 0.046652686
0.036451805 0.15394455 0.24440967 -0.06191708 -0.018535644 0.057071403 0.11541083 -0.017335974
-0.10535259 -0.020484671 0.22652137 0.039817628 0.11861837 -0.1554817 0.019875957 -0.033360183
0.12764893 0.008207796 -0.02413918 -0.106686115 0.072737545 -0.23474813 -0.1886515 -0.39929652
0.2224194 -0.19900972 0.06537718 -0.004208588 -0.20050491 0.12578204 -0.16743083 -0.38456547
-0.08079574 0.044897437 0.010388567 -0.16055399 -0.05847345 0.033850487 -0.0066421297 0.1759129
-0.009602561 -0.03196026 0.0522999 0.14110462 -0.236553 0.069444306 -0.0017442083 -0.096933074
0.0061599994 0.029630456 0.15721641 0.21478394 -0.021264132 -0.017066125 -0.10767281 0.21000181

model_3/yolo_head_P4/BiasAdd/ReadVariableOp:0 f4 [24]
00000000: 92ea b5bd f0e6 fbbd f027 453e 4167 efbe
00000010: a0ba 3fc0 03bc 44be 28f1 e0bd 856e 91be
00000020: edf6 1cbc 3122 3f3d 7479 a7be 400e a4be
00000030: 936f 3cc0 f484 31be cc37 debc cde6 5cbe
00000040: c9b7 4f3d 9b6a 20bd 7466 5ebe a68e 06bf
00000050: 0120 48c0 e167 f33d 28dc 0cbe b843 bcbe
-0.08882631 -0.12299907 0.19253516 -0.46758464 -2.9957657 -0.19212346 -0.10983497 -0.28404632
-0.009580356 0.046663467 -0.3270985 -0.32042122 -2.94431 -0.17335874 -0.027126215 -0.21572419
0.05071238 -0.039164167 -0.2171877 -0.52561414 -3.1269534 0.11885048 -0.13755858 -0.36770415

model_3/yolo_head_P3/separable_conv2d/ReadVariableOp_1:0 f4 [24, 64, 1, 1]
00000000: d9fe 99be 37ab 67be 2822 09bc c4e5 3fbe
00000010: 0ed3 b5bd 5350 83be 45dd 70bd 56c2 5a3e
00000020: 4b12 023e fcd8 a0bc 1988 213e 48f3 04be
00000030: ffa7 96be bad9 2bbe 4127 eabc 5253 4e3e
00000040: 4bde f53d 927b 3ebe f6ee 90be 272a 3ebb
00000050: 6d0b 543e e453 3e3e 8b9f b4bc e925 443e
00000060: 997d 27bd 5c78 4bbd 17cc 84be d102 82be
00000070: 4873 57be ce3b d53c 8d13 3d3e 24ed 4bbe
00000080: 8ce3 e33d 791d 1dbe 05eb 853e 3200 6d3c
00000090: f64a 2bbe b949 10be fced 66be 37b1 40be
000000a0: d628 ec3d e4b8 c93d 7b86 e13b a633 34be
000000b0: 7618 dfbd ea95 5f3d 3dc5 00be e582 15be
000000c0: 902c 1c3e 5171 53be e2af 2a3c a8c4 12be
000000d0: 9712 8bbe 4a5f 08be 767c bcbb 2c31 443e
000000e0: 4d03 edbe c46b bcbd e487 673e e661 14bd
000000f0: b8ad 4b3e a9b0 42be b5b1 9fbe 5cce cfbd
00000100: 5a3f e63c 5de0 a23d 2e44 1e3e 2bc4 a73d
00000110: 0bc7 0e3c 1cb5 303e eadd 103d 50b5 463e
00000120: 7241 14be f013 33be 349e 053b 052e 153e
00000130: 01c1 bfbe 7754 403e 7216 e0bd 0fb5 3b3e
00000140: d18d a43d 9fcb 8d3c fb6c 98bd 5b67 1b3e
00000150: d0e9 01be f4d8 503e 198e 4e3e fd63 b8bd
00000160: 767d 1a3d 6327 88bd 011f fdbc e6b6 183e
00000170: da8e 04be c3f7 2fbe 65a5 0bbe b93c 843e
00000180: 3c29 643d bd20 81be 2ddc 983d a928 edbd
00000190: 74ea b33e 1ced eb3d 8e97 a03d 679a 973d
000001a0: 34c8 603e 1d92 37bb d8a1 27be 0a19 653c
000001b0: fa00 a03e 8766 ed3e f2e0 8ebd 6bc5 8e3c
000001c0: 8849 1cbe c95f 7d3d 1646 51be 7c9e 57be
000001d0: f717 63be b7b6 1ebe 85db ea3e 3c8c c9bd
000001e0: 5162 e1bc f459 82bd d3dd e23e 34a3 a13d
000001f0: 793a 9e3c db87 ea3d 4323 aabd 3d2b 72bd
00000200: 3086 793e 12a3 c33e fd43 46bc 6b5b 0d3e
00000210: 6966 293e 7d11 eb3d 6a31 d0bd d98a 3d3b
00000220: 6c56 a63d a1fd 84be 1411 ff3d 96f3 483e
00000230: 9fd6 8ebe bbff 71bc 9281 65be 333b 31be
00000240: 47ad ce3e 8729 523e 0f9c 893d b77d 233e
00000250: 3880 bebd 870b e4bd f733 1bbe ef31 4bbe
00000260: 1922 0b3e 6513 e33c 69e4 83bd f5ab c13b
00000270: e447 863e 58e9 c73d 9f2f 793e 5b0c 5ebe
00000280: 749e 493e 7d09 853d d12e 0d3e a951 2fbe
00000290: ee48 073e 8f58 033d 8839 fe3d 54ba fbbe
000002a0: fa07 273e 2b8b 88bd efb6 2e3e 260e 433e
000002b0: f752 343e 7679 9abd 38af 99bd 791d 28bd
000002c0: 878e 05be b110 ca3e 1d6f 60be c030 33be
000002d0: b690 21be 1b4e 493e e788 cc3b 469b 7abe
000002e0: 1274 893c 0297 543d d595 d3bd 0606 fdb9
000002f0: 647b a4bd 88dc c8bb d8eb 643e 2ebb ca3d
00000300: a79d 82be 8b36 8fbe a2f4 0ebe 697d 5e3e
00000310: 0e1c cb3d f678 b0be 7af0 08bd 5698 3bbe
00000320: 6202 02be 2ea7 243d 8618 08be 6c14 cb3d
00000330: 59ce 6ebe 0aa6 5cbd cfa3 d7bd caac 48be
00000340: f8b7 c23d ad3a 83be 07a7 61bc ba2e 40be
00000350: 2911 22be f234 8e3e 0619 983d b82a 17bd
00000360: 2bbe 943e 6a63 833e c0c8 b2bc 55cf b23d
00000370: ba87 5d3e 8b3a 0a3e dcbc 583e 53a1 6a3e
00000380: 9ec3 94bd f52b 8ebe ce09 6cbe c0ce 45bd
00000390: 9205 5bbc 9544 a7bd ebb2 7abc 7dac b7bd
000003a0: 80a9 68be c0e2 70be e7ca 8ebd 5ec7 c2bd
000003b0: 62f7 6bbd f3dc 1bbd eb98 f53d 5708 97bd
000003c0: ed26 74be 8805 4b3e 2828 453e 7ddf b63d
000003d0: 4b81 a13d 8c27 84bc 1e0b af3d 7026 26be
000003e0: 0f02 cd3c f21f 83be 695b 983b 4ba5 1a39
000003f0: 1150 473e f78e bf3d 7607 04be a968 7d3b
-0.30077246 -0.22623907 -0.00836996 -0.18739992 -0.08878146 -0.2564722 -0.05880477 0.21363196
0.1270229 -0.019634716 0.15774573 -0.1298343 -0.29425046 -0.16782275 -0.02858317 0.20148972
0.1200529 -0.18601826 -0.28307313 -0.0029016824 0.20707484 0.18586689 -0.022048732 0.19155087
-0.040891264 -0.04967533 -0.25936958 -0.25392774 -0.2104007 0.026029494 0.1846449 -0.1991468
0.111273855 -0.15343274 0.26155868 0.014465379 -0.16727814 -0.14090623 -0.22551721 -0.18817602
0.11531226 0.09849718 0.0068824864 -0.17597827 -0.108933374 0.05458633 -0.1257524 -0.14600714
0.15251374 -0.20648696 0.01041791 -0.14332831 -0.2716262 -0.133176 -0.0057521416 0.19159383
-0.4629158 -0.09200242 0.22610432 -0.036226176 0.19890487 -0.19012703 -0.31190267 -0.10146782
0.02810638 0.0795295 0.15455696 0.08191713 0.008714448 0.17256588 0.035367884 0.19405103
-0.1447809 -0.17488074 0.0020388486 0.14568336 -0.37451938 0.18782221 -0.10941781 0.18330787
0.08034862 0.017309008 -0.074426614 0.15176146 -0.12686849 0.20395261 0.20171393 -0.09003446
0.037717305 -0.066481374 -0.030898573 0.1491352 -0.12945119 -0.17184357 -0.13637312 0.25827578
0.055703387 -0.2522029 0.0746387 -0.11580021 0.3513981 0.115198344 0.07841407 0.07402497
0.21951371 -0.0028010674 -0.16370332 0.013983021 0.31250745 0.46367285 -0.06976499 0.01742812
-0.15262425 0.061858926 -0.20436892 -0.2105655 -0.2217711 -0.15499388 0.45870605 -0.09841201
-0.027512701 -0.063648134 0.44309863 0.07892457 0.019314991 0.114516936 -0.08307507 -0.059123266
0.24367595 0.3821035 -0.012101171 0.13804404 0.16542973 0.11477945 -0.10165675 0.002892187
0.081219524 -0.25974753 0.12454429 0.1962417 -0.27898118 -0.014770444 -0.22412708 -0.17307739
0.40366575 0.20523654 0.06719219 0.15965925 -0.093017995 -0.11135011 -0.15156542 -0.19843267
0.13587226 0.027719209 -0.0644005 0.0059103915 0.26226723 0.09761304 0.24334572 -0.216844
0.19689351 0.0649595 0.1378739 -0.17120995 0.13211414 0.032066878 0.12413317 -0.49165595
0.16311637 -0.06667169 0.17061971 0.19048366 0.17609774 -0.07542698 -0.075041234 -0.041043732
-0.13042651 0.3946586 -0.21917386 -0.17499065 -0.15777859 0.19658701 0.006241906 -0.24473295
0.01677898 0.051901825 -0.103313126 -0.00048260408 -0.080313474 -0.006129805 0.22355592 0.09898983
-0.25510904 -0.279713 -0.13960508 0.21727528 0.099174604 -0.34467286 -0.03343246 -0.1831983
-0.12696221 0.040198497 -0.13290605 0.099160045 -0.23320903 -0.053869285 -0.10529291 -0.19597164
0.095077455 -0.25630704 -0.013772733 -0.18767825 -0.15826859 0.2777477 0.07426648 -0.036905974
0.29051337 0.25661784 -0.02182424 0.08730952 0.21633807 0.13498895 0.21165794 0.22913103
-0.072638735 -0.27767912 -0.23050615 -0.048292875 -0.013368027 -0.08167378 -0.015301446 -0.089684464
-0.22720909 -0.23523998 -0.06972294 -0.095106825 -0.05760897 -0.03805251 0.119920574 -0.073746376
-0.23842974 0.19826329 0.192536 0.08929346 0.07885989 -0.016132139 0.08547042 -0.162256
0.025025396 -0.2561031 0.004649569 0.00014748161 0.19464137 0.0935344 -0.12893471 0.0038667119

model_3/yolo_head_P3/BiasAdd/ReadVariableOp:0 f4 [24]
00000000: 4db3 6dbc 6890 b8bc 7a43 843e 8166 91be
00000010: 3c6b 14c0 d796 b0be b704 263d eae9 a6bd
00000020: cad2 a8bd 428b d63c fc66 9a3e a767 95be
00000030: 4db0 20c0 3812 8bbe 4bec aabd 89e0 4ebd
00000040: a5cd eabd 0531 f03b ec41 0dbe ad2b 61be
00000050: 62ce 21c0 249d 65be a2b6 c5bd 812c 74bd
-0.014508081 -0.022529796 0.2583273 -0.28398517 -2.319045 -0.34490082 0.04053184 -0.08150084
-0.0824333 0.02618945 0.30156696 -0.29180643 -2.5107605 -0.27162337 -0.083458506 -0.050507102
-0.11465005 0.0073300623 -0.13794678 -0.21989317 -2.5282216 -0.22423226 -0.09653975 -0.059612755

model_3/yolo_eval/truediv_7:0 f4 [2]
00000000: 8988 883a 8988 883a
0.0010416667 0.0010416667

model_3/yolo_eval/Reshape_3:0 f4 [1, 1, 3, 2]
00000000: 0000 e842 0000 b442 0000 1c43 0000 4643
00000010: 0080 ba43 0000 a343
116.0 90.0 156.0 198.0 373.0 326.0

model_3/yolo_eval/Reshape_19:0 f4 [1, 1, 3, 2]
00000000: 0000 2041 0000 5041 0000 8041 0000 f041
00000010: 0000 0442 0000 b841
10.0 13.0 16.0 30.0 33.0 23.0

model_3/yolo_eval/Reshape_11:0 f4 [1, 1, 3, 2]
00000000: 0000 f041 0000 7442 0000 7842 0000 3442
00000010: 0000 6c42 0000 ee42
30.0 61.0 62.0 45.0 59.0 119.0

model_3/yolo_eval/Cast_9:0 f4 [2]
00000000: 0000 f043 0000 f043
480.0 480.0

model_3/separable_conv2d_1/separable_conv2d/ReadVariableOp_1:0 f4 [12, 3, 1, 1]
00000000: d507 7bbd 5d5d 143d 8f2d 80be dbcc aabe
00000010: 85ef fa3e 99b0 1a3e cc5f 06bf 79cc 5c3e
00000020: 57bf 12bf 423d e5be 08a8 c63e f38e 7dbe
00000030: 057f d2be c048 103e 97b7 d8be 1332 853e
00000040: 8a74 5e3e 4546 c03e 48c1 d03e efcc 253f
00000050: 2f46 53be a87e 5bbf 1521 bdbc b664 18bf
00000060: ae2e 8bbe 12b4 1a3f 246b c9bd f3d4 fa3e
00000070: 0133 ee3e ac7e c9be 4dc2 6d3e bbba 403f
00000080: ea8a c43e d8fe bb3e d0fb 113f 873f 153f
-0.061286766 0.03622185 -0.25034758 -0.33359417 0.49010864 0.15106429 -0.52489924 0.21562375
-0.5732321 -0.44773299 0.38800073 -0.24761562 -0.41112533 0.14090252 -0.42327568 0.26014766
0.21724144 0.3755361 0.40772462 0.6476583 -0.20632242 -0.8574014 -0.023087064 -0.5952867
-0.2718405 0.60431015 -0.098348886 0.48990592 0.46523288 -0.39354455 0.23218651 0.7528493
0.38387233 0.36717868 0.5702486 0.5830006

model_3/separable_conv2d_1/BiasAdd/ReadVariableOp:0 f4 [12]
00000000: 1591 033e f55c 4c3d 69ef ebbc f56b f13d
00000010: 7b1f 15bd 6ace 8c3e c5da 073e 3a94 3c3d
00000020: 3e7a 083e c50c 2dbb 2a9b 3d3e 36fc d93e
0.12848313 0.04989334 -0.028800683 0.11788169 -0.036406975 0.2750123 0.13267048 0.046039797
0.13327882 -0.0026405316 0.18516222 0.42575234

const_fold_opt__1801 f4 [96, 1, 1, 1]
00000000: 8ae7 dcbd 3fd1 50bd f4b0 32be 9344 5f3e
00000010: e0d9 3a3e 9f9d 5d3e 0fa9 423e 1369 b73d
00000020: 9d2e 783d af28 2dbe f3d4 7f3e 1711 96be
00000030: 95a8 8c3e c052 c83d 7cc3 89be 5ccf 863d
00000040: 5fdc 083e 4da5 6fbc be70 09be 93d5 8d3d
00000050: 34de 79be 003a 963e 804c 223e fbb3 3dbd
00000060: ba24 78be 4f9c 0e3e 559e 493e 233a 323e
00000070: 239d 253e 17e7 8bbe 92ee a53d 423c 8f3d
00000080: ef70 3e3e 656b 21be 9052 633d d1dc e13d
00000090: a38f 1bbe 5f8c 203c 8f02 ce3d 42ea 803e
000000a0: 88d5 c53d dbd3 1d3e f81a 173d 32fd 1ebe
000000b0: 8a50 183d 1033 f9bd 925b e6bd f6e7 553b
000000c0: 2302 4f3e 117f 983d b2ba 2cbc 6a3e c4b9
000000d0: 26d2 17be e0ec 8ebd 7af5 043e faf3 4dbe
000000e0: 61ef 0cbd ae0b 19bd e497 afbd 4d73 8c3d
000000f0: fc4b 16bc fae1 143e f8b8 ea3d b822 cebc
00000100: 302c eebd 6ff1 863d e35e d83d dcd9 2d3c
00000110: 5ed3 cfbc 60a4 7e3d b592 9f3d e6b9 4b3e
00000120: d3d8 8ebd b039 623d 2337 163e 4a61 25bd
00000130: ffe3 ddbd c519 013d ff17 3a3e 8579 903d
00000140: d27f f53c 79e3 c03d a37c 48bb f1b3 e93d
00000150: e138 f53c 78be 773e 282b 07be b951 0d3d
00000160: f18e 4bbd e1b7 5cbd 1ff1 b53d 8a85 c5bd
00000170: 96fe d7bd d169 debd 0865 e6bd 9ca3 0a3e
-0.1078635 -0.050980803 -0.17450315 0.21803503 0.18247175 0.21642159 0.19009803 0.08955588
0.06059133 -0.16910051 0.24983577 -0.29309914 0.27472368 0.09781408 -0.26906955 0.065825194
0.13365315 -0.014626813 -0.13421914 0.06925502 -0.2440117 0.29341125 0.15849495 -0.04631422
-0.2423276 0.13926814 0.19689305 0.1740499 0.16173224 -0.27324745 0.08102144 0.06993915
0.18597768 -0.15763624 0.05549866 0.110284455 -0.15191512 0.009799092 0.10059082 0.25178725
0.096598685 0.15412848 0.036890954 -0.15526274 0.037186183 -0.121679425 -0.112479344 0.003263948
0.20215659 0.07446111 -0.0105425585 -0.00037430535 -0.14826259 -0.06978774 0.12984267 -0.20112601
-0.034407977 -0.037364654 -0.08573893 0.068579294 -0.0091733895 0.14539328 0.11461061 -0.02516304
-0.11629522 0.065890186 0.10564973 0.010611024 -0.025369342 0.06216848 0.07791654 0.19895133
-0.0697495 0.055230796 0.1466947 -0.040375985 -0.108345024 0.031518716 0.18173216 0.07054428
0.029968176 0.09418387 -0.0030591867 0.11411274 0.029934349 0.24193752 -0.13200057 0.034501765
-0.049696866 -0.053886298 0.08883881 -0.09644611 -0.10546605 -0.10860027 -0.11249739 0.13538975

const_fold_opt__1800 f4 [128, 1, 1, 1]
00000000: 1642 9f3e 4c8f 71be 8929 49be 0dd4 cfbd
00000010: 7721 a53d 47b2 243e 0b48 0d3e a84c ad3c
00000020: 8049 2abe c4c7 85be a084 24bd f5e0 42be
00000030: f8dd 213e 2b00 a2be b5e4 a6be 94b8 b53d
00000040: 057d 02be 86e5 e43d b078 823e b24b 33be
00000050: dd8e cbbc 12f4 46be 6035 6a3e 0b02 20bd
00000060: c62e b33e 4aed 86be cb22 3c3e 6955 7b3d
00000070: dc57 94bc 8d7f 363d 7e3d 3b3e d3f8 2c3e
00000080: 9715 653d 85e0 c9bd c119 693e f268 993c
00000090: df4e 47be 5eda 1c3e f1b4 403e 05d0 2dbc
000000a0: 5f9d 51bd 0e0b b2be 1115 1cbe 5c1d 9a3e
000000b0: a70a 47be e39c 653e 07d3 273e 6c8c 4dbd
000000c0: 0add 5a3e 7f7e 163d c73c 50be 9b9a 0d3d
000000d0: 77fb 65be aa80 8fbd 9b0e 71bd 8172 7dbe
000000e0: a7f4 36bd e51a 143d 6cb8 e73d bdc6 ab3e
000000f0: 2197 8ebd 1546 343e f105 26be 79ab 363e
00000100: d79b d5bd 1367 77bd cef5 fd3d b11d 15be
00000110: 1cef 833d 00f9 a13d 4a69 45be bad5 4ebd
00000120: 1c9b 95bd 78d2 333d 2b2f 63bd 5a26 013d
00000130: 83c3 07bd 8003 79bc 1ce0 873c d41b 473d
00000140: 36bb 8a3c 5440 053e fbd7 8cbc 9946 e4bc
00000150: 9b7a b23d 469c 693d b1d7 7fbd beab 34bc
00000160: e933 9d3c af08 2abe 4467 253e d609 8fbd
00000170: 1cb8 45bd 8aef 33be d788 0ebd bb11 c4bd
00000180: 2531 d43d 581a 35bd 7135 a13d 0e88 1bbd
00000190: c50c b23d ea89 343e 771f 4c3d da73 c8bb
000001a0: ec51 073c 0ba0 97bd 0be1 e8bc 6bf7 1abc
000001b0: ca98 0f3e 81a3 273e e286 a53b 0323 2a3d
000001c0: 031d a1bc 7c4d 543e 22ee 293c 571c 643d
000001d0: d525 34bd 363e 8f3c b07c 153d 93ed eabd
000001e0: d9c5 453e a95e 0dbe a41e 353e 2bb5 3e3e
000001f0: d644 f5bd 26a0 1a3d c93a 373c 5e55 9f3b
0.31105107 -0.2358982 -0.1964475 -0.10147867 0.080630235 0.16083632 0.13797013 0.021154717
-0.166296 -0.26128972 -0.040165544 -0.19031127 0.1580733 -0.31640753 -0.32596365 0.08873096
-0.12743004 0.111765906 0.25482702 -0.17509344 -0.024848396 -0.19429043 0.22871923 -0.03906445
0.34996623 -0.26352912 0.18372647 0.06136075 -0.0181083 0.044555236 0.18285176 0.16891794
0.055928793 -0.09857277 0.2276373 0.0187268 -0.1946368 0.15317675 0.18819024 -0.010608678
-0.05117547 -0.3477406 -0.15242411 0.30100524 -0.19437657 0.22423129 0.16389094 -0.050182745
0.21373382 0.03674173 -0.20335685 0.03457127 -0.22459207 -0.070069626 -0.05885182 -0.24750711
-0.044666912 0.03615846 0.113144726 0.33550063 -0.06962419 0.17604859 -0.16213204 0.17838849
-0.10430115 -0.060401034 0.12400399 -0.14562108 0.06442091 0.07908821 -0.19278446 -0.050496794
-0.073049754 0.04390189 -0.055464905 0.031530716 -0.03314544 -0.015198588 0.016586356 0.048610523
0.016934972 0.1301282 -0.017192831 -0.027865695 0.087147914 0.0570338 -0.06246156 -0.011027275
0.019189792 -0.16604875 0.16152674 -0.06984298 -0.048271284 -0.17571846 -0.03479847 -0.09573694
0.10360936 -0.044214576 0.07871521 -0.03797155 0.08693842 0.17630735 0.049834695 -0.006117326
0.008259278 -0.07403573 -0.028427621 -0.009458403 0.14023128 0.16370966 0.0050514797 0.041537296
-0.019667154 0.20732683 0.010371717 0.05569109 -0.043981392 0.01748572 0.036495864 -0.11471095
0.19313754 -0.13805641 0.1768747 0.18623798 -0.1197602 0.037750386 0.011183449 0.0048624715

const_fold_opt__1796 f4 [32, 1, 1, 1]
00000000: 043e fc3c d5ad e73e 37ce 213e c43f 9e3e
00000010: 599f babd 4165 973e 7a8b b53e 89ef a0be
00000020: 439c 4f3e c026 f3bc 6354 1fbe f291 a03e
00000030: a19e a5bc c317 c43e 5008 b23e 190a 48be
00000040: 1bcb 633e 4a44 e53b deb3 533e 9fd2 5e3d
00000050: a060 a6be 0bd3 0f3e f693 24be 1a62 6d3e
00000060: 9b9b cbbe a9cf fc3e bce9 813e 88d2 5cbe
00000070: 758d 6c3e 90ff a6be 04c4 1a3e 953e 5bbe
0.03079129 0.4524981 0.15801321 0.30908024 -0.091124244 0.29569438 0.35457975 -0.3143275
0.20274453 -0.029681563 -0.15559535 0.31361347 -0.020217242 0.3829938 0.34771967 -0.19535102
0.22245447 0.006996666 0.20674083 0.054400083 -0.32495594 0.1404535 -0.16072068 0.23181954
-0.39767155 0.49377182 0.25373638 -0.21564686 0.23100837 -0.32616854 0.15113837 -0.21410592

const_fold_opt__1792 f4 [64, 1, 3, 3]
00000000: 7e07 413d 33e1 b73c a469 a33c a2eb cd3c
00000010: 73b9 1e3d ee31 1b3c 62dd 1c3d ebd5 803c
00000020: 404d 813d f88c c73c 86bd 403d a7e8 383d
00000030: b30d fa3b 3963 cabc 7016 66bc 6dd7 833b
00000040: 8c80 5c3d 3e20 0c3d bf1a 263c effe 9abc
00000050: fc19 c7bc 637f 24bd 5d99 95bc a92b a5bd
00000060: 5428 8dbc f40a 2ebd 453c 393d f342 26bd
00000070: 1617 8e3c 440a 94bd 4d92 0c3d 6e7f 3ebc
00000080: c701 533e 804b 8c3d 10e1 a23c deb8 c13d
00000090: b476 adbb c28d 543d 73c1 c23d 9345 d93c
000000a0: a636 65bb 96d4 1cbc da62 d93c b8c1 95bd
000000b0: d2c8 dcbd 64d6 043d 6dfb 89bc 6e98 9c3d
000000c0: 3f6e 163c c204 533c e1b2 023d 7beb b03d
000000d0: 67b9 503d 0c70 9a3a cdbf 233b 9fa7 8d3c
000000e0: c6b3 9dbc c5fb 2dbb 1a55 54bc ae04 4cbd
000000f0: 9b9f f9bb 3924 b33b 1196 0fbd 1995 143c
00000100: 9626 ddbc 67cd eebd 4dfd bbba e0ac eebc
00000110: a4cb e4bd af7a bdbc 8295 753b b95e 8ebd
00000120: 9d07 d33c f266 27bc f81e b23d 18b9 46bd
00000130: 6456 8cbd b8f3 ac3d a359 42bc 5054 75bc
00000140: 7224 983d aa25 8f3d 9960 cb3a 6d59 863d
00000150: 5d6b 903d 3015 743c 62cd 88bc 424e 363e
00000160: b6d5 903d 35ff 7b3c a585 cf3d 5167 473d
00000170: 75ea 0c3e 67d0 d43c 6b3d 243e 9f3c 77bd
00000180: f8fc 37bd f8eb 823b e7cc 5ebe cb71 4fbc
00000190: 256a c03d bab2 973d 7d5b 1f3d aa8d d23d
000001a0: a907 6dbd 85f5 d93d e1fb 303e 885e 263e
000001b0: e60c d4bc 6047 8b3b 8978 153d c44e e4bc
000001c0: 1d15 ecbc 2489 e13c a187 86bc 5d97 abbc
000001d0: e2d0 6dbd 13ef c63b 0a94 8dbb e285 9cbc
000001e0: 81d1 883c 37b5 c23d 6a87 8d3d 802a 503c
000001f0: 2e88 293e 1d26 d63d ffa6 6b3b 9e61 debb
00000200: 670a c1bc 7996 7cbd 2e10 01bd d905 41bd
00000210: 6c43 d7bc 0b33 2b3d 1883 b63c c67a 7b3c
00000220: a67b 8bbd 8d99 e93c 52d1 c7bc 2e16 63bc
00000230: 4887 083b c28e 233e eb9c 803d 9c57 49bd
00000240: 7d59 303a 261e 6bbc f4f6 86bd 9fe6 46bd
00000250: fa47 b7bd af7b b1bd 8f7d 7cbd f945 51be
00000260: 9201 cebc a736 e43c 0390 643d 2e61 2c3d
00000270: 4184 1e3c 0478 5dbd e7ce e83c 71f3 373d
00000280: ccd9 1fbd 8378 cb3d b5b9 14bd 49fa 0f3d
00000290: 6f78 433c fe7a 853b 8342 cc3d 6319 063d
000002a0: 2c12 55bd 284f fa3c 5468 6bbd a06f b73d
000002b0: 920c da3c a940 9abd 5fe5 093e 8d81 9cbb
000002c0: 96ab 6fbd 9bab 0f3e b798 00bd 363c 57bd
000002d0: 4419 bb3b 4c39 e43d f617 353e 7115 d83b
000002e0: 432a ba3d 9f26 a23d a0ed 2a3d 99ca 1f3d
000002f0: cf85 9c3d 24f9 b5bc 9f1c 7dbd 40d9 3cbd
00000300: 6ce2 dabc bf45 c1bd 6761 1abe e410 c7bb
00000310: 60e6 213e 9567 ce3d 1788 96bd b718 a73c
00000320: 8331 cf3d 2daf 4cbe 00ec a83d e9d5 3a3e
00000330: 0f4c 8abe 4ef2 8e3d a571 e83d c82e 123c
00000340: 15c8 4a3c ca7c 963b f686 73ba d618 8d3d
00000350: 2895 ed3d 19e3 243b d668 643d 80bc 3f3d
00000360: 8501 bebc 25d4 0e3d 6985 97bd 6816 873c
00000370: d89c f2bc 4bbd c1bd ca5e 803c 3c7a 143e
00000380: e4e1 513d 82d5 27bd 117c f8bc a95b 10bd
00000390: c4f9 803c 8510 5c3d f753 133d 4e50 2fbd
000003a0: 8064 9a3c 4a31 fa3c 372b 2b3d 2497 4b3d
000003b0: a106 003d 55b9 4b3d 7fc4 94bc fafc 28be
000003c0: d80d 803d b8df 10bb 9909 40be c94e 833d
000003d0: c8f6 bc3b 5d60 ab3d db61 01be 20d5 823d
000003e0: 2e1e e6bb bc92 87bc 825e e7bd 1103 23be
000003f0: 1237 54bd 1642 0abe 7b96 88bd de15 04be
0.047126286 0.02244625 0.019947834 0.025136773 0.038751077 0.009472353 0.038297065 0.015727004
0.063135624 0.024359211 0.047055744 0.04514375 0.0076310276 -0.024705516 -0.014043435 0.0040234835
0.05383353 0.034210436 0.010138213 -0.01892039 -0.024304383 -0.040160548 -0.018261606 -0.08064968
-0.017231144 -0.042490914 0.045223493 -0.04059119 0.017344993 -0.072285205 0.03431921 -0.011627061
0.20606147 0.06850338 0.019882709 0.09459089 -0.0052936915 0.051893003 0.09509554 0.026522433
-0.00349752 -0.009572169 0.026536394 -0.073123395 -0.10780491 0.03243102 -0.016843522 0.07646261
0.009181558 0.012879552 0.031908873 0.08638664 0.050958063 0.001178266 0.0024986148 0.017291842
-0.019250762 -0.0026547771 -0.012959743 -0.04980915 -0.0076179034 0.0054669646 -0.035055224 0.009068751
-0.026995938 -0.11660271 -0.0014342457 -0.029135168 -0.11171654 -0.02312979 0.0037473147 -0.06951661
0.025760466 -0.010217415 0.08697313 -0.048516363 -0.06852415 0.08444923 -0.011862191 -0.014973715
0.074288264 0.06989606 0.0015516459 0.06560025 0.07051728 0.01489763 -0.016699497 0.1780329
0.07072012 0.01538067 0.101329125 0.048682515 0.13761313 0.02597828 0.16039054 -0.060360547
-0.044918984 0.003995415 -0.21757852 -0.012661408 0.093952455 0.07407136 0.03890561 0.102809265
-0.057868633 0.10642532 0.17283584 0.16246998 -0.025885057 0.004250452 0.036491904 -0.02786959
-0.028818661 0.027531214 -0.016422095 -0.0209462 -0.058060534 0.0060709803 -0.004320626 -0.019106809
0.016701462 0.0950722 0.06910594 0.012705445 0.16555855 0.10456488 0.0035957692 -0.006786539
-0.02356453 -0.06166694 -0.03150957 -0.047124717 -0.026277266 0.041796725 0.022279307 0.015349096
-0.068106934 0.028515602 -0.024391804 -0.0138602685 0.0020832587 0.15972427 0.0627993 -0.049155816
0.0006727202 -0.01435045 -0.06590071 -0.04855978 -0.08949275 -0.08666169 -0.06164318 -0.20436849
-0.025147233 0.027858092 0.055801403 0.042084865 0.0096750865 -0.054069534 0.028418971 0.0449099
-0.039026067 0.09935095 -0.036309917 0.0351508 0.011930569 0.0040734997 0.099736236 0.032739054
-0.052019283 0.030555323 -0.057472542 0.08956838 0.026617322 -0.07531864 0.13466404 -0.004776186
-0.058513246 0.14030306 -0.03139564 -0.052547656 0.005709799 0.11143741 0.17684922 0.006594353
0.09090092 0.07917523 0.041730523 0.03901157 0.076427095 -0.022213526 -0.061794873 -0.046105623
-0.026719294 -0.09437131 -0.15076219 -0.0060750116 0.15810537 0.100783505 -0.07350176 0.020397527
0.101168655 -0.199887 0.082481384 0.18245663 -0.27011153 0.0697981 0.11349801 0.008922286
0.012376805 0.0045925127 -0.0009289825 0.06889503 0.11600715 0.0025159775 0.05576404 0.046810627
-0.023194084 0.034870286 -0.07398493 0.016490176 -0.029615805 -0.09459933 0.015670199 0.14499754
0.051240817 -0.0409751 -0.030332597 -0.035243664 0.015744098 0.05372669 0.035968747 -0.042801194
0.01884675 0.030541081 0.04178926 0.049704686 0.03125632 0.049737293 -0.018160103 -0.16502753
0.062526405 -0.0022106003 -0.18753661 0.064115115 0.0057667233 0.08367989 -0.12634985 0.063883066
-0.0070226407 -0.01654946 -0.11297323 -0.15919138 -0.05181033 -0.13501772 -0.06669327 -0.12898967

const_fold_opt__1791 f4 [64, 1, 1, 1]
00000000: dc75 8cbe c974 263e 33f1 5d3e fa7e dd3d
00000010: 0c77 1cbe 9ebd 273d 7c3f e53d a150 83be
00000020: fc06 b63e 3cf8 783e 09f8 0b3e dcdd 5fbe
00000030: 6432 a0be 7988 3f3e e2e6 86be a06c 8a3e
00000040: 081c 8b3d f646 aebd 8f72 983e 99ea be3e
00000050: 96d0 55be c172 a8bd 0cb5 99be b8f1 413e
00000060: bbd4 ab3e 7e78 6b3e 627d 2f3e 260f 56be
00000070: 750d 54be 5253 85bc 0646 7ebe 22a1 bc3e
00000080: aebb ab3e 59c3 e63d c8ab 3f3c 9633 73be
00000090: 3587 3a3e e87d e83d fa82 063e 62f5 263e
000000a0: 1c3a 993e d87a 7d3e 210a 8b3e e719 373e
000000b0: acfa 2ebe 1772 c23d a7e1 52be acc6 db3d
000000c0: 5a7e 883e 3f3d c23e c654 453e 1961 443e
000000d0: 7808 823e 101a 1ebe f386 4dbe 8ad4 c7be
000000e0: 2638 71be 7bd1 533d e782 40be 5197 733e
000000f0: 90e8 683e 570c 9b3d ae1c c03d 55b5 e3bd
-0.2743367 0.16255488 0.21674041 0.108152345 -0.15279788 0.040952317 0.11193749 -0.25647452
0.35552204 0.24313444 0.13668837 -0.21861976 -0.31288445 0.18704404 -0.26348025 0.27036
0.06792456 -0.085096285 0.297749 0.3728836 -0.2088035 -0.082250126 -0.3002094 0.18939865
0.33560738 0.22995183 0.17137673 -0.20904216 -0.20708258 -0.016275082 -0.248314 0.36841685
0.33541626 0.11267728 0.011698671 -0.23750147 0.1821564 0.1135214 0.13135901 0.16304544
0.29927146 0.24753892 0.27156165 0.17880975 -0.17087811 0.09494417 -0.20593892 0.10731253
0.266589 0.37937352 0.1927062 0.19177665 0.25397086 -0.1543963 -0.2007101 -0.39029342
-0.23556575 0.051713448 -0.18799935 0.23788191 0.22744966 0.07570713 0.0938047 -0.11118571

const_fold_opt__1789 f4 [64, 1, 1, 1]
00000000: 3ad4 86bc a305 5abe ee61 be3b 8dbf 873e
00000010: 54af bb3d 67ec 133e b177 87be 2927 42bc
00000020: 5659 e2be 826e f1bd cd29 713e 9689 843d
00000030: 42b8 b2bd d276 25be 230e 75be 71c7 5bbe
00000040: 262b ffbd bd6b 1fbd e0b4 3dbe 1823 3b3e
00000050: a46e 513e 6ec6 7e3e fb23 843e bcca 153e
00000060: b0c5 3cbe 55c7 0ebe 7557 9c3d 5bbc a1bd
00000070: 594a 873e 3c5b 373e 54a3 d13e b0d2 323e
00000080: 52b3 263e 3d64 89be a6a9 6ebe cf4f 0cbe
00000090: f5ff 7bbe 1ec7 47be f36c 13be d3e3 503e
000000a0: 7f48 17be 7cca 293e afca 663e 9830 00be
000000b0: d987 50be 42bf 84bd 7df3 193e da56 f43d
000000c0: 88ff 6a3e 3ce4 5c3e 7764 8e3e 0a2f 6cbe
000000d0: 759c ad3e 44a9 5e3e af37 613d 270a b13e
000000e0: 2f37 33be 14a0 3ebe b9e8 883e 6d0d 6c3e
000000f0: e23c 47be 1e4e 8fbe 59e8 443e 1a5b 093e
-0.01645862 -0.21291213 0.005810014 0.2651333 0.091643006 0.14445649 -0.26458505 -0.011850157
-0.44208783 -0.11788656 0.23551102 0.06471555 -0.08726551 -0.16158608 -0.23931174 -0.214628
-0.12459402 -0.038921107 -0.1852603 0.18275106 0.20452362 0.24880382 0.258087 0.14628118
-0.18434787 -0.13943227 0.076338686 -0.07897254 0.2642391 0.17905897 0.40944922 0.17463183
0.16279343 -0.26834288 -0.23306903 -0.1370232 -0.24609359 -0.19509551 -0.1439703 0.20399408
-0.14773749 0.16581148 0.22538255 -0.12518537 -0.20364322 -0.06481792 0.1503429 0.11930628
0.2294904 0.2157144 0.27811024 -0.23064819 0.3390843 0.21744257 0.054984745 0.34578058
-0.1750152 -0.18615752 0.26740053 0.23051997 -0.19456819 -0.27989286 0.19229259 0.13413659

const_fold_opt__1785 f4 [32, 1, 1, 1]
00000000: 768f c3bd 1951 ae3e c511 3e3e a18c 1abe
00000010: a79d 9dbe 1f16 b1be bd19 91be 0f6a ae3e
00000020: 7de6 473e 1617 9b3e 3946 81be d7ce 93be
00000030: 6265 15be 53ad c43d 5ecc 993e 7d45 c23e
00000040: b094 603e 67e2 5a3e 3dd1 f63d f137 5fbe
00000050: 3c89 d3be ec31 3fbe c309 55be 8627 8c3e
00000060: 6762 a53e 9ee3 54be b569 87be cf19 483e
00000070: 0393 a23d 3ea6 e0be 5dbb 573e fbb3 c83e
-0.095488474 0.34046248 0.18561466 -0.15092708 -0.30784342 -0.3458719 -0.2833995 0.3406529
0.19521518 0.3029105 -0.25248888 -0.28868744 -0.14589456 0.096033715 0.30038732 0.3794364
0.2193172 0.21375428 0.12051628 -0.21798684 -0.4131564 -0.18671387 -0.20804505 0.27373904
0.32301638 -0.20789954 -0.26447836 0.19541095 0.079381965 -0.43876833 0.21067567 0.39199814

const_fold_opt__1784 f4 [32, 1, 3, 3]
00000000: cf6a 033e 4383 ccbd 6140 043d 369e cebb
00000010: 4941 4cbe 5fb9 cc3d b357 27bd e98b 3abd
00000020: 7372 1f3e df93 d9bd f38d 90bd 4dd4 49bc
00000030: b617 fcbd 15bb aebd 928a 093e 4e5d abbd
00000040: f872 94bd bc4d c73d 054c 97bd e5f9 6ebe
00000050: ff6e 09be 9483 01bd aa22 063d 27fa aabe
00000060: 4085 1fbd 7852 883c 45c0 26bb 4703 01be
00000070: 6d72 25bd 10e2 fdbd feea aabc c64a 8bbd
00000080: b403 16be 3d3b 8ebd 51e0 5c3e f4f7 103e
00000090: 8e35 793b 45f9 c43d e7ed 973d 5db1 da3d
000000a0: 805d 113e 8e31 79bd 8fe0 a0bc 4e4d febd
000000b0: 4245 32be 0d04 d0bb 4856 cb3c 304a 233e
000000c0: 3ef1 4fbd 96c7 01be 142d b73e 150a aebd
000000d0: 2722 03be 69c1 01bd b804 8abd de0e cdbd
000000e0: 776c b6bd 9787 bcbd 314c 6fbd d583 a83d
000000f0: ee13 6f3b b61c fb3d 728b 843e 408a 7e3d
00000100: 9907 d13d a214 683d 3d30 aabc 2b06 9a3d
00000110: eaca bbbc 7958 6abd b2dc c9bd f7fc 4ab9
00000120: e234 1bbc a701 d83d b1b5 ac3d 7ffc 983d
00000130: e271 fd3c 8783 3bbe 799f f4bd 48ea bd3d
00000140: 9040 c53d db81 423c d4e9 60bd cb70 333d
00000150: 0efb 67bd 155c e2bc 8a05 9d3d 0a60 52bc
00000160: a070 9b3d 0269 933e 0108 373d bde6 ad39
00000170: f847 e53d 681d afbd 7399 1fbe 9fcb 803d
00000180: dfba 46bd 99d2 6e3d 0169 f7bc 5919 ecbb
00000190: 5649 733e f450 f73d e855 05be 2bf9 5d3e
000001a0: 4d70 043d e3c6 50bd 0c0f 053c aabb fabd
000001b0: 43b3 773d 1094 84bd 56b1 48be bf82 c83d
000001c0: 728b 2e3d 1314 25bc 42ea 8a3c 666c b03e
000001d0: 13a4 533e ae5d e53b 10d0 953c df83 803d
000001e0: 0527 15bd cfba cb3d 5c44 af3e 8b9b 6f3c
000001f0: 4555 873d c5a8 023e 9a1e d13d 6e8e 1ebd
00000200: 6d97 7dbd 248d aabc b4cb 673c 33c1 4b3e
00000210: 12a5 cabd f9d6 503d 6b6d 4b3e 09c0 843d
00000220: b40a a3bc 9094 5b3b 9cdc 843e 2062 873e
00000230: e7b4 cbbd 2cb9 a23d da64 2cbe f2fb 10be
00000240: ee1c 09be ebaa ffbd 0eef bfbd fcb8 493e
00000250: 324b 09be f75e 523d 2552 b73d 39e5 74bc
00000260: 3800 30bd 9f60 c63c 89d2 8c3d 2d95 3b3e
00000270: ad0d 83bd 8a23 a0bd 2e62 923d d540 12be
00000280: c11f b4bc 3f77 00be d11b 2b3d acbb 093d
00000290: a07a 053e f5da 413b 304f bb3d babd 363c
000002a0: c694 193e 0986 eb3d 5ba0 1cbe 0c43 153e
000002b0: c193 65bd 0247 2bbe 9722 153c 0b41 ffbd
000002c0: 1eea 97be 5266 27bd f48e 4cbc 695e ab3d
000002d0: f599 77bd c48e 13bb 1d06 6bbc 55e7 9abe
000002e0: d1be 0bbe 354d 54bc 9c56 863c 10b4 8d3d
000002f0: cf37 453e a282 02be f46a c33c 96f6 233e
00000300: 1e9d 5bbe 90d0 893d 0c7e 893e dcd3 abbd
00000310: a4f1 88bd f33d 583d 078d 1f3e f9c3 c3bd
00000320: edcc a43b 3441 dc3d 262d b73d b1ab 2e3e
00000330: 1fcc 55bd b595 9d3b fe79 053e fe18 0f3e
00000340: 4ba5 3bbb 0e83 16be 4f4a 593e 8d36 263e
00000350: ead7 1abe 15e4 993d a7c8 80bc 0f63 b1bd
00000360: ddf7 283d 7435 21bc bf7f dbbd c0e2 16bc
00000370: 3894 3a3e eb51 68be aec5 20bd c870 703e
00000380: 6cf7 4c3d 32f9 efbd 97c0 1abd 88de 26be
00000390: 0699 19bd f1ab 82bd 6780 31be dbaa 81bd
000003a0: 4f2e 573d f7c3 813c 44d4 b13c 28a1 9f3b
000003b0: d84c 873d ed60 26be 7d8b 21be 726f 4c3e
000003c0: 061b 78bd 09af 0fbe 2e91 1fbc c89c f6bd
000003d0: 8b71 e5bc e393 53bc 1f36 90bd 9f79 033e
000003e0: 0c7a 543e 9316 d7bd 4598 0f3d f6a7 063c
000003f0: eb72 073e 626c b3bc 2b15 1a3e fd83 823e
0.12833713 -0.09985974 0.03228796 -0.0063054813 -0.1994678 0.09996294 -0.04085512 -0.045543585
0.15571003 -0.10623907 -0.07058325 -0.012318683 -0.1230921 -0.08531777 0.13431767 -0.08367406
-0.07248491 0.097316235 -0.073875464 -0.23337515 -0.13421248 -0.031619623 0.032747902 -0.33393976
-0.038945436 0.016640887 -0.0025444191 -0.12598906 -0.040392328 -0.123966336 -0.020864006 -0.06801371
-0.1464985 -0.069448926 0.21569945 0.14157087 0.0038026306 0.09617857 0.07418423 0.106783606
0.14195824 -0.060838275 -0.019638328 -0.124170884 -0.17409232 -0.006348139 0.024821416 0.15946269
-0.050767176 -0.12673792 0.3577658 -0.08498017 -0.12805997 -0.03167859 -0.06739181 -0.10012601
-0.08907407 -0.09205549 -0.05842227 0.0822827 0.0036480385 0.122613356 0.25887638 0.062143564
0.10206527 0.056660302 -0.020774955 0.07520708 -0.022923905 -0.05721328 -0.098565474 -0.00019358458
-0.009473057 0.1054719 0.084330924 0.07470035 0.030938093 -0.18311892 -0.119444795 0.09273201
0.09631455 0.01187178 -0.054910496 0.04380874 -0.05663591 -0.027631799 0.07667072 -0.01284028
0.07589841 0.28791052 0.044685367 0.00033169045 0.111953676 -0.08550531 -0.1558588 0.06288838
-0.048518058 0.05830631 -0.030201437 -0.00720517 0.23758444 0.120759875 -0.13021052 0.21677081
0.03233366 -0.050970923 0.008121263 -0.12242825 0.06047369 -0.06473553 -0.19598898 0.09790563
0.042613454 -0.010075587 0.016957406 0.344577 0.20668058 0.006999693 0.018287688 0.062751524
-0.036414165 0.0994774 0.34231842 0.014624487 0.06608061 0.12759693 0.10210915 -0.03871005
-0.06191199 -0.020819254 0.014147688 0.19897918 -0.09894766 0.050986264 0.19865958 0.0648194
-0.019902565 0.0033505298 0.25949562 0.2644205 -0.09946614 0.07945475 -0.16835347 -0.1415861
-0.13389942 -0.12483772 -0.09371768 0.19699472 -0.13407591 0.051360097 0.08951215 -0.014947229
-0.04296896 0.024215994 0.06876094 0.18318625 -0.06399093 -0.078192785 0.071476325 -0.14282544
-0.021987798 -0.12545489 0.041774575 0.033626243 0.13035059 0.0029579971 0.09145963 0.011153633
0.14998159 0.115001746 -0.15295546 0.14576358 -0.056049112 -0.16726306 0.009102485 -0.12463578
-0.29670805 -0.040869065 -0.012485255 0.08367617 -0.06044956 -0.0022515515 -0.014344719 -0.30254617
-0.1364701 -0.012957861 0.01639872 0.0691911 0.1925957 -0.12745145 0.02385471 0.16012034
-0.21446654 0.06729233 0.2685398 -0.08390018 -0.06686714 0.052793454 0.15581141 -0.09558863
0.005029312 0.10754624 0.08944158 0.17057683 -0.05219662 0.0048091062 0.13034818 0.13974378
-0.0028632458 -0.14698431 0.21219753 0.16231747 -0.15121427 0.07514206 -0.015720678 -0.08661472
0.041252006 -0.009839404 -0.10717725 -0.009209335 0.18220603 -0.22687499 -0.039251022 0.23480523
0.050040647 -0.11717452 -0.037781324 -0.16295826 -0.03749945 -0.063804515 -0.17334138 -0.06331416
0.052534398 0.015840514 0.021707661 0.0048715062 0.06606454 -0.16247912 -0.15775867 0.19964388
-0.060572647 -0.14031614 -0.009739203 -0.120416224 -0.028008243 -0.012913677 -0.07041573 0.12839364
0.20749682 -0.105023526 0.035057325 0.008218756 0.13227431 -0.021902267 0.15047137 0.25491324

const_fold_opt__1783 f4 [64, 1, 1, 1]
00000000: 72f0 dd3d 57eb 353e 9905 323e d6d2 95bd
00000010: 9572 8d3e 52a1 bc3e 9043 273e 4a36 9abd
00000020: d477 c13d 161d 90be 3cff 1fbe 8113 8a3e
00000030: cb64 003e b367 ed3d 5255 8b3e a1de 08be
00000040: 209e d9be 98fd 623e 99ab d73d 8724 6f3e
00000050: 98ff 04be 713d 893e 529e ecbd f91f 13be
00000060: 4f3e 4e3e 8cd9 ac3e 47c8 3cbe e0c5 7b3e
00000070: 8f37 83be 1635 15bd 5f7e 183e fc9c 033c
00000080: b396 96bd d7a5 793e 7712 91bd c067 433e
00000090: 8c58 57be 036e 893d 748c 093e df56 2fbe
000000a0: 2d63 e43d 6626 ce3d 5336 6b3d 4410 2bbc
000000b0: 1bc0 4bbd 0ade 69be 634f 1d3e d69f d33c
000000c0: 6fff e13c 3bd3 813e 0dc5 0cbe 027d 823d
000000d0: db03 af3e 16d1 753e 6493 923e 7783 583e
000000e0: 877e 93be cfd2 53be 977e 8ebd d218 c7bd
000000f0: 6797 733e 9cf6 053e 61ab 563d da90 473e
0.10836877 0.17765556 0.17384948 -0.073156044 0.27626482 0.36841828 0.16334367 -0.07529886
0.094466835 -0.2814719 -0.15624708 0.26968005 0.1253845 0.11592045 0.27213532 -0.13366176
-0.42503452 0.22167051 0.105307765 0.23353778 -0.12988126 0.2680469 -0.11553635 -0.14367665
0.20140956 0.33759725 -0.18435775 0.24587202 -0.25628325 -0.03642758 0.14891957 0.008033033
-0.07352962 0.24379669 -0.070836 0.19082546 -0.21029872 0.06710436 0.13432485 -0.17122982
0.11151729 0.10065918 0.057424854 -0.01044089 -0.049743753 -0.22838607 0.15362315 0.025833052
0.02758762 0.2535647 -0.13747044 0.063714996 0.3418263 0.24005541 0.28628075 0.211439
-0.2880747 -0.20685886 -0.06957739 -0.09721531 0.23788224 0.13082355 0.052409533 0.1948885
