deploy/model.tflite (tflite, 897748 bytes, 194 tensors)

model/separable_conv2d/BiasAdd/ReadVariableOp f4 [12]
0	0x3e039115	0.12848313
1	0x3d4c5cf5	0.04989334
2	0xbcebef69	-0.028800683
3	0x3df16bf5	0.11788169
4	0xbd151f7b	-0.036406975
5	0x3e8cce6a	0.2750123
6	0x3e07dac5	0.13267048
7	0x3d3c943a	0.046039797
8	0x3e087a3e	0.13327882
9	0xbb2d0cc5	-0.0026405316
10	0x3e3d9b2a	0.18516222
11	0x3ed9fc36	0.42575234

model/backbone.stem.conv.bn/FusedBatchNormV3 f4 [32]
0	0x3fefac6a	1.8724492
1	0xbe10d4d8	-0.14143693
2	0x3f53be37	0.8271212
3	0xbf5a9c74	-0.8539498
4	0x3d160af9	0.036631558
5	0x402a23c7	2.6584337
6	0x3f532063	0.82471293
7	0x3e8ac561	0.27103713
8	0xbe8ff3af	-0.28115603
9	0xc0e5b030	-7.1777573
10	0xc02ad4f8	-2.6692486
11	0xbf826b89	-1.0189067
12	0x40561366	3.344934
13	0xbf3048da	-0.6886116
14	0x40122994	2.2837877
15	0x400c1913	2.1890304
16	0xc0213f2b	-2.5194805
17	0xbfcd39e2	-1.603329
18	0xc08e635c	-4.449629
19	0xc002a8b6	-2.0415473
20	0x403ae2ea	2.9200997
21	0xc0423b4b	-3.034869
22	0x3fa2341e	1.2672155
23	0x3fa69585	1.301438
24	0x40128883	2.289582
25	0xc0e23b6a	-7.0697527
26	0x3ebd0d94	0.36924422
27	0xbc0cb844	-0.008588854
28	0xc02ec291	-2.7306254
29	0x3f33c409	0.70221
30	0x4007257a	2.1116624
31	0x4000f16b	2.014735

model/backbone.dark2.0.bn/FusedBatchNormV3 f4 [32]
0	0x3f87b5c0	1.0602341
1	0xbfa28089	-1.2695476
2	0xbead598d	-0.33857384
3	0x3fd86d32	1.6908324
4	0x400cfc5d	2.202903
5	0xbf82effa	-1.0229485
6	0x3fdc3b94	1.7205682
7	0xc00baf9e	-2.1825938
8	0x3f7969eb	0.97427243
9	0xbe86268a	-0.26201278
10	0x400ead92	2.229344
11	0x3d2514eb	0.040303152
12	0xc080d384	-4.02582
13	0xbf5523be	-0.83257663
14	0x3f9a9a97	1.2078427
15	0x3f63e4f4	0.8902123
16	0x3fb39851	1.4030858
17	0xbd555f40	-0.05209279
18	0x4000ccad	2.0124924
19	0x40335b18	2.802435
20	0x3fbb7fa5	1.4648329
21	0x401a58ec	2.4116774
22	0x3f992ed7	1.1967419
23	0x3e8b3664	0.27189934
24	0x3f8fd1a8	1.1235857
25	0xbfa93e46	-1.3222129
26	0x3e35113e	0.17682359
27	0xbf18d565	-0.59700614
28	0xc05a9fb3	-3.4159973
29	0x402a19ff	2.6578367
30	0xbef2c2f0	-0.4741435
31	0x3e4ed203	0.201973

model/backbone.dark2.1.cv1.bn/FusedBatchNormV3 f4 [16]
0	0x3e82ac3c	0.2552203
1	0x3ebf16d6	0.3732211
2	0x3f4ab9ab	0.79189557
3	0x3efc030a	0.4922107
4	0x3eb41ffa	0.35180646
5	0x3e21e5cf	0.15810321
6	0xbef41f49	-0.4768012
7	0xbd6efda8	-0.058347374
8	0x3ede79fb	0.4345244
9	0x396415c0	0.00021751877
10	0x3ea7ee92	0.32799202
11	0x3eb056e2	0.34441286
12	0x3e627a14	0.22116882
13	0x3ec6bb0f	0.3881459
14	0x3f16cdc7	0.5890774
15	0x3ec366d8	0.381644

model/backbone.dark2.1.m.0.cv1.bn/FusedBatchNormV3 f4 [16]
0	0x3ebd0eec	0.36925447
1	0x3f43a6f8	0.7642665
2	0x3e614fb4	0.2200306
3	0x3f184d82	0.5949327
4	0x3f0c700a	0.5485846
5	0x3eb7e234	0.35914767
6	0xbe579c00	-0.21055603
7	0xbd3b10dc	-0.045670375
8	0x3ea45eb4	0.32103503
9	0x3ee1ef53	0.44127902
10	0xbe7fc8f9	-0.24979009
11	0xbeeee933	-0.46662292
12	0xbe98d2ae	-0.29848236
13	0x3f2364a3	0.63825434
14	0x3f26e633	0.65195006
15	0xbe2e923b	-0.1704797

model/backbone.dark2.1.m.0.cv2.bn/FusedBatchNormV3 f4 [16]
0	0xbe15d024	-0.1463018
1	0x3df1bfcc	0.118041605
2	0xbc8af538	-0.016962633
3	0x3eb72be9	0.35775688
4	0xbe6ca352	-0.23109177
5	0xbe849e10	-0.25901842
6	0x3e4ccdb1	0.2000034
7	0x3e926893	0.2859541
8	0xbc947970	-0.018124312
9	0xbd8cc643	-0.06873753
10	0x3f36ef58	0.7145896
11	0x3ed6692f	0.41877124
12	0x3db0ac5d	0.08626626
13	0x3ea875ce	0.32902378
14	0xbd88fbc0	-0.066886425
15	0x3ecc42ed	0.3989481

model/backbone.dark2.1.cv2.bn/FusedBatchNormV3 f4 [16]
0	0x3f0fff56	0.56248987
1	0x3f59465b	0.8487298
2	0xbf137e7d	-0.5761488
3	0xbf750707	-0.9571385
4	0x3e88caf9	0.26717356
5	0x3ec500f4	0.3847729
6	0x3f038a37	0.51382774
7	0xbda47e71	-0.08031929
8	0x3f7e1c7e	0.99262226
9	0x3e8bb709	0.27288082
10	0x3eb5a632	0.3547836
11	0xbd83b034	-0.064300925
12	0x3ea73f19	0.32665327
13	0xbdb79dba	-0.08965631
14	0x3f6143b6	0.87993944
15	0x3eb63f80	0.35595322

model/backbone.dark2.1.cv3.bn/FusedBatchNormV3 f4 [32]
0	0x3f181e8b	0.59421605
1	0xbe81fd06	-0.25388354
2	0x3f24ff43	0.64452
3	0x3ed129b8	0.4085214
4	0xbf329be4	-0.6976912
5	0x3f4ddf70	0.80419064
6	0x3f860f87	1.0473489
7	0x3e1addd0	0.15123677
8	0xbf293a32	-0.66104424
9	0xbf867b71	-1.0506421
10	0x3d842204	0.064518005
11	0x3f117e4e	0.5683335
12	0xbd261919	-0.04055128
13	0xbf948641	-1.1603471
14	0xbe04e978	-0.12979686
15	0x3e3fe159	0.18738307
16	0x3f005cbd	0.5014151
17	0xbec69dac	-0.3879217
18	0xbe7298fc	-0.23691171
19	0xbf140478	-0.5781932
20	0x3e25a2b5	0.16175349
21	0x3bde57c0	0.006785363
22	0x3f7551ec	0.9582813
23	0x3e9be895	0.30450884
24	0xbe8e5f6f	-0.27807185
25	0xbeaab59b	-0.3334168
26	0x3f61ef45	0.8825572
27	0xbee33338	-0.44375014
28	0xbe4e2392	-0.20130756
29	0x3f236470	0.6382513
30	0xbd8be098	-0.06829947
31	0xbf111c3e	-0.5668372

model/backbone.dark3.0.bn/FusedBatchNormV3 f4 [64]
0	0xbc8c6d2a	-0.017141897
1	0x3ecfe4c5	0.40604225
2	0xbebd86cd	-0.37016907
3	0x3f193c9d	0.59858114
4	0xbed15256	-0.4088313
5	0xbc7e63a8	-0.01552669
6	0xbef68911	-0.48151448
7	0x3f378722	0.7169057
8	0x3f393e0d	0.72360307
9	0xbd8ed9fe	-0.069751725
10	0x3f4d7310	0.80253696
11	0xbfa7bbe1	-1.3104211
12	0x3ecfcc95	0.4058577
13	0xbec34526	-0.38138694
14	0xbeb86b7c	-0.36019504
15	0x3e838dab	0.25694022
16	0x3f02969f	0.5101108
17	0xbe78572d	-0.24252005
18	0x3e91fa37	0.2851121
19	0x3f68beca	0.9091612
20	0x3f81116a	1.0083439
21	0x3de51f02	0.11187555
22	0x3eae18e2	0.3400336
23	0x3e00ea0e	0.12589285
24	0xbd38a11e	-0.04507553
25	0x3f4d9cca	0.80317366
26	0x3e4460d2	0.19177559
27	0xbdf665a7	-0.120311074
28	0x3dfc8419	0.12329883
29	0xbb8c2204	-0.004276516
30	0xbd90a689	-0.07063014
31	0x3f146d4b	0.5797927
32	0xbf1949e6	-0.59878385
33	0x3ec53be2	0.3852225
34	0xbf7ec17d	-0.9951399
35	0x3e404d0e	0.18779394
36	0xbf6fe3c1	-0.937069
37	0xbf82916c	-1.0200629
38	0x3e32d21a	0.1746296
39	0xbf4d08a9	-0.8009134
40	0xbf1d0b9b	-0.61345834
41	0x3ec643ce	0.38723606
42	0x3d3364b0	0.043797195
43	0xbd6d566b	-0.057943743
44	0xbf033404	-0.51251245
45	0xbee7f245	-0.45302024
46	0x3ed74a74	0.4204899
47	0xbfbdaba2	-1.4818003
48	0xbf23dbf9	-0.64007527
49	0x3f13cb96	0.5773252
50	0x3dad64f2	0.084665194
51	0xbe2fe2bc	-0.17176336
52	0x3e1bebc6	0.15226659
53	0x3f4206f6	0.7579187
54	0xbed00850	-0.40631342
55	0x3ebde9ac	0.3709234
56	0xbf328e1e	-0.69748104
57	0xbc916320	-0.017747462
58	0x3f848d0e	1.0355546
59	0x3f101cf2	0.5629417
60	0xbf6a11f3	-0.9143364
61	0xbe07caa3	-0.13260894
62	0x3f08c265	0.5342162
63	0x3f56ee0d	0.83956987

model/backbone.dark3.1.cv1.bn/FusedBatchNormV3 f4 [32]
0	0xbb2e23e0	-0.0026571676
1	0x3f2b97c1	0.67028433
2	0xbe24d699	-0.16097488
3	0x3e8c3f97	0.27392265
4	0xbc582bd8	-0.013194047
5	0x397a5000	0.0002387166
6	0x3ef573be	0.47939867
7	0x3f46d652	0.77670777
8	0x3e95e60c	0.29277074
9	0x3ecf83ca	0.40530235
10	0x3f21ca35	0.6319917
11	0x3e057095	0.13031228
12	0x3f3fb031	0.7487822
13	0x3e9aaebb	0.30211434
14	0xbda78397	-0.08179396
15	0xbea00a18	-0.312577
16	0x3cdc6a1f	0.026906071
17	0x3dc4398c	0.09581289
18	0xbd15b886	-0.03655293
19	0x3e22e3e4	0.15907246
20	0x3f29ed94	0.6637814
21	0x3eb35511	0.35025838
22	0xbdc0e4c4	-0.094186336
23	0x3e6402fa	0.2226676
24	0x3d4402ac	0.04785411
25	0xbe841114	-0.2579428
26	0x3ee4f614	0.44718993
27	0x3f3fb45c	0.7488458
28	0xbec0796a	-0.37592632
29	0x3ee0819a	0.43848878
30	0xbd06e876	-0.032936536
31	0xbe8b9722	-0.27263743

model/backbone.dark3.1.m.0.cv1.bn/FusedBatchNormV3 f4 [32]
0	0x3db10406	0.086433455
1	0x3e953b3f	0.29146764
2	0xbe2c50d6	-0.16827711
3	0x3ec194fc	0.3780898
4	0xbe7358dd	-0.23764367
5	0x3eca19c4	0.39472783
6	0x3ec67596	0.38761586
7	0xbcf73d60	-0.030180633
8	0xbe1dcdac	-0.15410489
9	0x3f1bd04a	0.608647
10	0x3f84aaf8	1.0364676
11	0x3f08102c	0.53149676
12	0x3e30183c	0.17196745
13	0x3f29cf3f	0.6633186
14	0xbdcba251	-0.09943069
15	0x3f8c574a	1.0964139
16	0x3dee7304	0.11643031
17	0xbec8d2f6	-0.3922345
18	0x3f0f6e65	0.56027824
19	0x3f78f555	0.97249347
20	0x3f16648a	0.5874716
21	0x3e9112ce	0.2833466
22	0x3e436315	0.19080766
23	0x3f31b3af	0.694148
24	0xbeab4888	-0.33453774
25	0x3eca430c	0.39504278
26	0x3ef10a1c	0.47078025
27	0x3dca3ec1	0.098752506
28	0x3f7c9ce8	0.9867692
29	0xbe0b3b1c	-0.13596767
30	0xbf9b7388	-1.2144632
31	0x3e2f2470	0.17103744

model/backbone.dark3.1.m.0.cv2.bn/FusedBatchNormV3 f4 [32]
0	0xbe2a6036	-0.16638264
1	0x3e9d9bad	0.30782834
2	0x3f17a674	0.5923836
3	0x3df3e51d	0.11908934
4	0x3cd7744e	0.026300576
5	0x3f2cf6ce	0.67564094
6	0x3e252555	0.16127522
7	0x3e8edccc	0.2790283
8	0x3ebd82d8	0.37013888
9	0xbdb145ec	-0.08655915
10	0xbe10dfb2	-0.14147833
11	0x3e37dade	0.17954585
12	0xbf26dd62	-0.65181553
13	0xbf4250bd	-0.75904447
14	0x3f1b536d	0.6067417
15	0xbe615bbc	-0.2200765
16	0x3e8d7a42	0.27632338
17	0xbdcc44e2	-0.09974076
18	0x3e576a25	0.21036585
19	0x3d89c212	0.06726469
20	0xbda529bf	-0.08064603
21	0x3ef369a5	0.47541538
22	0x3dfa566a	0.122235134
23	0x3e215025	0.15753229
24	0xbe2c1ab2	-0.16807058
25	0x3d64f6e6	0.055899523
26	0xbed92e40	-0.42418098
27	0xbe20207d	-0.15637393
28	0x3ea0d58e	0.3141293
29	0x3e348b02	0.17631152
30	0x3e923a76	0.28560227
31	0xbe3e6816	-0.18594393

model/backbone.dark3.1.m.1.cv1.bn/FusedBatchNormV3 f4 [32]
0	0xbfb0856c	-1.3790717
1	0x3f69d36b	0.91338223
2	0x3d926d68	0.07149774
3	0x3f4deedc	0.80442595
4	0x3fb6481f	1.424076
5	0xbed509c8	-0.41609025
6	0x3f92cda8	1.1469011
7	0x3f161ed5	0.58640796
8	0x3f466632	0.7749969
9	0xbe91ff46	-0.2851507
10	0xbe4d020c	-0.20020312
11	0xbf264ac6	-0.64957845
12	0xbec8d31d	-0.39223567
13	0x3ddbd9a0	0.10734868
14	0xbee7e9ea	-0.4529565
15	0x3ebf7e97	0.37401268
16	0x3db1f007	0.0868836
17	0xbc86f091	-0.016472133
18	0x3f470755	0.7774556
19	0x3df35ab0	0.11882532
20	0xbd9e43b6	-0.077277586
21	0x3f6cdb2a	0.9252192
22	0xbf0d4918	-0.5518966
23	0x3def2206	0.11676411
24	0xbcbbbc64	-0.02291698
25	0xbe1d2dc6	-0.15349492
26	0xbdc9b481	-0.098488815
27	0x3f18638a	0.59526885
28	0x3f0cd8d3	0.5501835
29	0xbeb44e72	-0.352161
30	0xbe5945b3	-0.21217994
31	0x3da7713c	0.081758946

model/backbone.dark3.1.m.1.cv2.bn/FusedBatchNormV3 f4 [32]
0	0xbed8ae55	-0.42320505
1	0xbeb2e450	-0.34939814
2	0x3d2918dd	0.041283477
3	0xbee35931	-0.44403985
4	0xbdceafca	-0.10092123
5	0x3ea44fe0	0.3209219
6	0x3e78c333	0.24293213
7	0x3d3fd327	0.04683223
8	0x3e04eeeb	0.12981765
9	0xbef6e7d8	-0.48223758
10	0x3e605b44	0.21909815
11	0x3e9a547e	0.30142587
12	0xbfa9c764	-1.3263974
13	0xbd442f28	-0.047896534
14	0xbd8ed5b9	-0.06974358
15	0xbe4ca110	-0.19983315
16	0x3f227e2c	0.63473773
17	0xbef54f26	-0.47911948
18	0xbf37c8dc	-0.7179086
19	0x3d8fa205	0.07013325
20	0xbe7099d2	-0.23496178
21	0x3e6cd1fb	0.23126976
22	0xbe94beb8	-0.29051757
23	0xbee9fb66	-0.45699614
24	0x3f9258c9	1.1433345
25	0x3f652ea6	0.89524305
26	0xbe97424a	-0.29542762
27	0x3d95d435	0.07315866
28	0x3e66df63	0.22546153
29	0xbd0d6c4e	-0.034527116
30	0x3f3d8918	0.74037313
31	0x3f4ca4c2	0.799389

model/backbone.dark3.1.cv2.bn/FusedBatchNormV3 f4 [32]
0	0xbf6fdfdf	-0.93700975
1	0x3dce7b93	0.10082164
2	0xbe972451	-0.29519895
3	0x3f22c06c	0.6357486
4	0x3ee57369	0.44814613
5	0xbdeeb4f6	-0.11655609
6	0x3e877048	0.2645285
7	0x3e6037ae	0.2189624
8	0xbeb6883d	-0.35650817
9	0x3eb6aab5	0.35677114
10	0x3e0d16f6	0.1377829
11	0xbf750084	-0.9570391
12	0x3e2f22ac	0.1710307
13	0x3dfde09e	0.12396358
14	0x3dbdaa57	0.09261005
15	0xbd658e36	-0.056043826
16	0xbe0902ee	-0.13380024
17	0x3f273b57	0.6532492
18	0x3e38413b	0.17993633
19	0xbe1adc34	-0.15123063
20	0x3dc0f3f4	0.0942153
21	0x3db2b4e3	0.08725908
22	0x3e88cda5	0.26719394
23	0xbe4b187a	-0.19833556
24	0x3e9a9421	0.30191138
25	0xbe697190	-0.22797227
26	0x3ecba818	0.39776683
27	0xbdb143e8	-0.0865553
28	0xbeff55c9	-0.49870136
29	0xbea2934c	-0.31753004
30	0xbde32bfa	-0.11092372
31	0xbebe0fda	-0.3712147

model/backbone.dark3.1.cv3.bn/FusedBatchNormV3 f4 [64]
0	0x3f58d2bf	0.84696573
1	0x3f952804	1.1652837
2	0xbee6c292	-0.4507032
3	0x3f9359c7	1.1511773
4	0x3ca92662	0.020648185
5	0x3ee096cf	0.43865058
6	0x3e8c5f59	0.27416494
7	0x3d5136ae	0.051077537
8	0x3f26b3ae	0.6511792
9	0x3e17ebde	0.1483607
10	0xbf157104	-0.58375573
11	0xbf85e893	-1.0461601
12	0xbe84be01	-0.2592621
13	0x3e42bc64	0.19017178
14	0xbf41a4ba	-0.7564198
15	0x3e2f3580	0.17110252
16	0x3e737d0a	0.23778167
17	0xbff916b6	-1.9460056
18	0x3ebb213e	0.365488
19	0xbd4fae87	-0.05070355
20	0x3f064b2f	0.5245847
21	0xbeee67b8	-0.46563506
22	0xbe0bdcad	-0.136584
23	0x3ebabfad	0.36474362
24	0x3f37a269	0.71732193
25	0x3d7003d5	0.058597405
26	0x3f6c66c6	0.9234432
27	0x3f11f8c4	0.5702021
28	0x3dc03e01	0.09386826
29	0x3d95f8f1	0.073228724
30	0x3f12ea40	0.5738869
31	0xbf83f1ec	-1.0308204
32	0xbf56adf7	-0.838592
33	0xbfa30ffb	-1.2739252
34	0x3e55f61c	0.20894665
35	0x3f3a4e78	0.72775984
36	0xbee34ea1	-0.44395927
37	0x3f8c1821	1.0944864
38	0xbe84a6a5	-0.2590839
39	0xbe2ebb99	-0.1706375
40	0x3f9500ba	1.1640847
41	0xbb9fdf58	-0.0048789196
42	0xbe1439e1	-0.14475204
43	0x3d0c8671	0.0343079
44	0x3fd7bb59	1.6854049
45	0x3d60410a	0.054749526
46	0x3f03d7b9	0.5150104
47	0xbea17d96	-0.31541127
48	0xbd0ec79b	-0.034858327
49	0x3f449453	0.76788825
50	0xbe3ea7b4	-0.18618661
51	0xbf4fb276	-0.81131685
52	0x3e5ee554	0.21767169
53	0x3f18157e	0.59407794
54	0x3f1607a1	0.5860539
55	0x3da081e9	0.078372784
56	0x3eb1f4c6	0.3475706
57	0xbf019329	-0.50615174
58	0x3f3c31d5	0.7351354
59	0x3dfdd3ce	0.12393914
60	0x3f886565	1.0655943
61	0xbf887c60	-1.0662956
62	0x3fa06fff	1.2534178
63	0xbf816244	-1.0108113

model/backbone.dark4.0.bn/FusedBatchNormV3 f4 [64]
0	0x3e8f3aee	0.27974647
1	0xbf1f64f5	-0.62263423
2	0xbe1801f8	-0.14844501
3	0x3f05f630	0.5232878
4	0xbde10206	-0.10986714
5	0x3edaef50	0.42760706
6	0xbe699488	-0.22810566
7	0xbf11910c	-0.5686195
8	0x3ef992d4	0.48744833
9	0x3dbb2c0a	0.09139259
10	0xbf94e546	-1.1632469
11	0x3f11a9f1	0.56899935
12	0xbe8573ee	-0.2606501
13	0x3e6927df	0.22769116
14	0x3e7ac3da	0.24488774
15	0xbef778d1	-0.48334363
16	0xbeb64934	-0.35602725
17	0x3e91904e	0.28430408
18	0x3eb22250	0.34791803
19	0xbdcf2a3e	-0.10115479
20	0x3ce5eefe	0.028068062
21	0x3e63db7f	0.222517
22	0x3f85d951	1.0456945
23	0xbc1af566	-0.009457922
24	0x3daa113a	0.08304067
25	0xbe4b9996	-0.19882807
26	0x3c31895a	0.01083597
27	0x3cda41ee	0.026642766
28	0xbd0f1bdd	-0.034938682
29	0xbf514986	-0.8175281
30	0x3e6d422c	0.23169774
31	0xbd95247e	-0.07282351
32	0x3ebc6939	0.3679903
33	0xbf3a6ba2	-0.72820485
34	0xbf23314a	-0.63747084
35	0x3e5701ea	0.20996824
36	0xbeeaae59	-0.45836142
37	0xbe2dbbd1	-0.16966178
38	0xbd8cb626	-0.068706796
39	0xbe3376ff	-0.17525862
40	0x3f21eb4a	0.6324965
41	0xbd99df2b	-0.07513269
42	0x3fb04fec	1.377439
43	0xbe387d71	-0.18016602
44	0x3e61de41	0.2205744
45	0xbe115dc8	-0.14195931
46	0xbcff75ea	-0.031184155
47	0x3ce01aca	0.027356524
48	0x3f207c10	0.62689304
49	0xbf6d2361	-0.9263211
50	0xbe47ab1c	-0.19498867
51	0xbec671e1	-0.38758758
52	0x3f07a751	0.5298968
53	0xbec399a6	-0.38203162
54	0xbe3d6c61	-0.18498375
55	0x3e2c97e5	0.16854818
56	0xbeee36a8	-0.46526074
57	0xbdbcea47	-0.09224372
58	0xbe732560	-0.23744726
59	0xbf385b00	-0.72013855
60	0x3f19e62a	0.6011683
61	0x3f32b738	0.6981082
62	0xbe957c22	-0.29196268
63	0xbd9a66cb	-0.075391375

model/backbone.dark4.1.cv1.bn/FusedBatchNormV3 f4 [32]
0	0xbe6bc491	-0.23024203
1	0x3f613ee8	0.8798661
2	0xbf42a66d	-0.76035196
3	0xbe98876c	-0.2979082
4	0x3edcfb44	0.4316045
5	0xbdc2aafe	-0.095052704
6	0xbd269879	-0.040672753
7	0x3e0ac681	0.13552286
8	0x3f17c848	0.5928998
9	0x3e8cef9e	0.27526563
10	0x3ddbb306	0.107275054
11	0x3f104f15	0.5637067
12	0x3f30452c	0.6885555
13	0x3ebe3ed3	0.37157306
14	0xbe650e75	-0.22368796
15	0xbce322f8	-0.027726635
16	0x3da8d7da	0.082442954
17	0x3ddae1a8	0.10687572
18	0xbe0a6d7d	-0.13518329
19	0xbe28b8e3	-0.16476779
20	0xbde019c8	-0.109424174
21	0xbdcbb044	-0.099457294
22	0x3e2b9392	0.16755512
23	0x3cba26f2	0.022723649
24	0x3ddcac52	0.10775055
25	0xbe7a9f89	-0.2447492
26	0x3f86a7eb	1.0519994
27	0xbd6f5f9c	-0.05844079
28	0x3f0822af	0.5317792
29	0x3e7e46d0	0.248317
30	0xbe2dabbd	-0.16960044
31	0x3eccf884	0.40033352

model/backbone.dark4.1.m.0.cv1.bn/FusedBatchNormV3 f4 [32]
0	0x3f4a6b0e	0.790696
1	0xbf067988	-0.5252919
2	0xbe0fadca	-0.14031139
3	0x3ef56fdf	0.47936913
4	0xbf0f36de	-0.55943096
5	0xbf5d0091	-0.8632899
6	0x3f191eb4	0.59812474
7	0xbd0fcfc4	-0.03511025
8	0x3e805ef0	0.25072432
9	0xbecf0218	-0.40431285
10	0xbe17d03e	-0.14825532
11	0xbdfbffa9	-0.12304623
12	0x3eebde19	0.46067885
13	0x3d582bd8	0.052776188
14	0x3f22da76	0.63614595
15	0x3e97b5b2	0.2963081
16	0xbce600d8	-0.028076574
17	0xbf723c13	-0.94622916
18	0xbf5a2770	-0.85216427
19	0x3ef164e3	0.47147283
20	0xbf08fa5b	-0.5350701
21	0xbf645660	-0.891943
22	0x3f8c70b7	1.0971898
23	0x3f8ab6f8	1.0837088
24	0xbf4334d4	-0.76252484
25	0xbcd6cdc0	-0.026221156
26	0xbf6a3508	-0.9148717
27	0x3d667b00	0.056269646
28	0x3e2946fc	0.16530985
29	0x3c456fbf	0.012050568
30	0xbd09ec5a	-0.033672668
31	0x3efdeae5	0.49593273

model/backbone.dark4.1.m.0.cv2.bn/FusedBatchNormV3 f4 [32]
0	0x3ef43727	0.47698328
1	0x3eb16cbd	0.34653273
2	0xbe875b35	-0.26436773
3	0xbacbfe38	-0.0015563434
4	0xbe9f5506	-0.31119555
5	0x3ebcac83	0.36850366
6	0xbe11e64a	-0.14248005
7	0x3f447683	0.76743335
8	0x3e00088b	0.12503259
9	0x3f043d00	0.5165558
10	0x3f067708	0.5252538
11	0x3eedb34a	0.4642585
12	0x3f31c911	0.6944743
13	0xbf059e0b	-0.5219428
14	0x3ef7cf8a	0.48400527
15	0x3eaf183d	0.3419818
16	0xbeccd5b5	-0.40006796
17	0x3f697ae2	0.9120313
18	0xbf6ad5d9	-0.91732556
19	0x3c6d6236	0.014488747
20	0x3cdf967c	0.027293436
21	0x3e6b66e9	0.22988476
22	0x3f4a7ab1	0.7909346
23	0x3eab9dba	0.33518773
24	0x3f804678	1.0021505
25	0xbf16bcfd	-0.58882123
26	0x3e7838c5	0.24240406
27	0x3ebb6ede	0.36608022
28	0x3d1fe95c	0.03904091
29	0xbdd19c7e	-0.10234927
30	0x3f3a8cf0	0.72871304
31	0xbf5c5b8f	-0.8607721

model/backbone.dark4.1.m.1.cv1.bn/FusedBatchNormV3 f4 [32]
0	0x3e58ff6d	0.21191187
1	0x3d65fb69	0.056147967
2	0xbf350369	-0.7070833
3	0xbf38925f	-0.72098345
4	0x3f74952d	0.95540124
5	0xbea81b79	-0.3283346
6	0x3ec74ce8	0.38925862
7	0xbf026e1d	-0.5094927
8	0xbee1641a	-0.44021684
9	0xbf27b9f6	-0.6551813
10	0xbf156485	-0.58356506
11	0x3f7f4547	0.99715084
12	0x3dfefe72	0.12450875
13	0xbefcf784	-0.4940759
14	0xbe183261	-0.14862968
15	0xbf54b990	-0.83095646
16	0x3f9a05f2	1.2033064
17	0x3ecf697a	0.4051016
18	0xbf4c267b	-0.79746217
19	0x3ed7892c	0.4209684
20	0x3e6ead3e	0.23308274
21	0xbf422b1d	-0.75847036
22	0xbeb17510	-0.34659624
23	0x3f01f6e0	0.50767326
24	0xbec163b3	-0.37771377
25	0x3e734f14	0.23760635
26	0x3f9e512b	1.236852
27	0xbdabf458	-0.08396214
28	0xbf0dba95	-0.55362827
29	0xbf928501	-1.144684
30	0xbdfddc32	-0.123955145
31	0xbe8cf528	-0.2753079

model/backbone.dark4.1.m.1.cv2.bn/FusedBatchNormV3 f4 [32]
0	0x3f7d3205	0.9890445
1	0x3edb0898	0.42779994
2	0x3edc3611	0.4301
3	0x3f26437b	0.6494672
4	0x3f18c587	0.596764
5	0xbe58d1dd	-0.21173806
6	0x3efae281	0.49000934
7	0x3e80700b	0.25085482
8	0x3d8ba7e3	0.06819131
9	0x3ebcd5d5	0.3688189
10	0x3f48f6f5	0.78501827
11	0xbf74a630	-0.9556608
12	0x3e2ef284	0.170847
13	0xbd64f5a2	-0.055898316
14	0x3df1866c	0.11793217
15	0xbe8c14b3	-0.27359542
16	0xbf4bf285	-0.7966693
17	0xbd185102	-0.03718663
18	0xbe8e9d94	-0.27854598
19	0xbed019eb	-0.40644774
20	0xbeec828a	-0.46193343
21	0x3f1e913b	0.61940354
22	0x3e63cf17	0.22246967
23	0xbeee62cc	-0.4655975
24	0xbe16d5e3	-0.14730029
25	0x3f244a78	0.6417613
26	0xbd3c250a	-0.04593376
27	0xbf1539f9	-0.58291584
28	0xbef2b07c	-0.47400272
29	0x3d13a35a	0.036044456
30	0x3f1a951b	0.60383767
31	0xbde1dc79	-0.1102838

model/backbone.dark4.1.cv2.bn/FusedBatchNormV3 f4 [32]
0	0xbdf3c42a	-0.1190265
1	0x3c988e33	0.018622493
2	0xbe3225d3	-0.17397241
3	0x3f0c0e2c	0.54709125
4	0x3ca0b88a	0.019619245
5	0xbd96798c	-0.07347402
6	0x3e5f74b1	0.21821858
7	0x3f51a979	0.8189922
8	0x3f5d12ff	0.8635711
9	0xbeb6adc9	-0.35679463
10	0x3f30daa5	0.69083625
11	0xbe5a8bca	-0.21342388
12	0xbf035e52	-0.51315796
13	0x3e010e00	0.12602997
14	0x3e502549	0.20326723
15	0x3efd4429	0.49466065
16	0x3f2239c1	0.63369375
17	0xbf4792a7	-0.7795815
18	0xbef4b9a5	-0.47797886
19	0x3e41b61c	0.18917125
20	0xbe6980a8	-0.22802985
21	0x3bc3f487	0.0059800777
22	0xbeba077a	-0.3633383
23	0x3e2d32d4	0.1691392
24	0xbf394de5	-0.7238448
25	0x3f2ce5f7	0.675384
26	0x3e40316f	0.18768857
27	0xbec3bd88	-0.38230538
28	0xbecb7699	-0.3973892
29	0x3f2ffd01	0.6874543
30	0xbf0d88c3	-0.55286807
31	0x3eced243	0.40394792

model/backbone.dark4.1.cv3.bn/FusedBatchNormV3 f4 [64]
0	0x3ed1e8d9	0.4099796
1	0xbe454802	-0.1926575
2	0x3e781c6a	0.24229589
3	0xbed4de1d	-0.4157571
4	0xbe920c93	-0.28525218
5	0x3ef321f3	0.4748684
6	0x3fb89eb8	1.4423437
7	0xbf047fc9	-0.51757485
8	0x3f4330bd	0.76246244
9	0x3f8a8910	1.0823078
10	0xbe974cbf	-0.2955074
11	0x3bb72862	0.005589531
12	0x3e369401	0.17829897
13	0x3f2d11cc	0.6760528
14	0x3f128437	0.57232994
15	0x3f3bdf1e	0.73387325
16	0x3eb73d04	0.3578874
17	0x3f96874b	1.1760038
18	0xbea7db77	-0.32784626
19	0x3ecdc615	0.40190187
20	0x3f147f15	0.5800641
21	0x3ef9ded0	0.48802805
22	0x3f0d74b8	0.55256224
23	0xbe36bce0	-0.17845488
24	0x3f877b69	1.0584537
25	0x3f24abf1	0.6432486
26	0xbdee28e8	-0.11628896
27	0x3f55fd38	0.83589506
28	0xbe17eb18	-0.14835775
29	0x3f88a57d	1.0675503
30	0xbc4d363c	-0.0125251375
31	0x3fdb3f69	1.7128726
32	0x3edab10c	0.427132
33	0x3fc88802	1.5666506
34	0x3ec359b0	0.38154364
35	0xbf0256d2	-0.5091373
36	0x3eb413f3	0.3517147
37	0x3f00dcec	0.503371
38	0x3f2a0b51	0.6642352
39	0x3dfe6085	0.124207534
40	0xbecad5b5	-0.3961617
41	0x3d8bdba8	0.068290055
42	0x3ea4073a	0.32036763
43	0xbea7b9f1	-0.3275905
44	0xbe1f00f2	-0.15527704
45	0x3d96ab08	0.0735684
46	0x3e8a150f	0.2696919
47	0xbdacd26e	-0.08438574
48	0xbeb5ed3a	-0.35532552
49	0x3feb0810	1.8361835
50	0xbde9f863	-0.11424329
51	0x3fb3dafe	1.4051206
52	0x3d04a69f	0.032385465
53	0xbf842e41	-1.0326616
54	0x3f5ac5b2	0.8545791
55	0xbe783212	-0.2423785
56	0x3fbcafbb	1.4741129
57	0xbee45f82	-0.44604117
58	0x3ec22a21	0.37922767
59	0x3f5a8b98	0.85369253
60	0xbf0878de	-0.5330943
61	0x3f981e61	1.1884271
62	0xbf95ac9b	-1.16933
63	0x3f4a449e	0.7901095

model/backbone.dark5.0.bn/FusedBatchNormV3 f4 [64]
0	0x3e1cad58	0.153005
1	0x3e213b9b	0.15745394
2	0x3ed36be3	0.4129325
3	0x3e6fdb36	0.23423466
4	0xbe616f23	-0.22015052
5	0x3e8ae7db	0.27130017
6	0x3daaa241	0.08331729
7	0xbf5f1a8e	-0.87149894
8	0xbf3a4f2b	-0.7277705
9	0x3eae1c09	0.34005764
10	0xbe71abf0	-0.23600745
11	0xbda15b20	-0.07878709
12	0xbf7a9df8	-0.9789729
13	0x3d756f5f	0.059920665
14	0xbe02a1d5	-0.12757047
15	0x3e6f9156	0.23395285
16	0x3d533696	0.05156573
17	0x3d9bce51	0.07607711
18	0xbf0d781c	-0.552614
19	0xbf5d6ac6	-0.8649105
20	0xbf2d79cb	-0.67763966
21	0xbad71ae0	-0.0016411208
22	0x3d999808	0.07499701
23	0x3e649f94	0.22326499
24	0x3cc74c63	0.024328416
25	0xbe03ff07	-0.12890254
26	0xbebcbf45	-0.36864677
27	0xbd425b5d	-0.047450412
28	0xbea9f9aa	-0.3319829
29	0x3f526d6a	0.821982
30	0x3f094530	0.53621197
31	0x3db438f4	0.087999254
32	0x3d7755ac	0.060384437
33	0x3fa3472a	1.2756093
34	0x3ec77062	0.3895293
35	0xbf066142	-0.52492154
36	0x3ef2258d	0.47294274
37	0x3f58240b	0.8443
38	0xbe293a8e	-0.16526243
39	0x3f60cca0	0.8781223
40	0x3e4de571	0.20107056
41	0x3e98b08b	0.29822192
42	0xbee385cb	-0.44438013
43	0xbe9b33d8	-0.3031299
44	0x3e027d8a	0.12743202
45	0xbe666d03	-0.22502522
46	0x3efe8078	0.4970739
47	0xbed9a537	-0.4250886
48	0xbf12d920	-0.57362556
49	0xbf478fb9	-0.7795368
50	0x3ea2cc97	0.31796715
51	0xbf071bd6	-0.5277685
52	0x3e2a751b	0.16646235
53	0x3e3ec248	0.186288
54	0xbebeb508	-0.3724749
55	0x3f73dd74	0.95259786
56	0x3f5bace7	0.85810703
57	0x3ed2a929	0.41144684
58	0x3de2b150	0.11068976
59	0xbcf9329a	-0.030419637
60	0x3f877beb	1.0584692
61	0xbef88fd2	-0.48547226
62	0x3ee5c8a2	0.44879633
63	0xbf78055d	-0.96883184

model/backbone.dark5.1.cv1.bn/FusedBatchNormV3 f4 [32]
0	0xbe9f7593	-0.3114439
1	0xbe87cd80	-0.26523972
2	0x3f2059e2	0.6263715
3	0xbe9d204c	-0.30688703
4	0x3ddcfd09	0.1079045
5	0x3ec7f997	0.3905761
6	0x3f12a056	0.57275903
7	0x3e8f815f	0.2802839
8	0xbf1e1d72	-0.6176368
9	0x3f630243	0.88675326
10	0x3dbb1b4c	0.09136066
11	0xbeda8536	-0.42679757
12	0x3e218c35	0.15776141
13	0x3f43e5ca	0.76522505
14	0xbf077f25	-0.5292838
15	0x3eb79006	0.3585207
16	0x3f2f1acb	0.6840026
17	0xbe63fbcd	-0.22264023
18	0x3dc40a44	0.095722705
19	0x3ee13504	0.4398576
20	0xbd1c381c	-0.038139448
21	0x3f3fcfbb	0.74926347
22	0x3ec17d0d	0.3779072
23	0x3e8b9efd	0.27269736
24	0x3e4b9571	0.19881226
25	0x3e500933	0.20316009
26	0xbd539d88	-0.051663905
27	0x3e716d17	0.2357677
28	0xbe0d7b4d	-0.13816567
29	0xbf050c4f	-0.51971906
30	0x3f09f773	0.538932
31	0x3eb9d1c1	0.36292842

model/backbone.dark5.1.cv2.bn/FusedBatchNormV3 f4 [64]
0	0x3f2649d6	0.64956415
1	0xbdcf304b	-0.10116633
2	0xbf1c2e71	-0.61008364
3	0x3fe85229	1.8150073
4	0x3e41394f	0.18869518
5	0xbfab3716	-1.3376186
6	0x3fdfff2a	1.7499745
7	0xbecd76a5	-0.4012958
8	0xbb22c0dc	-0.0024834191
9	0xc0249dd4	-2.572133
10	0x3f1d7093	0.614999
11	0x3f33df76	0.7026285
12	0x3f4c5508	0.7981725
13	0x3f3d40e8	0.73927164
14	0xbf0ae9a3	-0.5426275
15	0x3feb5489	1.8385173
16	0xc03c9a1d	-2.9469063
17	0x3fd13677	1.6344746
18	0x3f997738	1.1989508
19	0x3e1fa013	0.15588407
20	0xc021d7a0	-2.5287857
21	0x3bfa9b68	0.0076479204
22	0x3fee619e	1.862354
23	0x3f0a1181	0.5393296
24	0xbe9f4e84	-0.3111459
25	0xbfdf1599	-1.7428466
26	0x3faabc98	1.3338804
27	0xbfa5d358	-1.2955122
28	0x3fae87b1	1.363516
29	0xc023696d	-2.5533097
30	0xbe094601	-0.1340561
31	0xbf460c52	-0.7736255
32	0xbd96e9f8	-0.07368845
33	0x3e11d6a2	0.14242032
34	0x3f308a8e	0.6896142
35	0x3d7216c5	0.059103746
36	0xc028a4bd	-2.6350548
37	0x3f4c8b23	0.79899806
38	0x3f238292	0.6387111
39	0x3feb412f	1.8379267
40	0x3f7b8c8d	0.9826134
41	0xbf2d4f52	-0.6769916
42	0x40284ca5	2.629678
43	0xbfc59f07	-1.5439156
44	0x3fa134ea	1.2594273
45	0x400d9168	2.212
46	0xbfd0a828	-1.6301317
47	0xbfede3f3	-1.858519
48	0xbeef9a2e	-0.46797317
49	0x3f7d36ec	0.9891193
50	0x3fd60c23	1.6722454
51	0x3ee205fa	0.44145185
52	0x3f327199	0.69704586
53	0x3e85af9c	0.26110542
54	0xbe008ca5	-0.12553652
55	0x3f03ac05	0.51434356
56	0x3fa2299f	1.2668952
57	0xc00ade26	-2.1698089
58	0xbf9348c0	-1.1506577
59	0xbf2e2b47	-0.68034786
60	0x3f8f25ac	1.1183372
61	0xc02c16ec	-2.688899
62	0x3ef0f3df	0.4706106
63	0x3f408cd6	0.752149

model/backbone.dark5.2.cv1.bn/FusedBatchNormV3 f4 [32]
0	0xbda8ee54	-0.082485825
1	0xbda25f68	-0.079283535
2	0x3eec4986	0.46149844
3	0x3f16fe87	0.5898213
4	0x3d64301e	0.05570995
5	0xbf1fb980	-0.62392426
6	0xbe94ceed	-0.29064122
7	0x3ee81303	0.45327005
8	0x3da5c521	0.0809424
9	0xbebfbf92	-0.37450844
10	0xbed3a676	-0.41337937
11	0x3d8eb03c	0.06967208
12	0xbe288370	-0.1645639
13	0xbf00aec7	-0.5026669
14	0xbed7ccab	-0.42148337
15	0x3f3d0b2c	0.7384517
16	0xbf447f9c	-0.76757216
17	0xbebb7d23	-0.3661891
18	0xbf005344	-0.50127053
19	0x3edad21c	0.42738426
20	0xbd72487d	-0.05915116
21	0x3ebb5791	0.36590245
22	0xbe7e7cab	-0.24852245
23	0xbf2bedfb	-0.67160004
24	0xbee75e44	-0.45189106
25	0xbee9aff4	-0.45642054
26	0xbf1bdabe	-0.6088065
27	0x3f15bac5	0.5848811
28	0xbe162814	-0.14663726
29	0x3e787513	0.2426341
30	0x3d746fa9	0.0596768
31	0xbea299af	-0.31757876

model/backbone.dark5.2.m.0.cv1.bn/FusedBatchNormV3 f4 [32]
0	0x3f00ff94	0.5038998
1	0xbe947aef	-0.2900004
2	0xbe866cda	-0.26254922
3	0xbde1df24	-0.11028889
4	0xbde48fe9	-0.11160261
5	0x3ea1081c	0.314515
6	0xbbd05a8c	-0.0063584503
7	0x3d455f3d	0.04818653
8	0xbe3db7d0	-0.1852715
9	0x3eff9779	0.49920252
10	0x3eb1f3f4	0.34756434
11	0xbe6d19c1	-0.23154356
12	0x3e6640de	0.22485682
13	0xbf382b7b	-0.71941346
14	0x3e781bc9	0.24229349
15	0xbeda482f	-0.42633197
16	0x3f58d5f7	0.84701484
17	0xbe18dea4	-0.1492868
18	0xbc4c6bde	-0.012476889
19	0x3e1ad420	0.15119982
20	0xbf20b45b	-0.627752
21	0xbdd5c6c8	-0.10438305
22	0x3e197bbc	0.14988607
23	0xbe14e4f9	-0.14540471
24	0x3f2caba8	0.67449427
25	0xbedf3989	-0.43598583
26	0x3e05e0ff	0.1307411
27	0xbf272fd9	-0.65307385
28	0x3d96524c	0.07339916
29	0xbe88a30c	-0.26686895
30	0x3ebac6f6	0.3647992
31	0xbf162f81	-0.58666235

model/backbone.dark5.2.m.0.cv2.bn/FusedBatchNormV3 f4 [32]
0	0x3f54cf21	0.83128554
1	0xbea41720	-0.32048893
2	0xbeaae989	-0.33381298
3	0xbf0c64b1	-0.5484114
4	0xbf4debc2	-0.8043786
5	0xbebc6527	-0.36795923
6	0xbd5a597c	-0.053307995
7	0xbe8858e0	-0.26630306
8	0xbd998df3	-0.07497778
9	0xbdef0a04	-0.11671832
10	0x3aea18b0	0.0017860141
11	0xbef8fdd6	-0.4863116
12	0xbceaba1e	-0.0286532
13	0xbdad8953	-0.08473458
14	0x3f0684b1	0.5254622
15	0x3e9b0e0a	0.30284148
16	0xbe961603	-0.2931367
17	0xbe509c47	-0.20372115
18	0xbe28f19c	-0.16498417
19	0xbe2997d8	-0.1656183
20	0xbf16d6d8	-0.58921576
21	0xbe0bea48	-0.1366359
22	0xbd2e5e82	-0.0425706
23	0xbe714388	-0.23560917
24	0xbe8f546b	-0.27994093
25	0x3e7c9b80	0.24668694
26	0x3ee0c363	0.43899068
27	0x3d7065d7	0.058690872
28	0xbf2a32d9	-0.6648384
29	0x3efefe52	0.49803406
30	0xbe73d05c	-0.23809952
31	0xbe2612f3	-0.16218166

model/backbone.dark5.2.cv2.bn/FusedBatchNormV3 f4 [32]
0	0x3e8cf8fe	0.27533716
1	0x3ee11713	0.43962917
2	0x3a84f1bc	0.0010142843
3	0xbea49990	-0.3214841
4	0xbea7887b	-0.32721314
5	0x3f3b7a34	0.7323334
6	0xbe168ad3	-0.14701395
7	0xbdcba76e	-0.09944044
8	0x3e994279	0.29933527
9	0x3e97cd60	0.29648876
10	0x3f91cfe3	1.1391567
11	0x3d9777e0	0.07395911
12	0xbe902cd3	-0.28159198
13	0x3f2d0c65	0.6759704
14	0x3eb64749	0.3560126
15	0xbe486fdf	-0.19573925
16	0x3e965c44	0.29367268
17	0x3e5a7e47	0.21337233
18	0x3b13697f	0.00224933
19	0x3ecd603d	0.40112486
20	0x3e1d8e47	0.15386306
21	0x3e4bae9b	0.19890825
22	0xbeb64a42	-0.3560353
23	0xbe013c6e	-0.12620708
24	0x3d18b0d6	0.03727802
25	0xbef4cde3	-0.4781333
26	0x3f01f65a	0.5076653
27	0x3ea5e560	0.32401562
28	0x3f15f738	0.5858035
29	0x3eef4a43	0.46736345
30	0x3f0ea2ca	0.55717146
31	0x3cd2f338	0.025750741

model/backbone.dark5.2.cv3.bn/FusedBatchNormV3 f4 [64]
0	0x3f064a93	0.5245754
1	0x3f08a7be	0.53380954
2	0x3e1c420b	0.15259568
3	0xbe8e665d	-0.27812472
4	0x3e80bdda	0.25144845
5	0x3f5bd242	0.858677
6	0x3ef22c21	0.47299293
7	0xbf37c823	-0.7178976
8	0x3f01c9a3	0.506983
9	0x3f35dc2c	0.7103908
10	0x3e9bf663	0.30461416
11	0x3dc39f2b	0.09551843
12	0x3eb98d13	0.36240444
13	0x3f32e25b	0.6987664
14	0xbd75f14b	-0.060044568
15	0x3d897b66	0.067129895
16	0x3c3628c0	0.011118114
17	0x3eddce9d	0.43321696
18	0x3f31ebe4	0.69500566
19	0xbed8e87c	-0.42364872
20	0xbe999957	-0.29999802
21	0xbea007d1	-0.31255963
22	0x3d10bf79	0.035338853
23	0x3f20d1ad	0.6281994
24	0x3d7b1e45	0.061308164
25	0x3f09bc5a	0.53803027
26	0x3e4b5764	0.19857556
27	0x3de67bbf	0.112540714
28	0x3eb280ca	0.34863883
29	0x3eb7e74a	0.35918647
30	0xbe592b8b	-0.21208017
31	0xbe248a71	-0.16068436
32	0xbe09fcca	-0.13475338
33	0x3c606df2	0.013698088
34	0xbe0bd60c	-0.13655871
35	0xbec45b0c	-0.38350713
36	0x3eb2dec1	0.34935573
37	0x3dd778ec	0.10521111
38	0x3e3bb9cd	0.18332596
39	0xbe52519e	-0.20538947
40	0x3ebedcd2	0.37277848
41	0x3e66c941	0.2253771
42	0xbdc7cd2b	-0.097559296
43	0xbef63413	-0.48086604
44	0x3e584e8e	0.21123716
45	0xbdefa5ba	-0.11701532
46	0xbee90260	-0.45509624
47	0x3e17aafa	0.14811316
48	0x3e8257c6	0.2545759
49	0xbd669288	-0.056292087
50	0x3e04944c	0.12947196
51	0xbd93a0fd	-0.072084405
52	0xbddabb7a	-0.106802896
53	0x3dfe3aeb	0.124135815
54	0x3e94fac4	0.2909757
55	0x3dc15ef0	0.09441936
56	0x3dc7e6e8	0.09760839
57	0xbe6366ed	-0.22207232
58	0xbcc4873c	-0.023990266
59	0x3d170d5f	0.036877986
60	0x3dc668cb	0.096879564
61	0xbdea505e	-0.1144111
62	0x3e86cadb	0.2632664
63	0x3e8a8ee9	0.27062157

model/conv_for_feat3.bn/FusedBatchNormV3 f4 [64]
0	0xbf0d0a01	-0.5509339
1	0x3e90e028	0.28296018
2	0xbf17ce81	-0.59299475
3	0xbe91cf59	-0.28478506
4	0xbe033d42	-0.12816337
5	0x3f56ca1c	0.83902144
6	0xbf3c87d7	-0.73644775
7	0x3daa5720	0.08317399
8	0xbf12ad6c	-0.5729587
9	0x3e28e74a	0.1649448
10	0x3e85fecb	0.26170954
11	0xbe27b5d9	-0.16377963
12	0x3eb03eec	0.34423006
13	0x3d61d109	0.055130992
14	0xbc962506	-0.018328201
15	0xbe0efa06	-0.13962564
16	0x3d6bc226	0.0575582
17	0x3e156b43	0.14591698
18	0x3e324815	0.1741031
19	0xbee3db81	-0.44503406
20	0x3d623558	0.055226654
21	0x3e88c979	0.2671621
22	0x3e50265c	0.20327133
23	0xbe947fe2	-0.29003817
24	0xbe6516ba	-0.22371951
25	0xbe9a3069	-0.3011506
26	0xbc718eec	-0.014743548
27	0x3ea2253c	0.31669033
28	0xbf5e468b	-0.8682639
29	0xbd69afbb	-0.057052355
30	0xbeb43623	-0.35197553
31	0x3e061cd8	0.1309694
32	0x3cc9ce22	0.024634425
33	0xbd22d1e8	-0.039750963
34	0x3e2ee51a	0.17079583
35	0xbea20d95	-0.31650987
36	0x3efbf0b6	0.49207085
37	0xbdca425e	-0.0987594
38	0x3d34cc0e	0.044139914
39	0xbec23447	-0.3793051
40	0xbdbabe30	-0.09118307
41	0x3f1741c1	0.5908471
42	0xbd189785	-0.037253875
43	0x3dd47335	0.103735365
44	0xbe412565	-0.18861921
45	0x3e5a9df1	0.21349312
46	0x3ccf7881	0.025326015
47	0xbec714f9	-0.38883188
48	0xbeba5c8a	-0.36398727
49	0x3e833f90	0.25634432
50	0xbd85cd61	-0.065333135
51	0xbe3208d6	-0.17386183
52	0xbf65e078	-0.8979564
53	0xbe5fb020	-0.2184453
54	0x3ee0ce89	0.43907574
55	0x3f0ce8d7	0.55042785
56	0xbdd24036	-0.102661535
57	0x3f11c83c	0.5694616
58	0x3eacc3e8	0.33743215
59	0x3f096a56	0.5367788
60	0x3e04d85d	0.12973161
61	0xbf00d359	-0.5032249
62	0xbd910e5b	-0.07082816
63	0xbe576156	-0.21033224

model/conv3_for_upsample1.cv1.bn/FusedBatchNormV3 f4 [32]
0	0x3f570286	0.83988225
1	0xbea459ed	-0.32099858
2	0xbf8d0602	-1.1017458
3	0xbe966e88	-0.29381204
4	0xbf467beb	-0.77532834
5	0x3f6b7879	0.919807
6	0xbe839908	-0.2570269
7	0xbe67b207	-0.22626506
8	0xbf8071b9	-1.0034705
9	0xbe8047de	-0.2505483
10	0x3e77cbf4	0.24198896
11	0x3f613952	0.8797809
12	0x3f082cbe	0.5319327
13	0x3eb72a70	0.35774565
14	0xbea9cfde	-0.33166403
15	0xbf62501b	-0.8840348
16	0xbe62ff5f	-0.22167729
17	0x3d63f4d8	0.055653423
18	0x3e9921a6	0.29908484
19	0xbe8560ac	-0.26050317
20	0xbf85a253	-1.0440162
21	0xbf16f5fb	-0.58969086
22	0x3f37f1be	0.71853244
23	0xbea45565	-0.320964
24	0xbf2f539b	-0.68486947
25	0x3dff16b4	0.12455502
26	0xbe0d1f54	-0.13781482
27	0x3db9576f	0.0904988
28	0x3f27aff1	0.6550284
29	0xbeb9a641	-0.36259654
30	0x3d53c442	0.051700838
31	0x3eb52656	0.3538081

model/conv3_for_upsample1.m.0.cv1.bn/FusedBatchNormV3 f4 [32]
0	0x3e72856c	0.23683709
1	0xbdd0bc00	-0.10192108
2	0x3e80ff48	0.25194764
3	0x3d87afc6	0.06625323
4	0xbe61b7f0	-0.22042823
5	0xbc203648	-0.009778567
6	0xbee971ec	-0.45594728
7	0xbf581948	-0.84413576
8	0x3f095124	0.53639436
9	0xbe07408c	-0.13208216
10	0xbee82515	-0.4534079
11	0xbe3f2286	-0.18665513
12	0xbede0910	-0.4336629
13	0xbe26fab2	-0.1630657
14	0xbdbed64b	-0.09318217
15	0xbe939ec8	-0.28832078
16	0xbe996297	-0.2995803
17	0xbf2da8ca	-0.67835677
18	0xbdf9226e	-0.1216477
19	0xbe850b08	-0.2598498
20	0xbf1a038f	-0.6016168
21	0x3e88817e	0.26661295
22	0xbead9599	-0.33903196
23	0x3e0de6ef	0.13857625
24	0xbe3d48a0	-0.18484735
25	0xbe3a4809	-0.18191542
26	0xbec15ebb	-0.37767586
27	0x3f173f16	0.59080637
28	0xbb5bff90	-0.0033569075
29	0xbeeafb60	-0.4589491
30	0xbd448c0b	-0.047985118
31	0x3e24fe6f	0.16112684

model/conv3_for_upsample1.m.0.cv2.bn/FusedBatchNormV3 f4 [32]
0	0x3f6515db	0.89486474
1	0x3f3dc362	0.74126256
2	0x3d98cdaf	0.07461106
3	0xbe99dedd	-0.30052844
4	0x3ed04a4a	0.40681678
5	0xbed39929	-0.4132779
6	0x3d3993a1	0.045306806
7	0xbeee0729	-0.46489838
8	0x3aee4fc0	0.0018181726
9	0x3e860d8a	0.26182204
10	0x3ecb14af	0.39664218
11	0x3ecca977	0.3997304
12	0x3f116b96	0.5680479
13	0x3eddbd43	0.43308458
14	0x3effc745	0.49956718
15	0x3e498f10	0.1968348
16	0xbf1e9df1	-0.6195975
17	0xbde9770b	-0.11399659
18	0x3d7d015f	0.061768886
19	0x3e998708	0.29985833
20	0xbc2d214c	-0.010567021
21	0x3dc1db1d	0.09465621
22	0x3e5cb5d3	0.21553735
23	0xbf460090	-0.7734461
24	0x3e9dac17	0.30795357
25	0x3e53c1f7	0.2067946
26	0xbd3ea546	-0.046544336
27	0x3f016a8c	0.505532
28	0x3e77a839	0.24185266
29	0xbee0ee03	-0.4393159
30	0x3e8bdccf	0.273169
31	0x3f56f6b9	0.8397022

model/conv3_for_upsample1.cv2.bn/FusedBatchNormV3 f4 [32]
0	0xbc747e26	-0.014922654
1	0x3ee0eeb1	0.43932107
2	0x3e9cd8ab	0.30634055
3	0x3e9d71e7	0.30750963
4	0x3edef039	0.4354265
5	0x3e3741df	0.17896222
6	0xbef2e9c7	-0.47443983
7	0x3f279584	0.6546252
8	0x3e0a5331	0.13508298
9	0x3e6bd9c6	0.23032293
10	0xbea808a1	-0.32819083
11	0x3df2bfd8	0.118529975
12	0x3ee5c64e	0.44877857
13	0xbce1d4e6	-0.027567338
14	0xbf6ad4bf	-0.91730875
15	0xbde62eda	-0.11239405
16	0xbe66be7b	-0.225336
17	0xbf4ccce8	-0.8000016
18	0x3f0a4cf5	0.5402368
19	0x3e81a538	0.25321364
20	0x3e926456	0.28592175
21	0xbf0c9e4a	-0.5492903
22	0x3eeebcab	0.46628317
23	0x3e728cd5	0.23686536
24	0x3e561324	0.20905739
25	0xbe869eb1	-0.26292947
26	0x3f49fd82	0.7890245
27	0xbebb2a76	-0.36555833
28	0xbeb0356d	-0.3441576
29	0x3e74c321	0.23902561
30	0x3ea79db4	0.32737505
31	0x3f6ab6e5	0.91685325

model/conv3_for_upsample1.cv3.bn/FusedBatchNormV3 f4 [64]
0	0x3da7fefa	0.0820293
1	0x3e39c8ad	0.18142958
2	0x3eed8332	0.46389157
3	0x3e663c7c	0.2248401
4	0x3f1bbc92	0.6083461
5	0xbf849e35	-1.0360781
6	0x3e03e65b	0.12880842
7	0xbea4fba2	-0.3222323
8	0x3ead9384	0.33901608
9	0xbe9dafbb	-0.30798134
10	0xbf51ce41	-0.81955343
11	0xbea45ac2	-0.32100493
12	0x3e86199d	0.26191416
13	0x3e318648	0.1733638
14	0xbc909805	-0.017650614
15	0xbe23e62a	-0.1600577
16	0xbed7e193	-0.42164287
17	0xbee7e85c	-0.45294464
18	0x3ddd17d3	0.1079556
19	0x3e4782ad	0.19483443
20	0xbf515056	-0.8176321
21	0x3e30a01f	0.17248581
22	0xbe95e3d6	-0.29275388
23	0x3f32f24d	0.6990097
24	0xbf33e952	-0.70277894
25	0x3e3f6cd6	0.18693861
26	0xbede7f1e	-0.43456358
27	0x3f4c4132	0.7978698
28	0xbed90350	-0.4238534
29	0xbe9b15ee	-0.3029017
30	0xbe9365b5	-0.28788534
31	0xbe000e23	-0.12505393
32	0x3f63661a	0.8882767
33	0x3ea453aa	0.3209508
34	0xbf5ecf5b	-0.8703515
35	0xbdee3042	-0.11630298
36	0x3ea5aecf	0.3235993
37	0x3ea06ed1	0.31334546
38	0x3f27a2bc	0.6548269
39	0xbdb941d7	-0.09045761
40	0xbd84ed67	-0.064905934
41	0x3f4a7cbc	0.7909658
42	0xbdb8fd5a	-0.09032698
43	0x3e5b9564	0.21443707
44	0x3e2ae6aa	0.16689554
45	0xbead4d0c	-0.33847845
46	0x3e6b3a4b	0.22971456
47	0xbf820f7e	-1.0160978
48	0x3f1c3dc4	0.61031747
49	0xbdd66528	-0.10468513
50	0x3e475c1b	0.19468729
51	0x3d925d68	0.07146722
52	0x3db05ad4	0.08611074
53	0xbf0e31da	-0.5554482
54	0xbe836719	-0.25664595
55	0x3f82d330	1.0220699
56	0x3e61a900	0.22037125
57	0x3eec815c	0.46192443
58	0x3e55df8c	0.20886058
59	0x3fc35c66	1.5262573
60	0x3ec40baf	0.38290164
61	0x3db49374	0.08817187
62	0x3eae2bee	0.3401789
63	0x3e8402fa	0.2578352

model/conv_for_feat2.bn/FusedBatchNormV3 f4 [64]
0	0xbddaf245	-0.106907405
1	0x3f4cb848	0.7996869
2	0x3e067a97	0.13132702
3	0xbe897d66	-0.26853484
4	0xbe26dc05	-0.16294868
5	0xbe2a90af	-0.16656755
6	0xbebc82f9	-0.36818674
7	0xbe384c54	-0.17997867
8	0xbdea6adc	-0.11446163
9	0xbe59f959	-0.21286525
10	0xbe339b85	-0.17539795
11	0x3e633559	0.2218832
12	0xbe49769d	-0.19674154
13	0xbfb42614	-1.407412
14	0x3f350026	0.7070335
15	0xbe80ddc3	-0.2516919
16	0xbcc47dae	-0.02398571
17	0xbd9db803	-0.07701113
18	0xbe4d6515	-0.20058091
19	0xbe059b78	-0.13047588
20	0xbe876b3a	-0.26448995
21	0x3e101ebd	0.14074226
22	0x3ed9ad58	0.42515063
23	0x3e967433	0.29385528
24	0x3e9be4ed	0.30448094
25	0xbcd57c48	-0.026060238
26	0xbedac406	-0.4272768
27	0x3d95aade	0.07307981
28	0x3f06ba0b	0.5262763
29	0x3d04b3d5	0.032398064
30	0x3dc4982b	0.09599336
31	0x3e386efa	0.18011084
32	0xbe3eb740	-0.18624592
33	0x3e073e0a	0.1320726
34	0x3e95e2ab	0.29274496
35	0x3f1fd8f5	0.62440425
36	0xbc0f6400	-0.008751869
37	0x3e1f3402	0.15547183
38	0x3d0ea05e	0.034820907
39	0xbe63700a	-0.22210708
40	0xbead3656	-0.33830518
41	0x3f0f103e	0.5588416
42	0x3ebda214	0.37037718
43	0xbd01c84a	-0.03168515
44	0xbc37febe	-0.011230169
45	0x3ee315b0	0.44352484
46	0xbeecdb92	-0.4626127
47	0x3f1e7a6f	0.6190557
48	0x3f2ca278	0.6743541
49	0xbf3111d1	-0.6916781
50	0x3e9f5ded	0.31126347
51	0xbf0e5c0e	-0.55609214
52	0x3f3c467a	0.7354504
53	0xbe756ede	-0.23968074
54	0xbe385088	-0.1799947
55	0xbf2473c0	-0.6423912
56	0x3ef61e1e	0.48069853
57	0x3ec0b0fc	0.37635028
58	0xbf57546d	-0.841132
59	0x3f6fc73f	0.936634
60	0x3b038720	0.0020069554
61	0x3f5e7109	0.8689123
62	0xbe77e6e0	-0.24209166
63	0xbe057833	-0.13034134

model/conv3_for_upsample2.cv1.bn/FusedBatchNormV3 f4 [32]
0	0x3f08a104	0.5337069
1	0x3e221b30	0.15830684
2	0x3f45cb96	0.7726377
3	0xbdd2c588	-0.10291582
4	0xbf3c1501	-0.7346955
5	0xbe0950e3	-0.13409762
6	0xbe55c50b	-0.20875947
7	0xbe9cd2bb	-0.30629525
8	0x3ea9f593	0.3319517
9	0x3f35110e	0.7072915
10	0x3fa0bb52	1.2557166
11	0xbf188aaa	-0.59586585
12	0xbf00acfa	-0.5026394
13	0xbf021671	-0.5081549
14	0x3ec1d0dd	0.37854663
15	0xbe92acdb	-0.28647503
16	0x3e1d0ea8	0.15337622
17	0x3d9f578c	0.0778037
18	0x3d300322	0.042971738
19	0xbe5856fd	-0.21126933
20	0x3e694fcf	0.22784351
21	0xbf23c63d	-0.6397436
22	0xbcc742e8	-0.024323896
23	0xbcfb3499	-0.030664729
24	0xbf4abaaf	-0.79191107
25	0xbe4e705f	-0.20160054
26	0x3ddf44eb	0.10901817
27	0xbf1ec27f	-0.6201553
28	0xbe4f0d89	-0.20220007
29	0x3e57c54c	0.21071357
30	0xbeded17a	-0.43519193
31	0x3f0536d0	0.5203676

model/conv3_for_upsample2.m.0.cv1.bn/FusedBatchNormV3 f4 [32]
0	0x3f14c071	0.5810614
1	0xbdee89b2	-0.11647357
2	0xbdafb40d	-0.08579264
3	0x3e980488	0.29690957
4	0xbf32a450	-0.6978197
5	0x3eb284a6	0.34866828
6	0xbded1c22	-0.115776315
7	0xbed8249b	-0.42215428
8	0x3dec31f3	0.115329646
9	0xbeb22376	-0.3479268
10	0x3e393190	0.18085313
11	0x3ceee742	0.029163007
12	0x3eac19fd	0.33613577
13	0x3d79f4c6	0.06102445
14	0x3df64c27	0.12026244
15	0xbe57235c	-0.21009582
16	0xbee28e97	-0.44249412
17	0x3d6857b4	0.056724265
18	0xbf031718	-0.51207113
19	0x3ec04877	0.37555286
20	0xbf0f840e	-0.56060874
21	0xbeaaff49	-0.33397892
22	0xbd2e1f78	-0.04251048
23	0xbe4f2984	-0.2023068
24	0x3e35e3a9	0.17762627
25	0xbee6deeb	-0.45091948
26	0xbe0ec067	-0.13940583
27	0xbe02e051	-0.12780882
28	0xbe0fe16c	-0.14050835
29	0x3e52a782	0.20571712
30	0x3ef81b8e	0.48458523
31	0x3cbd66bc	0.023120277

model/conv3_for_upsample2.m.0.cv2.bn/FusedBatchNormV3 f4 [32]
0	0x3ed21247	0.4102957
1	0x3f49afa7	0.7878365
2	0x3c3778ec	0.011198264
3	0x3efebadb	0.49751934
4	0xbf3c2392	-0.73491776
5	0x3e3f4d14	0.18681747
6	0x3f00c688	0.50302935
7	0xbea7a590	-0.32743502
8	0x3db9f866	0.09080581
9	0x3f280892	0.6563808
10	0x3df4e68e	0.11958037
11	0xbdeecae3	-0.11659791
12	0x3dc35b44	0.09538892
13	0x3ed1f2cd	0.41005555
14	0xbed990cc	-0.42493284
15	0x3e1511c2	0.14557555
16	0xbe10eca4	-0.14152771
17	0xbea8b5cf	-0.3295121
18	0xbe0d4025	-0.13794
19	0x3c35e320	0.011101514
20	0x3edde6d1	0.4334016
21	0xbcacde66	-0.021102142
22	0x3d9be50e	0.07612048
23	0x3ec3360c	0.38127172
24	0xbcc887b2	-0.024478767
25	0x3e9db1e1	0.30799773
26	0xbe0e3bda	-0.13890019
27	0x3ecf4544	0.40482533
28	0x3ed7316c	0.42029893
29	0xbd6c0f9d	-0.057632077
30	0x3f05bf2b	0.52244824
31	0x3e0456ca	0.12923732

model/conv3_for_upsample2.cv2.bn/FusedBatchNormV3 f4 [32]
0	0xbea87f26	-0.32909507
1	0xbc066085	-0.008201723
2	0x3e109784	0.14120299
3	0xbf601c48	-0.87543154
4	0xbe2a48d1	-0.1662934
5	0xbe43f61f	-0.19136856
6	0x3e7f0da2	0.24907544
7	0x3f5f3bd0	0.8720064
8	0xbdd56604	-0.104198486
9	0xbec6af27	-0.38805506
10	0xbf29b3f1	-0.66290194
11	0x3ee2f626	0.4432842
12	0x3f021383	0.5081102
13	0x3c768714	0.015046854
14	0x3eb4857f	0.352581
15	0x3d5b41a0	0.05352938
16	0x3f1f6186	0.62258184
17	0xbe420744	-0.18948084
18	0x3f5004b8	0.812572
19	0xbf0d89b9	-0.55288273
20	0x3e094f8a	0.13409248
21	0xbed351f2	-0.41273457
22	0x3f0a3c35	0.5399812
23	0x3e13714a	0.14398685
24	0x3f2c5607	0.6731877
25	0xbf6b1d61	-0.91841704
26	0xbec5ad30	-0.38608694
27	0x3ebab2d1	0.3646455
28	0xbeb3e76c	-0.35137498
29	0xbeb67f8b	-0.35644183
30	0xbf1dd9a9	-0.6166025
31	0xbeeb28c4	-0.4592954

model/conv3_for_upsample2.cv3.bn/FusedBatchNormV3 f4 [64]
0	0x3ef8d10f	0.48597
1	0x3f33ebd3	0.70281714
2	0x3f1545bf	0.5830955
3	0xbd9718ad	-0.073777534
4	0xbf70a348	-0.9399915
5	0xbd1e3ae8	-0.038630396
6	0x3fdd4e79	1.7289573
7	0xbe32ee37	-0.17473684
8	0xbf21ae11	-0.6315623
9	0x3e95bd4b	0.29245982
10	0x3eae1592	0.34000832
11	0x3fec084e	1.8440034
12	0x4010e414	2.2639208
13	0x3c5f099c	0.013613131
14	0x3e78fab4	0.24314386
15	0x3eff5a25	0.49873462
16	0xbeb02978	-0.34406638
17	0xbea88df7	-0.3292081
18	0x3e0c2218	0.1368488
19	0x3e6031e5	0.21894033
20	0xbecaa353	-0.39577731
21	0xbf923874	-1.1423478
22	0x3f3bb96e	0.7332982
23	0xbdf4075e	-0.11915468
24	0x3f07b706	0.53013647
25	0x3f48ae19	0.7839065
26	0xbeab1f2d	-0.33422223
27	0xbf05cee7	-0.5226883
28	0xbe97d2a3	-0.2965289
29	0xbf2496d4	-0.64292645
30	0xbeb3454c	-0.35013807
31	0xbdfc173c	-0.12309119
32	0xbe9bda05	-0.30439773
33	0x3efbcf0a	0.49181396
34	0x3ffd530c	1.9790969
35	0x3e7b009c	0.24511951
36	0x3e8f7344	0.28017628
37	0xbeb61e9c	-0.35570228
38	0x3d081b75	0.03322931
39	0x3e73b477	0.2379931
40	0x3f8357fa	1.0261223
41	0x3e729361	0.23689033
42	0x3eb50fd5	0.3536364
43	0xbe003879	-0.12521543
44	0x3e120584	0.14259917
45	0x3f615712	0.88023484
46	0x3ca24d38	0.019812211
47	0x3ec878a0	0.3915453
48	0x3e2ecb13	0.17069654
49	0xbe99b76f	-0.3002276
50	0xbd49416d	-0.04913466
51	0xbe50f598	-0.20406187
52	0x3e9aaa9e	0.30208296
53	0xbf596a24	-0.8492758
54	0x3f0a35fd	0.5398863
55	0xbf39de52	-0.7260486
56	0x3ede7942	0.43451887
57	0x3f04941a	0.51788485
58	0x3e0965d8	0.13417757
59	0x3fd1bc8f	1.6385669
60	0xbf1d9a78	-0.61563826
61	0xbe1bc7ce	-0.15212938
62	0x3dd231b8	0.10263389
63	0xbdfa3ba2	-0.12218405

model/down_sample1.bn/FusedBatchNormV3 f4 [64]
0	0xbf922181	-1.1416475
1	0x3ec0f5ba	0.37687474
2	0xbf84d679	-1.0377952
3	0x3f93ca1e	1.1546056
4	0x3ebca738	0.36846328
5	0xbee8044e	-0.45315784
6	0xbff2c03a	-1.8964913
7	0x3da769bd	0.08174465
8	0xbef79ed9	-0.4836338
9	0xbf69a022	-0.9125997
10	0x3fa1c76e	1.2638986
11	0xbfbdedfc	-1.4838252
12	0x3e7d7187	0.24750338
13	0x3eeec9f4	0.46638453
14	0xbe59b142	-0.21259025
15	0xbdade21d	-0.08490393
16	0x3f56f92b	0.8397395
17	0xbeb68114	-0.35645354
18	0xbd42d903	-0.04757024
19	0xbeee7693	-0.4657484
20	0x3f8403c1	1.0313646
21	0x3dc4e6e3	0.09614351
22	0xbf52571c	-0.8216417
23	0x3e6161f3	0.22010021
24	0x3f5d2657	0.86386627
25	0xbf63002d	-0.88672143
26	0x3e7f6fad	0.24944945
27	0x3f3965a0	0.7242069
28	0x3ee7475b	0.45171627
29	0xbf1e8066	-0.6191467
30	0x3e1b4423	0.15162711
31	0x3eabfdfc	0.33592212
32	0x3f19365a	0.5984856
33	0x3edef116	0.4354331
34	0xbfb024a4	-1.3761182
35	0xbf318a28	-0.69351435
36	0xbecb09e5	-0.39655986
37	0xbfa82ee4	-1.313931
38	0xbde77066	-0.11300735
39	0xbfb3b5f3	-1.4039901
40	0x3ef45168	0.47718358
41	0x3f004d09	0.50117546
42	0x3ee86cfa	0.45395643
43	0xbeb6b77a	-0.35686857
44	0xbf020c95	-0.5080045
45	0xbcf60dfc	-0.030035965
46	0x3fe7e181	1.8115693
47	0xbe4d7cc1	-0.20067121
48	0xbe32589f	-0.17416619
49	0x3ef54881	0.4790688
50	0x3f8bd718	1.0925016
51	0x3fc6621d	1.5498692
52	0x3f76fd00	0.964798
53	0x3e8398c3	0.25702485
54	0x3f0b54c6	0.5442623
55	0x3f1b620b	0.60696477
56	0x3e23644c	0.15956229
57	0x3f359cec	0.7094257
58	0xbe26869b	-0.16262285
59	0x3eb001a6	0.34376258
60	0x3e5c27eb	0.21499602
61	0x3c5eb023	0.013591799
62	0xbf391c1c	-0.72308517
63	0xbf116614	-0.56796384

model/conv3_for_downsample1.cv1.bn/FusedBatchNormV3 f4 [32]
0	0x3f45d062	0.7727109
1	0xbeae936a	-0.34096843
2	0xbdbbb9b6	-0.09166281
3	0xbeac6090	-0.3366742
4	0xbedf3602	-0.43595892
5	0x3da91507	0.08255964
6	0xbdedf1bb	-0.11618372
7	0x3ddbfaec	0.10741219
8	0x3dd49559	0.10380048
9	0xbdd5c254	-0.10437456
10	0xbdc39fba	-0.0955195
11	0xbe7aad6f	-0.24480222
12	0xbf1af724	-0.60533357
13	0xbed3e713	-0.41387233
14	0xbe5b27e0	-0.2140193
15	0x3e17af63	0.14812998
16	0xbcdd4f56	-0.02701537
17	0xbe8d8e94	-0.2764784
18	0x3ca1397c	0.019680731
19	0x3f5db128	0.86598444
20	0xbe9c09e9	-0.3047631
21	0x3e9401f0	0.28907728
22	0x3f0ccf5f	0.55003923
23	0x3ef832ef	0.4847636
24	0xbddec25f	-0.10876917
25	0x3e6c6af1	0.2308767
26	0xbdbce6f0	-0.09223735
27	0xbcf0c36d	-0.029390061
28	0xbf062632	-0.5240203
29	0xbebaffa1	-0.36523154
30	0x3f007e0f	0.5019235
31	0x3ed76f49	0.4207709

model/conv3_for_downsample1.m.0.cv1.bn/FusedBatchNormV3 f4 [32]
0	0xbe843929	-0.2582486
1	0x3ec2f5a6	0.3807804
2	0x3e3d97cf	0.18514942
3	0xbec4aabb	-0.38411507
4	0xbe31e17a	-0.17371169
5	0xbf08f788	-0.535027
6	0xbdbd92de	-0.09256528
7	0x3ec391ad	0.3819708
8	0x3e31ee6d	0.17376108
9	0xbe72867a	-0.23684111
10	0xbec5043a	-0.38479787
11	0xbe32b4dd	-0.17451806
12	0x3d857fb7	0.065185
13	0xbee03e1f	-0.43797395
14	0x3d59afb5	0.053146083
15	0xbd66a19e	-0.056306474
16	0x3e70da30	0.23520732
17	0x3dfa03a1	0.122077234
18	0xbf016d8e	-0.5055779
19	0xbef73cab	-0.48288473
20	0xbe365e7d	-0.17809482
21	0x3e08adda	0.13347569
22	0xbd2c6aa6	-0.042093895
23	0xbecad072	-0.39612156
24	0xbf02b914	-0.51063657
25	0xbe8438eb	-0.25824675
26	0xbe82f538	-0.25577712
27	0xbe6a5c58	-0.22886789
28	0x3dbc05f2	0.091808215
29	0xbe66913b	-0.22516339
30	0xbf017281	-0.50565344
31	0x3de54bce	0.11196099

model/conv3_for_downsample1.m.0.cv2.bn/FusedBatchNormV3 f4 [32]
0	0x3e885312	0.26625878
1	0x3eb179d0	0.34663248
2	0x3eca57da	0.3952015
3	0xbdf9a076	-0.121888086
4	0x3ea4d2a8	0.32191968
5	0x3e060278	0.13086879
6	0x3e2cea10	0.16886163
7	0xbdb71e3b	-0.08941313
8	0x3ef825dd	0.48466387
9	0xbe006cf3	-0.12541561
10	0x3e093577	0.13399301
11	0xbe9f4427	-0.31106684
12	0x3e7d2c4c	0.24723929
13	0x3f47cab2	0.78043664
14	0x3ea1b71b	0.3158501
15	0x3ed4a58f	0.4153256
16	0xbc8e0dc7	-0.017340554
17	0x3e4bd0f8	0.19903934
18	0x3e3313c1	0.17488004
19	0x3d0a9040	0.033828974
20	0x3f08ef16	0.53489816
21	0xbdd3c103	-0.103395484
22	0x3f11e91f	0.5699634
23	0x3effba47	0.49946806
24	0x3ecc43d2	0.39895493
25	0xbdd78d2a	-0.10524972
26	0xbd2f495b	-0.042794567
27	0x3f15edd4	0.5856602
28	0xbe883c8e	-0.266087
29	0xbd84c3bd	-0.064826466
30	0xbf0384d7	-0.5137457
31	0x3ea7accc	0.3274902

model/conv3_for_downsample1.cv2.bn/FusedBatchNormV3 f4 [32]
0	0xbe36cba6	-0.17851123
1	0x3f66072f	0.8985471
2	0x3e18fd83	0.14940457
3	0xbe2f0d68	-0.17094958
4	0x3db51ff8	0.08843988
5	0x3c382f80	0.011241794
6	0x3e0c4926	0.13699779
7	0x3f815efe	1.0107114
8	0xbeb0b17c	-0.3451041
9	0x3eb3bd2a	0.35105258
10	0xbd497ce0	-0.049191356
11	0x3ec460fd	0.38355246
12	0xbeae3dc4	-0.34031498
13	0xbe20e1cc	-0.15711135
14	0x3eb909cd	0.3614029
15	0xbed30729	-0.412164
16	0xbc364db3	-0.011126923
17	0x3e53da5a	0.20688763
18	0xbe9b40d6	-0.30322903
19	0x3f432ace	0.7623719
20	0x3eda2da0	0.42612934
21	0xbe64947d	-0.22322269
22	0x3ee785b5	0.45219198
23	0x3eb20544	0.34769642
24	0x3f439053	0.76392096
25	0x3f532858	0.82483435
26	0xbebc998d	-0.368359
27	0x3eac34dc	0.33634079
28	0xbf35ff28	-0.7109246
29	0x3cf1b6e6	0.029506158
30	0xbe3286de	-0.1743426
31	0x3f37c538	0.71785307

model/conv3_for_downsample1.cv3.bn/FusedBatchNormV3 f4 [64]
0	0x3eed2bca	0.4632247
1	0xbe31373e	-0.1730623
2	0x3e062870	0.13101363
3	0xbe693ba7	-0.22776662
4	0x3ede1ef0	0.43382978
5	0xbe87d0cc	-0.26526487
6	0xbe9eb2d7	-0.3099582
7	0xbe1102d2	-0.14161232
8	0x3e97e4e5	0.2966682
9	0x3f9d9ce5	1.2313505
10	0xbf167063	-0.5876524
11	0xbf1bfd20	-0.60933113
12	0xbeb10e76	-0.34581345
13	0x3ec21d4c	0.37912977
14	0x3f885773	1.0651687
15	0x3f969649	1.1764613
16	0x3f4bbbdf	0.79583544
17	0x3ef10e41	0.47081187
18	0xbeef59b0	-0.46748114
19	0xbeecb15e	-0.4622907
20	0x3fc266d0	1.5187626
21	0x3e7f62ca	0.24940029
22	0x3fdafb0c	1.7107863
23	0xbd92b885	-0.071641006
24	0x3e9d4603	0.30717477
25	0x3fae6f42	1.3627703
26	0xbf056d37	-0.52119774
27	0xbe20f9c7	-0.15720282
28	0xbc105bd8	-0.00881096
29	0x3ebc219e	0.36744398
30	0x3ea5b9f8	0.32368445
31	0x39675000	0.00022059679
32	0x3eb3d35b	0.3512219
33	0x3f8cdeb5	1.1005465
34	0xbe903f90	-0.28173494
35	0xbf1bfbf8	-0.6093135
36	0x3e0c8653	0.13723116
37	0x3dc4e406	0.096138045
38	0x3e9b4b34	0.30330813
39	0xbe8dc25f	-0.27687356
40	0x3e8317b7	0.2560403
41	0xbecdf1e4	-0.4022361
42	0x404263de	3.0373454
43	0xbeefa438	-0.46804976
44	0x3f3095dc	0.6897867
45	0x3f81decd	1.0146118
46	0x3f8fd354	1.1236367
47	0x3ea29e0a	0.317612
48	0x3dc50c1a	0.09621449
49	0x3dcdc43b	0.100471936
50	0x3e569839	0.20956506
51	0xbdb5eea3	-0.08883407
52	0xbecfbe7a	-0.4057501
53	0xbd2d68d8	-0.042336315
54	0x3e2926d0	0.16518712
55	0x3f1fb43d	0.62384397
56	0xbf149cac	-0.5805156
57	0x3f5402b7	0.8281664
58	0xbdfeb8c6	-0.124375865
59	0x3df1684a	0.1178747
60	0x3ed8af34	0.4232117
61	0x3f41f1a1	0.7575932
62	0xbcc39838	-0.023876294
63	0xbeaa4144	-0.3325292

model/down_sample2.bn/FusedBatchNormV3 f4 [32]
0	0xbe19c87b	-0.15017883
1	0x3f4495c2	0.7679101
2	0x3f1ce68d	0.6128929
3	0x3f5b1d9f	0.85592073
4	0xbe314f5d	-0.17315431
5	0x3f07cc00	0.53045654
6	0xbf35ca95	-0.7101224
7	0x3f7f317f	0.996849
8	0x3e982356	0.2971446
9	0x3e267a40	0.16257572
10	0x3d7096c0	0.058737516
11	0x3e528dfb	0.20561974
12	0x3f0fd3df	0.56182665
13	0x3f29c5b5	0.663173
14	0x3ef026e4	0.4690467
15	0xbdb1dd62	-0.086848035
16	0x3f47ffe3	0.7812483
17	0xbe473c36	-0.19456562
18	0x3e2cdf26	0.16882
19	0xbf33ca42	-0.70230496
20	0xbeb3c2cb	-0.35109553
21	0x3f032747	0.5123181
22	0xbeae3757	-0.34026596
23	0x3eeadd74	0.4587208
24	0x3f9bbb66	1.2166564
25	0x3f3e005e	0.7421931
26	0x3ed5d165	0.41761318
27	0x3ee5e4b3	0.44901046
28	0x3de3bf3d	0.1112046
29	0xbde92ef3	-0.11385908
30	0x3eb2a203	0.3488923
31	0xbef6b0c8	-0.48181748

model/conv3_for_downsample2.cv1.bn/FusedBatchNormV3 f4 [32]
0	0xbf4bbc0e	-0.79583824
1	0x3ebc72db	0.36806378
2	0xbe5a8aac	-0.21341962
3	0x3e770409	0.24122633
4	0xbde358d9	-0.11100931
5	0xbe060d5b	-0.13091032
6	0x3f1927c2	0.5982629
7	0x3b442d76	0.0029934323
8	0xbeecaac9	-0.4622405
9	0xbd1b193c	-0.037865862
10	0x3edce714	0.4314505
11	0xbf1a0a8e	-0.60172355
12	0xbebc0437	-0.36721966
13	0x3e6c0350	0.23048139
14	0xbed67ce9	-0.41892174
15	0x3e8364c6	0.25662822
16	0x3ecdc0dd	0.40186206
17	0x3e4a0833	0.1972969
18	0x3ef34bdf	0.47518823
19	0x3da43582	0.08018018
20	0x3c236210	0.00997211
21	0xbec8d3df	-0.39224145
22	0xbf0d9ab7	-0.553142
23	0x3e8ce708	0.27520013
24	0xbe5135ce	-0.20430681
25	0xbdfb8c99	-0.12282676
26	0xbd2bf302	-0.041979797
27	0xbdad17ad	-0.084517814
28	0x3daa3fc7	0.08312946
29	0x3db0300f	0.086029164
30	0x3ee94d42	0.45566756
31	0x3df7d489	0.12101085
